droplet_approximation/models/mlp_4layer-b=1024-lr=1e-3_halvingschedule-l2reg=1e-6.pth (torch, 13868 bytes, 8 tensors)

fc1.weight f4 [32, 7]
0	0x3f915e15	1.1356837
1	0xbad916f3	-0.0016562626
2	0xbdcd5f2e	-0.1002792
3	0xbd3636ea	-0.044485964
4	0x3db69bfb	0.0891647
5	0xbc3bd299	-0.011463785
6	0xbd7e8b6a	-0.062144674
7	0xbce3497b	-0.027745
8	0x39e5edc5	0.00043855436
9	0x3f62f28e	0.8865136
10	0xba305bcf	-0.0006727548
11	0x3d7f56da	0.062338687
12	0x3a89d8d2	0.0010516888
13	0xba104f48	-0.0005504978
14	0x3d223d25	0.039609093
15	0xba896e3f	-0.0010485126
16	0x3e1a65bd	0.15077873
17	0xbf0256f9	-0.5091396
18	0xbda5dc5b	-0.0809867
19	0x3d86ad75	0.06576053
20	0x3c396b9c	0.01131716
21	0x3e841140	0.2579441
22	0x3a01a1eb	0.0004945087
23	0x3bbf5b94	0.0058397744
24	0xbc3c5311	-0.011494414
25	0xbc83db9a	-0.016095925
26	0xbaef2e7b	-0.0018248105
27	0xbf83b30e	-1.0289018
28	0x3d256650	0.040380776
29	0x3b56ca0c	0.0032774238
30	0x3c4b196c	0.012396198
31	0x3aecab88	0.0018056491
32	0x3be0b286	0.006857219
33	0xbb8014ce	-0.00390873
34	0x3e75246a	0.23939672
35	0xbf11bfc9	-0.56933266
36	0x3b2faf1b	0.0026807252
37	0x3f3186d2	0.69346344
38	0x3c13b9e2	0.009016486
39	0x3d44dfba	0.048064925
40	0xbb5d25d8	-0.003374448
41	0x3b038c06	0.0020072474
42	0x3dc896fb	0.09794422
43	0xba82b643	-0.0009972531
44	0xba73b063	-0.0009295998
45	0xbba6ed09	-0.0050941748
46	0xba9b5ab3	-0.0011852592
47	0xb997253f	-0.00028828715
48	0xbfeda6b7	-1.8566502
49	0x3bbd902b	0.0057850084
50	0xbb15f673	-0.002288249
51	0xbdcc4bb6	-0.09975378
52	0xbe787ab5	-0.24265559
53	0xbd8fcb09	-0.07021148
54	0x3d71306b	0.058884066
55	0xbada6ece	-0.0016665102
56	0xbc6a54fc	-0.014302488
57	0x3b25e626	0.002531418
58	0xbbfbe7d5	-0.0076875486
59	0x3b67e670	0.0035385154
60	0xbb7e3f53	-0.0038795068
61	0x3dc170a6	0.09445314
62	0xbb45f4a9	-0.0030205643
63	0x3d36a4e3	0.044590842
64	0xbb5946a2	-0.0033153673
65	0x3c43c9b5	0.011949946
66	0xbc236951	-0.00997384
67	0x3ef12a9f	0.4710283
68	0x3b555552	0.0032552076
69	0xb7c2f136	-2.3238925e-05
70	0x3fc69a06	1.5515754
71	0xbb057188	-0.002036186
72	0xbd3f8ff0	-0.04676813
73	0xbd5fe980	-0.054666042
74	0xbd126ca9	-0.035748158
75	0xbc82ad72	-0.015951846
76	0xbcb19ccc	-0.021681212
77	0x3ff704d2	1.9298346
78	0xbb1d908b	-0.0024042453
79	0xbc5f5da6	-0.013633167
80	0xbd8cc506	-0.06873517
81	0x3e7bf1a0	0.24603891
82	0xbccdaa9e	-0.02510577
83	0xbca429c8	-0.020039454
84	0xbe4d1701	-0.20028307
85	0x3a1ff16a	0.0006101342
86	0xbd7d8094	-0.0618902
87	0xbb1ae1d0	-0.002363313
88	0xbfa1870c	-1.2619338
89	0x3b016184	0.0019741962
90	0x3c397556	0.011319479
91	0x3e3775b1	0.1791599
92	0x39e4bf8f	0.0004363027
93	0xbda0ad42	-0.07845546
94	0xbc38303a	-0.011241967
95	0xbaf7d325	-0.001890753
96	0xb9056936	-0.00012723063
97	0xbff60a87	-1.9221963
98	0xbdbb6311	-0.09149755
99	0xb99c0a82	-0.00029762468
100	0xbe3145b0	-0.1731174
101	0x3c7b2242	0.015327992
102	0xbc50982c	-0.012731593
103	0x3b27912d	0.002556871
104	0x3e072a06	0.13199624
105	0xbd1b1c07	-0.037868526
106	0x3ab1a8e3	0.001355436
107	0x3d6ecda6	0.05830159
108	0xbca4045d	-0.020021612
109	0x3cad2161	0.02113408
110	0x3d0d5acb	0.034510415
111	0x3ec5a642	0.38603407
112	0x3eaea557	0.3411052
113	0xbe659025	-0.22418268
114	0x3b0e64c1	0.0021727534
115	0x3e5a01ae	0.21289703
116	0x3cb4799b	0.022030642
117	0xbc2aa1c0	-0.010414541
118	0x3a3eceec	0.00072787586
119	0xbf449af6	-0.7679895
120	0x3b1eedf9	0.002425073
121	0x3f180dc5	0.5939601
122	0x3bc86770	0.0061158463
123	0xbb86061f	-0.004090085
124	0xbad3deb4	-0.0016164393
125	0x3a3c1619	0.00071749237
126	0xbb626d13	-0.0034549877
127	0xb93581ec	-0.00017309905
128	0xbb2994c5	-0.0025876027
129	0xb898dfc7	-7.2896066e-05
130	0xb786f5de	-1.6088536e-05
131	0xb8f35cb0	-0.00011604407
132	0xc067c6e7	-3.621515
133	0x3f8284f6	1.0196826
134	0x3bc9886a	0.006150295
135	0xbf1b0eaa	-0.6056925
136	0xbd0e68e6	-0.034768008
137	0xbc2be21c	-0.01049092
138	0x399b0af6	0.0002957207
139	0xbcf8c600	-0.030367851
140	0xbf8935db	-1.071956
141	0x39803187	0.00024450963
142	0x3c817368	0.0158021
143	0x3d159d82	0.036527164
144	0xbe0e95bf	-0.13924311
145	0x3c51c659	0.012803637
146	0x3d3ed904	0.04659368
147	0x3f64bdb0	0.8935194
148	0x3eca6154	0.3952738
149	0xbd7754b3	-0.06038351
150	0xbd4c29f0	-0.049844682
151	0xbb2c550d	-0.0026295811
152	0xbc4637a5	-0.012098228
153	0xbccbbb63	-0.024869626
154	0xbc0b15a4	-0.008489046
155	0x38d67afb	0.00010227222
156	0xb93b33fb	-0.00017853074
157	0x3a14c918	0.0005675717
158	0xb7d8b3c9	-2.5832926e-05
159	0xb8fe4846	-0.00012125126
160	0xc0c8773f	-6.2645564
161	0xbeb48ddf	-0.3526449
162	0x3b095315	0.0020954062
163	0x3f8cef4a	1.1010525
164	0xbd245524	-0.04012026
165	0x3e12f777	0.14352213
166	0xbc5cf9d3	-0.013487297
167	0xbedd7750	-0.4325509
168	0xbc6639a3	-0.014051828
169	0xb8458638	-4.709346e-05
170	0x3f5c14a8	0.8596902
171	0x3b0d09fe	0.0021520848
172	0x3b79ea62	0.0038134088
173	0xbca154b2	-0.019693706
174	0xbd1e62f0	-0.038668573
175	0xba9adb5e	-0.0011814644
176	0xba2ad830	-0.00065172
177	0xbc95bff2	-0.018280003
178	0x3ba3091a	0.00497545
179	0x3b163edf	0.0022925658
180	0xb9df5dab	-0.00042603663
181	0xbfe88715	-1.8166224
182	0x3f424a67	0.7589478
183	0xbba3b89e	-0.0049963733
184	0xbc938c7e	-0.018011328
185	0xbcd1fd74	-0.025633551
186	0x3b8b5d10	0.0042530373
187	0xbbdeefa8	-0.0068034716
188	0x3df05a16	0.117359325
189	0xbe093238	-0.13398063
190	0x3b2ec7ac	0.0026669307
191	0x3d3efdcc	0.04662876
192	0x3e379665	0.17928465
193	0x3cbd91a1	0.02314073
194	0xbd0794e6	-0.033100985
195	0x3e37b678	0.179407
196	0xbc259167	-0.010105467
197	0xbabc3db4	-0.0014361651
198	0x3c136426	0.008996045
199	0xbaa1ebaf	-0.0012353564
200	0xbb1b57ff	-0.0023703573
201	0x3a064cdf	0.0005123149
202	0x3eab1813	0.33416805
203	0x3eda408d	0.42627373
204	0xbab09fa0	-0.0013475306
205	0x3f010359	0.50395733
206	0x3b905a2c	0.0044052806
207	0xbf0ca4e9	-0.5493913
208	0x3b0b1ca7	0.0021226795
209	0xba37c44b	-0.0007010146
210	0xbcd01afe	-0.025403496
211	0x3a6bdd8f	0.00089975534
212	0x3d62ee35	0.055402953
213	0xbeaceee5	-0.33776012
214	0xbc39e641	-0.011346401
215	0xbc54e6c4	-0.012994472
216	0x3cee345b	0.0290777
217	0x3f8c7dfe	1.097595
218	0xbb54764e	-0.0032419148
219	0xbcc6a96a	-0.024250705
220	0xbd240de9	-0.04005233
221	0x3d14fc4e	0.03637343
222	0xbc5b7c0e	-0.013396276
223	0xbede608f	-0.43433043

fc1.bias f4 [32]
0	0x3e0a7ff5	0.13525374
1	0x3f346bf7	0.7047724
2	0xbe1bb7e8	-0.15206873
3	0x3dad504b	0.0846258
4	0xbf043ff2	-0.5166007
5	0xbd8f40eb	-0.06994804
6	0x3d4c4a94	0.04987581
7	0xbd3bebe7	-0.04587927
8	0x3de776d7	0.11301964
9	0x3efb6711	0.4910207
10	0xbe311ec4	-0.17296892
11	0x3aa4b419	0.001256588
12	0x3f34ce07	0.7062687
13	0x3db2b636	0.0872616
14	0x3e1246a7	0.14284764
15	0x3de5dd01	0.11223794
16	0xbe300b98	-0.17191923
17	0xbe11aa6e	-0.1422517
18	0x3d929bd8	0.07158631
19	0x3ed5313d	0.41639128
20	0xbb86c8ae	-0.0041132784
21	0x3e82327a	0.25429136
22	0x3cc16de6	0.023611974
23	0xbe68ec4d	-0.22746392
24	0xbf24ec60	-0.6442318
25	0x3e6f5513	0.23372297
26	0xbf3b4645	-0.731541
27	0x3e9b5f1c	0.30346
28	0xbe2543ad	-0.16139098
29	0x3f8388e6	1.0276153
30	0x3ed22b9f	0.41048905
31	0x3e995c4d	0.29953232

fc2.weight f4 [32, 32]
0	0xbc5c160c	-0.013432991
1	0x3c3f3007	0.011669165
2	0x3dc27d1d	0.0949652
3	0xbdd7c649	-0.10535867
4	0xbe35334b	-0.17695348
5	0x3cd4e702	0.02598906
6	0xbd867d7a	-0.065669015
7	0xbda1e962	-0.07905842
8	0x3c5329ee	0.012888415
9	0xbcbcc41b	-0.02304273
10	0xbd43249e	-0.047642343
11	0x3d581a78	0.052759618
12	0x3bf5c5db	0.007500393
13	0xbf5369e3	-0.82583445
14	0xbe4ea763	-0.2018104
15	0xbd37cf56	-0.044875465
16	0x3dfd7724	0.1237624
17	0x3d9861dd	0.07440541
18	0x3f92d980	1.1472626
19	0xbf063260	-0.52420616
20	0xbda5ba30	-0.08092153
21	0x3b3a1e77	0.0028399506
22	0x4010abe1	2.2604907
23	0x3e8f297e	0.27961344
24	0x3e000e33	0.12505417
25	0x3ec2a597	0.3801696
26	0xbd25dc81	-0.040493492
27	0xbe78c467	-0.24293672
28	0x3ed090a9	0.40735367
29	0x3d9b1bdb	0.075736724
30	0xbc309712	-0.0107782055
31	0xbcf6aaa9	-0.030110674
32	0xbd367e83	-0.044554245
33	0xbbf80b24	-0.0075696874
34	0xbb373db5	-0.0027960364
35	0xbaa4eda7	-0.0012583033
36	0xbe2d87fc	-0.16946405
37	0x3ca9e09b	0.020736983
38	0xbe278100	-0.16357803
39	0xbb475d33	-0.0030420541
40	0x3d037a5c	0.032099113
41	0xbd54856c	-0.051885054
42	0xbe16f282	-0.14740947
43	0x3d229e96	0.03970202
44	0xba8c5ffb	-0.0010709757
45	0x3d763175	0.06010576
46	0x3d63d2ee	0.05562108
47	0x3e1061f6	0.14099869
48	0xbd5cc2db	-0.053896766
49	0xbd82f333	-0.06394043
50	0xbf137cea	-0.5761248
51	0x3c5447e6	0.012956595
52	0x3e81e3b9	0.2536905
53	0xbda774b2	-0.08176555
54	0xbfb40c03	-1.4066166
55	0xbc18f908	-0.009336717
56	0xbbe14924	-0.006875174
57	0xbddd573b	-0.108076535
58	0xbc16d67c	-0.0092064105
59	0x3e786aa1	0.24259426
60	0xbe1d988e	-0.15390226
61	0xbc872a10	-0.01649955
62	0x3cafe136	0.021469694
63	0x3da20b7a	0.07912345
64	0x3e924523	0.28568372
65	0x3de37170	0.11105621
66	0x3d462cf3	0.04838271
67	0x3e3fffd5	0.18749936
68	0x3dbac560	0.091196775
69	0xbe97f534	-0.29679263
70	0x3f003b30	0.5009031
71	0x3d14c6b5	0.036322314
72	0x3ca1047e	0.019655462
73	0xbd8d4726	-0.06898336
74	0x3eeba94f	0.4602761
75	0x3e73d354	0.23811084
76	0xbd031974	-0.032006696
77	0x3f0f09cb	0.5587432
78	0xbc8c4021	-0.017120423
79	0xbebcb70f	-0.36858413
80	0x38a68c4a	7.941628e-05
81	0xbd9ce9ea	-0.07661803
82	0x3fb965c1	1.4484178
83	0x3d8cfb4f	0.06883871
84	0xbe98146d	-0.29703084
85	0x3ad9c15f	0.0016613415
86	0x3fc3fa27	1.5310715
87	0xbef42749	-0.47686222
88	0xbd5dbcb8	-0.054135054
89	0x3ef44880	0.47711563
90	0x3e87581e	0.26434416
91	0xbe39664c	-0.1810543
92	0x3edd7ee7	0.4326088
93	0x386eab1a	5.6902973e-05
94	0xbdd0ac78	-0.10189146
95	0x3efa1bb3	0.48849258
96	0xbe6552fb	-0.22394936
97	0x3b3ef46b	0.0029137384
98	0x3b9b4328	0.0047382303
99	0xbd02b098	-0.031906694
100	0xbba1747c	-0.004927216
101	0xbad8cf49	-0.0016541268
102	0xbeb9eb46	-0.36312312
103	0x3bbbafa6	0.005727726
104	0xbd237492	-0.039906092
105	0x3d2e0535	0.042485435
106	0xbe0370f3	-0.12836055
107	0x3cb63308	0.02224113
108	0xbab9c01f	-0.0014171636
109	0x3d987571	0.07444275
110	0xbac8b6af	-0.0015313233
111	0x3e286c6a	0.16447607
112	0x3c8e0bbd	0.017339582
113	0xbc050994	-0.008119959
114	0xbf5b5a5e	-0.85684764
115	0x3dcc3523	0.099710725
116	0x3ba51cc9	0.005038832
117	0xbd4e217b	-0.0503249
118	0xc01d9544	-2.4622355
119	0xb95d001c	-0.00021076243
120	0x3b66a3f7	0.0035192946
121	0xbe412f64	-0.18865734
122	0xbdfb941c	-0.12284109
123	0x3e28270d	0.16421147
124	0xbe81c160	-0.25342846
125	0x3c892ab7	0.016744
126	0xbb51984d	-0.0031981647
127	0xbd1fddcf	-0.039029893
128	0x3d651d72	0.055936284
129	0x3d899dae	0.06719528
130	0xbe7e13b0	-0.24812198
131	0x3dd12227	0.10211592
132	0x3a819267	0.000988555
133	0xbcf0f324	-0.029412813
134	0xbe5cf6cd	-0.21578522
135	0x3e0a2c31	0.1349342
136	0xbb4ff3a4	-0.0031730914
137	0x3e9e5fc8	0.3093245
138	0x3e5340a0	0.20630121
139	0x3dc06cd2	0.09395756
140	0xbd8069c8	-0.06270176
141	0x3e86f799	0.26360777
142	0x3cf7cc5f	0.030248819
143	0xbe02ae77	-0.12761866
144	0xbe35aad0	-0.17740941
145	0x3cf91c37	0.030408962
146	0xbe62fd5a	-0.22166958
147	0xbcfa24c4	-0.03053511
148	0x3dbce630	0.09223592
149	0x3e240f29	0.16021408
150	0xbec6eb48	-0.3885138
151	0xbdab0af2	-0.08351697
152	0xbda578bc	-0.08079669
153	0x3df6c5ed	0.1204947
154	0x3d30c76f	0.043158945
155	0x3e8c4d5a	0.27402765
156	0x3cc480e8	0.023987249
157	0x3e459102	0.19293597
158	0xbee6c445	-0.45071617
159	0x3e4cf2c5	0.20014484
160	0x3c8b125a	0.016976524
161	0x3d8f51ba	0.0699801
162	0xbdbf65c5	-0.09345583
163	0xbe9179ea	-0.28413326
164	0x3c83e3a7	0.016099764
165	0x3e856836	0.2605607
166	0x3d812d20	0.06307435
167	0x3d456c0e	0.048198752
168	0x3b9d9422	0.0048089186
169	0x3e6dd3fe	0.232254
170	0xbe181c0c	-0.14854449
171	0x3e140850	0.14456296
172	0x3cdb2ac7	0.026753796
173	0xbdca8be6	-0.09889965
174	0xbe7dc422	-0.2478185
175	0xbd36c234	-0.0446188
176	0xbc8a33bb	-0.01687037
177	0x3ea658e5	0.32489696
178	0x3e927b0b	0.286095
179	0xbbfc919c	-0.0077077877
180	0xbe7e09e2	-0.24808457
181	0xbc76684d	-0.015039516
182	0x3e842854	0.25812018
183	0x3e6551a5	0.22394426
184	0x3e5a1d88	0.21300328
185	0x3e3655c4	0.17806154
186	0xbde4d0bf	-0.11172628
187	0xbd906bfc	-0.070518464
188	0x3e4c7441	0.19966222
189	0x3e876da8	0.2645085
190	0xbd80ab82	-0.062827125
191	0xbe437be1	-0.19090225
192	0xbd5f350f	-0.05449396
193	0x3da04d87	0.07827287
194	0xbcd5445c	-0.026033573
195	0x39ab438c	0.00032665988
196	0x3c0972fd	0.008389232
197	0x3e035c8e	0.12828276
198	0x3e15db60	0.14634466
199	0x3d753142	0.05986143
200	0xb85a1d53	-5.200256e-05
201	0x3dc4d472	0.09610833
202	0x3cbbf581	0.022944214
203	0x3e94363b	0.28947625
204	0xbca872f2	-0.020562623
205	0x3be3ae34	0.006948257
206	0x3c9b611f	0.01896721
207	0xbe42cedc	-0.19024223
208	0xbd228aca	-0.03968314
209	0xbd50b0cd	-0.05094986
210	0x3e9e03ed	0.3086237
211	0x3e226ba0	0.15861368
212	0xbd1c1c41	-0.038112883
213	0x3eb43626	0.35197562
214	0x3ebbca98	0.36678004
215	0xbe71510e	-0.23566076
216	0x3e0f538d	0.13996716
217	0x3e818922	0.25299937
218	0x3ddc8322	0.10767199
219	0xbde63056	-0.11239688
220	0x3e896d3b	0.2684115
221	0x3d93fcdc	0.072259635
222	0x3b907e8a	0.004409616
223	0x3dde55c1	0.108562
224	0x3f46309e	0.77417934
225	0x3f31db9a	0.6947571
226	0x3d1f3b95	0.03887518
227	0x3c2a7880	0.010404706
228	0xbc9dad5b	-0.019247701
229	0xbf2867b2	-0.65783226
230	0x3bfbc8d6	0.0076838536
231	0xbc425536	-0.011861136
232	0xbc094786	-0.008378869
233	0x3eea2a57	0.45735428
234	0xbda01e07	-0.07818227
235	0x3f380303	0.71879596
236	0xbf84b7d5	-1.0368601
237	0x3d4f9585	0.050679702
238	0x3e0a9a51	0.1353543
239	0x3e140d1c	0.14458126
240	0xbce1d82d	-0.027568901
241	0x3f250456	0.6445974
242	0xbe82f946	-0.25580806
243	0x3e11c3ae	0.14234802
244	0xbebb26da	-0.3655308
245	0xbbb7c985	-0.00560874
246	0xbe5804dd	-0.21095605
247	0xbf07fb3a	-0.53117716
248	0xbd29f6f0	-0.041495264
249	0xbda9f8e2	-0.08299424
250	0xbcbc9d3f	-0.0230242
251	0xbd2d4dd4	-0.04231055
252	0xbda2a53a	-0.07941671
253	0xbf9515da	-1.1647294
254	0xbde33f06	-0.11096005
255	0x3cc00a27	0.023442341

fc2.bias f4 [32]
0	0xbe92d61d	-0.2867898
1	0x3dac1094	0.084015995
2	0x3cdb5620	0.026774466
3	0x3de7aa4c	0.113117784
4	0x3e598457	0.2124189
5	0xbc3c22ab	-0.011482875
6	0xbd92ff0d	-0.07177553
7	0xbc2b2974	-0.010446895
8	0xbde994ff	-0.11405372
9	0x3da24aaf	0.07924401
10	0xbe0605f7	-0.13088213
11	0x3e07d72c	0.13265675
12	0x3c0e5756	0.008687815
13	0x3d13259c	0.03592454
14	0x3e452b0d	0.19254704
15	0xbd37027c	-0.044680104
16	0xbe204c1e	-0.15654036
17	0x3d94f865	0.0727394
18	0xbdb5aa5b	-0.08870383
19	0x3e23e4c3	0.16005234
20	0xbd2a4a27	-0.041574623
21	0x3de8f467	0.11374741
22	0x3e040b70	0.12894988
23	0xbc779585	-0.015111332
24	0xbd602bee	-0.054729395
25	0xbc0c6639	-0.008569294
26	0x80356aa2	-4.905534e-39
27	0xbdeafbfc	-0.114738435
28	0x3dbd9dbe	0.092586026
29	0xbb3b4bc2	-0.002857909
30	0x3d5f0f33	0.054457854
31	0x3e775f50	0.24157453

fc3.weight f4 [32, 32]
0	0xbf728b60	-0.9474392
1	0x3cc9a266	0.02461357
2	0xbe14e5c2	-0.1454077
3	0x3e683acf	0.22678684
4	0xbc7cb804	-0.015424732
5	0x3e77897e	0.24173543
6	0x3ec71717	0.38884804
7	0xbc9087a1	-0.017642798
8	0xbe827609	-0.2548068
9	0x3e1ed228	0.15509856
10	0x3ecfc838	0.40582442
11	0xbda2e9d5	-0.07954756
12	0xbe3eee75	-0.18645652
13	0xbf3c8946	-0.7364696
14	0x3b7589fa	0.0037466274
15	0x3d811507	0.06302839
16	0x3e89243b	0.26785454
17	0x3dbf78db	0.09349223
18	0x3e316724	0.17324501
19	0x3de15290	0.11002076
20	0xbe13ec37	-0.14445578
21	0xbe120edb	-0.1426348
22	0xbe1dd7e8	-0.15414393
23	0x3c3e838b	0.011628042
24	0xbd841364	-0.06449011
25	0x3e9aa7e6	0.3020622
26	0x00358784	4.915895e-39
27	0xbdd2fd9e	-0.1030228
28	0x3f3159fb	0.69277924
29	0xbd290d6e	-0.041272573
30	0xbf831701	-1.0241395
31	0x3d9842dc	0.074346274
32	0x3f6835b1	0.90706927
33	0x3eddcf49	0.4332221
34	0xbe755df0	-0.23961616
35	0x3eae840e	0.34085125
36	0xbe92cbd8	-0.28671145
37	0x3dedf798	0.116194904
38	0xbec8cce8	-0.3921883
39	0x3c9a8faf	0.018867342
40	0xbe24dfc8	-0.16100991
41	0xbef0f026	-0.4705822
42	0xbe863214	-0.26210082
43	0xbeb1268a	-0.34599715
44	0x3ea46c58	0.3211391
45	0x3f4f2e3d	0.8092993
46	0x3e26b413	0.1627963
47	0xbd583cbd	-0.0527923
48	0xbe8f3704	-0.2797166
49	0xbd4da12e	-0.05020254
50	0xbe304931	-0.1721542
51	0xbe1bb3d1	-0.15205313
52	0x3df5babf	0.119985096
53	0x3e266dc0	0.16252804
54	0x3e358f2e	0.177304
55	0x3c8f47c1	0.01749027
56	0xbe11e4d9	-0.14247455
57	0xbe859ca6	-0.26096076
58	0x0035b400	4.931853e-39
59	0x3e232742	0.15932944
60	0xbe32c659	-0.17458476
61	0xbe9149bb	-0.28376564
62	0x3e8edfce	0.27905124
63	0xbdf6a38d	-0.120429136
64	0x3e5a6838	0.21328819
65	0x3f0aed46	0.542683
66	0x3f11ef95	0.570062
67	0x3f3de912	0.7418376
68	0xbd10a7e7	-0.035316374
69	0xbe99e98f	-0.30061004
70	0x3c5917e1	0.013250322
71	0x3c8e7b42	0.017392758
72	0x3f56934a	0.83818495
73	0xbd737048	-0.05943325
74	0x3d8ac6d4	0.06776205
75	0x3e93b887	0.2885172
76	0x3eb6bf95	0.3569304
77	0xbd352353	-0.04422314
78	0xbe0ebf46	-0.13940153
79	0xbec4e499	-0.38455656
80	0x3d03f67d	0.03221749
81	0xbe831d8a	-0.25608474
82	0xbd962acc	-0.073323816
83	0xbcd542c9	-0.026032822
84	0xbe94a82a	-0.2903455
85	0x3d4d3d8a	0.050107516
86	0x3c8c8c15	0.01715664
87	0xbd292859	-0.041298244
88	0x3e33157a	0.17488661
89	0xbcb2aef5	-0.021811942
90	0x80357363	-4.908674e-39
91	0x3e751352	0.23933151
92	0x3e05265a	0.13002911
93	0x3d2647f0	0.04059595
94	0x3c738f6c	0.014865737
95	0x3e2ce9d3	0.16886072
96	0x3f21db48	0.6322522
97	0x3deb2fd4	0.11483732
98	0xbd5020aa	-0.0508124
99	0xbe17fb65	-0.14841993
100	0xbdf4fb56	-0.11962001
101	0xbb415086	-0.0029497459
102	0xbe154e78	-0.14580715
103	0xbdab9d71	-0.08379639
104	0xbeda9c74	-0.4269749
105	0x3e27c22f	0.16382669
106	0x3e61ee15	0.22063477
107	0x3e0a9c55	0.13536198
108	0xbdb0b950	-0.086290956
109	0x3e0a9c6b	0.13536231
110	0xbe927c4c	-0.28610456
111	0x3e0b30b6	0.135928
112	0x3e498bd9	0.19682254
113	0x3d74a426	0.059726857
114	0xbcc163a4	-0.023607083
115	0xbcef7c70	-0.029234141
116	0x3df0e22d	0.117618896
117	0x3c2513ee	0.010075552
118	0xbefd8ccb	-0.4952148
119	0xbceffc70	-0.029295176
120	0xbd417f88	-0.047240764
121	0x3c9f542f	0.019449322
122	0x0035c472	4.937753e-39
123	0xbe0aae80	-0.13543129
124	0xbcd85750	-0.026408821
125	0x3d268d41	0.040662054
126	0x3d1852ab	0.037188213
127	0x3de4de4a	0.11175211
128	0xbcb4b267	-0.022057725
129	0xbcf016da	-0.029307771
130	0xc01e8f3a	-2.4774919
131	0x3d7f2353	0.062289547
132	0x3d22ca9c	0.039744005
133	0x3e089b06	0.13340387
134	0x3cb3200a	0.021865863
135	0xbffa0b5a	-1.9534714
136	0xbf644a02	-0.89175427
137	0xbc86ac0d	-0.016439462
138	0xbcab8c3b	-0.02094089
139	0xbd65b1bd	-0.056077708
140	0x3d91e5d3	0.071239136
141	0x3e3dd846	0.18539533
142	0x3dc02747	0.093824916
143	0xbddc3ac4	-0.10753396
144	0x3ce386d0	0.027774245
145	0xbc9f6408	-0.019456878
146	0xbd0433f8	-0.032276124
147	0xbee59b02	-0.44844824
148	0xbe6bf340	-0.23042011
149	0xc00843ac	-2.1291304
150	0x3e80955f	0.2511396
151	0xbfce0f04	-1.6098332
152	0xbba10ccb	-0.004914855
153	0xbcd1f0b2	-0.025627468
154	0x80356ec1	-4.907012e-39
155	0x3e4669a5	0.19376238
156	0xbc52389d	-0.0128308805
157	0xbba7e5e6	-0.0051238416
158	0x3e06e701	0.13174058
159	0xbcd72622	-0.0262633
160	0x3e2ef565	0.17085798
161	0xbdfada54	-0.12248674
162	0x3d2367be	0.039893858
163	0xbe954ec4	-0.29161656
164	0xbce386d0	-0.027774245
165	0xbcccdcd4	-0.025007643
166	0x3b2c32d4	0.0026275413
167	0xbc87cf19	-0.016578244
168	0x3c9f9a28	0.019482687
169	0xbd1c71f8	-0.038194627
170	0x3d4c16f6	0.049826585
171	0x3cb9cf9d	0.022682006
172	0x3e0580ff	0.1303749
173	0xbd94cf8e	-0.072661504
174	0x3e0b50e3	0.13605075
175	0x3c64eec7	0.013972945
176	0x3d8fa3d7	0.07013672
177	0x3cf24f25	0.029578755
178	0x3daaa7ca	0.083327845
179	0xbce8a2b2	-0.028397892
180	0xbd8dff89	-0.06933505
181	0x3d637980	0.055535793
182	0xbdb7e025	-0.08978299
183	0xbde876b1	-0.113507636
184	0xbc749312	-0.014927642
185	0x3d7464e1	0.059666518
186	0x0035d220	4.94266e-39
187	0xbe468778	-0.19387615
188	0xbc346037	-0.0110092675
189	0x3d9fd025	0.07803372
190	0x3e346e56	0.17620215
191	0x3ddcd5a3	0.107829355
192	0x3e12ac93	0.14323644
193	0xbe70fadf	-0.235332
194	0xbd82a6ce	-0.06379472
195	0x3e54e6e6	0.20791206
196	0xbd14f69e	-0.036368005
197	0xbd6bfee4	-0.05761613
198	0x3bd657c0	0.0065412223
199	0xba47093e	-0.0007592625
200	0xbf39d1ee	-0.7258595
201	0xbed099a8	-0.4074223
202	0xbf50a859	-0.8150688
203	0x3ea22916	0.3167197
204	0x3ef0e909	0.47052792
205	0xbc2bb39a	-0.010479832
206	0x3e2b8c18	0.1675266
207	0x3d7dddac	0.06197898
208	0xbf378894	-0.71692777
209	0xbdb53e08	-0.08849722
210	0xbe97df6b	-0.29662642
211	0x3cba8d3d	0.022772426
212	0x3b566429	0.0032713509
213	0xbe3ef9c0	-0.1864996
214	0xbd08302e	-0.033249073
215	0x3ba74e4c	0.0051057693
216	0x3d67bf7c	0.056579098
217	0x3e8ba4b4	0.27274096
218	0x8035c7e5	-4.93899e-39
219	0x3e3352c8	0.17512047
220	0xbe3c3a1b	-0.1838154
221	0xbda6e83e	-0.081497654
222	0x3ec5a993	0.38605937
223	0x3e9f01e6	0.31056136
224	0x3e01dab0	0.12681079
225	0x3d54d293	0.05195863
226	0x3e8a4a9d	0.2701005
227	0x3e0a1719	0.13485374
228	0x3e19b725	0.1501127
229	0xbe9f9e6f	-0.31175563
230	0x3de0d66d	0.109783985
231	0x3e2a70fa	0.1664466
232	0x3d47c600	0.048772812
233	0xbdebc194	-0.115115315
234	0x3d3681a7	0.04455724
235	0x3e344296	0.17603526
236	0x3d7b141d	0.06129848
237	0xbe991014	-0.2989508
238	0x3e530582	0.2060757
239	0xbe54822b	-0.2075278
240	0xbdc0f143	-0.09421017
241	0xbd814b9c	-0.063132495
242	0xbdebbbc7	-0.11510425
243	0xbc13aad7	-0.009012899
244	0x3db9a0e2	0.09063889
245	0x3e7f5000	0.24932861
246	0x3e78ab58	0.24284112
247	0x3e5f5e55	0.21813329
248	0xbd93d462	-0.07218243
249	0x3d401bd6	0.046901546
250	0x8035993c	-4.922251e-39
251	0x3d44356f	0.04790252
252	0x3cc37dbf	0.023863671
253	0xbd851e41	-0.06499911
254	0x3d3c9535	0.046040732
255	0xbe0c169e	-0.13680503

fc3.bias f4 [32]
0	0x3d007182	0.03135825
1	0x3d1c0fe5	0.038101096
2	0x3da73f5d	0.081663825
3	0x3e0c89ee	0.13724491
4	0xbc0336b7	-0.0080086505
5	0x3e5f4e1d	0.21807142
6	0x3e181362	0.14851144
7	0xbdc9eb49	-0.0985933
8	0xbceea234	-0.029130079
9	0xbd65a2ea	-0.05606357
10	0x0035cd06	4.94083e-39
11	0xbdde8a35	-0.10866205
12	0x3d1f2b56	0.038859688
13	0x8035a8f4	-4.92789e-39
14	0x3e59614c	0.21228522
15	0xbd33aeb0	-0.043867767
16	0x00357af7	4.911393e-39
17	0x3e102bad	0.14079161
18	0x3df2953d	0.11844871
19	0x3e9b66ef	0.3035197
20	0xbda6f7d3	-0.081527375
21	0xbdb35343	-0.08756115
22	0x8036db61	-5.037815e-39
23	0x3d8a5c1c	0.0675585
24	0x3e50b99f	0.20383309
25	0x3d53c092	0.05169732
26	0x3e77464d	0.24147911
27	0xbd3619d7	-0.044458237
28	0xbc5a06f7	-0.013307325
29	0x80358c72	-4.917664e-39
30	0x3e38858e	0.18019697
31	0x3de43376	0.11142628

fc4.weight f4 [2, 32]
0	0x3e308f3d	0.17242141
1	0x3ee14274	0.43996012
2	0xbbd568af	-0.0065127234
3	0xbf8682a0	-1.0508614
4	0xc08672e8	-4.2015266
5	0xbe89b771	-0.26897767
6	0xbc7a46b9	-0.015275651
7	0x3f13dbb7	0.57757133
8	0xbbdbbc7c	-0.0067058187
9	0x3ea2c21d	0.31788722
10	0x803584bd	-4.914899e-39
11	0x3f19fb98	0.60149527
12	0xbf69ed01	-0.91377264
13	0x00358225	4.913968e-39
14	0xbe56a299	-0.20960464
15	0x3f0524d5	0.52009326
16	0x8035a132	-4.925107e-39
17	0xbcc1ec0b	-0.023672124
18	0x3ed28c5b	0.41122708
19	0xbe8329bb	-0.25617775
20	0x3ebb3392	0.36562783
21	0x3eb4e8e2	0.35333925
22	0x8036407a	-4.982247e-39
23	0xbd9a5e8d	-0.075375654
24	0xbe29f3e1	-0.16596939
25	0xbbf4de0b	-0.0074727586
26	0xbc3615af	-0.011113568
27	0xbcbf69f5	-0.023365954
28	0xbb8bbcb7	-0.00426444
29	0x803596b0	-4.921338e-39
30	0xbd80d8b0	-0.0629133
31	0xbe95de68	-0.29271245
32	0x3fdb6ab6	1.714194
33	0xbfbd8c6a	-1.4808476
34	0x3f7fb852	0.99890625
35	0x3d09e7cb	0.03366832
36	0x3e0e0d53	0.1387227
37	0xbea605dc	-0.32426345
38	0xbf9b0881	-1.211197
39	0x3d1ce938	0.038308352
40	0xbfb2ca69	-1.3968021
41	0xbe73e093	-0.23816137
42	0x0035cda3	4.94105e-39
43	0x3ea5d630	0.32389975
44	0xbdfb9d0c	-0.12285814
45	0x8035ba3e	-4.934092e-39
46	0x3eef05a8	0.46684003
47	0x3edb2fb6	0.42809838
48	0x80357a5e	-4.911178e-39
49	0x3fa1b1df	1.2632407
50	0xbec5f15c	-0.38660705
51	0xbf2c2096	-0.6723722
52	0xbf8c98f8	-1.0984182
53	0x3e02bab1	0.1276653
54	0x003619c6	4.968363e-39
55	0x3f30d62c	0.690768
56	0x3ef7e6be	0.4841823
57	0xbf8e658c	-1.112474
58	0xbfbbf567	-1.4684266
59	0x3fb4a3bc	1.4112468
60	0x402a5873	2.6616485
61	0x0035ba7b	4.934178e-39
62	0xbf0ea090	-0.5571375
63	0x3f4d7dac	0.80269885

fc4.bias f4 [2]
0	0xbeadd188	-0.33948922
1	0xbd4f008a	-0.050537623
