droplet_approximation/models/mlp_4layer-b=256-lr=1e-3.pth (torch, 13020 bytes, 8 tensors)

fc1.weight f4 [32, 7]
00000000: fba9 30be 874b 533d 3a76 0c3c 37a0 af3f
00000010: c4c4 003f ead1 7abe 9dfe 443c 1c8e c33f
00000020: d93c de3c 8e71 62be 7f23 b5bd 641e 6d40
00000030: 6b1c 023d 5e7c 76bd cd96 9bbc 14ac 81bb
00000040: b3e2 b2bc ac74 683c 2ca2 05bd 6362 71bc
00000050: 51d2 cfc0 58f0 28c1 a315 c8bb 7cb2 fabc
00000060: 3e86 ac3e 8c84 b7bf 9c09 2b3e 28fa 883e
00000070: 69c6 d6bc 0231 3abc 6731 5b3c 5a73 043c
00000080: 1563 81bb f79e e03b 3d0e 60c2 5255 f83f
00000090: 6574 9cba 426a c3bf 0720 d03d 0cc3 00bb
000000a0: 00f6 8fbc 77d1 57bc 9f79 9540 a912 0f3c
000000b0: de8d 72be daf2 2abe f322 f1bb 9669 96bc
000000c0: bd22 7ac2 f17f d1be 645a 623c 53a8 1840
000000d0: 391e 55bd 0aac 683e c21f b5bc e8e3 4fc1
000000e0: 907c 2ec0 f7c5 3f3b 236b e23f 7d2c 983e
000000f0: 62cd 183d 61cf 86bd 4543 bf3d 3b44 e23c
00000100: a093 d5b7 3b34 433d 8328 2cbf b779 023f
00000110: 3817 bf3d 78c9 66bb f5b8 31bc 86b2 fa3a
00000120: 3fb4 d53c d3cd 5a3c b034 9e3b 4c29 833e
00000130: 0394 0a3b b588 16bd ddd0 bb39 8ad7 ce3b
00000140: ff3e c2bf 417e 683d 56f7 2a3c 5a4e 85b8
00000150: 7220 ba3e b38e a53c 51b9 213d 1d99 6e3c
00000160: 30e0 e440 8555 383c 100c 9d3b 81f5 4f3d
00000170: a3ac 9a3b 11d4 be3d 63fa d6bf 658c 85be
00000180: 4ead 893e 41db 9dbb 1fca 1641 501f d4bb
00000190: 2479 e9bd 8b95 acbe 7800 013f f847 ccbd
000001a0: b560 d6bb 0da0 283f 9eeb 063d 1ca9 58be
000001b0: 2a34 bdbc 076c d940 850c a43b d976 393d
000001c0: bf70 b0c0 d02f d4bc 2fac b1be c875 29bd
000001d0: da54 803f 6416 6e3d 1e30 68bd efc4 81c0
000001e0: 4f3d 923b 6df1 9fbd 713b 333e ec95 85bd
000001f0: 74a4 d13c 5229 d13e ac81 033f 9d6a 523f
00000200: e40a 60bd 3cb3 37bf d753 aabd df60 c7bc
00000210: f51a 15bd 3cc7 98c0 bf2c f63b 692a 6440
00000220: 7272 8c3d bb05 c93d ce44 98bc 821b 903c
00000230: 0a90 1540 2e26 10bc a9bc 1340 02ce b4bc
00000240: 407e 513e 54dc 0cbc 0b21 cd3b 9ab7 5ebd
00000250: 5fdb 823a 1b1e 95bb 9b44 2c3b f0a9 15bc
00000260: 69fa ea3a 0f26 00c3 05ab a13b a50f 493b
00000270: e4aa 443d 49dd bc3e 6b93 3e3f 507c cdbb
00000280: ea69 8a3b 251c 143c ada0 b1bd 6e18 30be
00000290: a15e 15c0 f8cd f4be 759a c13e fa71 833d
000002a0: 7988 0240 cfc2 5c3b 3da9 d8be 9ea9 33bd
000002b0: 3f7b edbf 37ed c1bc 650a 67be 0fc2 133c
000002c0: a0d4 583c 6cb6 e6bb dbd5 80bc 737a 1bbc
000002d0: ac81 b63b 8303 d63e 5a8b 523c 0231 cd3b
000002e0: 2e9c 60bb 385a dcbb ad3f cbbb fdbf 3a3c
000002f0: ca44 aebf 9cb0 4bc0 f6ef ff3c 3bc3 50c0
00000300: 2b6c df3c 0bb2 83be 5f4f 88b9 d682 fdba
00000310: a2e0 f03f ec27 37bd 9177 c6bf e99e 953c
00000320: 27d1 87bd 4b37 763b 471d e43a fdc3 7a3f
00000330: c880 76bf 4311 813d 0aad 84bb 8e3a 4dbc
00000340: e4a8 44bc 125f 87bc 598f 0f3e 90d7 d9bb
00000350: 878c 18bb 5ccc 6e3b 54d7 e73b ae92 76bc
00000360: 40e1 b0c1 61e2 fd3e f7a6 66bf 6325 07bd
00000370: 00d0 4e3f 0287 523e c777 a5bc aff9 a1bc
-0.17252342 0.0515857 0.008573109 1.3720769 0.5030024 -0.24494138 0.012023595 1.5277743
0.027128624 -0.2211363 -0.08844661 3.70498 0.031765383 -0.0601772 -0.018992806 -0.003957281
-0.021836614 0.014187973 -0.032625362 -0.01473293 -6.4944234 -10.558678 -0.006106095 -0.030602686
0.3369617 -1.4337325 0.16702884 0.26753354 -0.026217656 -0.011364223 0.013378478 0.008084143
-0.003948579 0.0068548876 -56.013905 1.9401038 -0.0011936544 -1.5266802 0.10162359 -0.0019647507
-0.017573357 -0.013172499 4.6710963 0.008732476 -0.2368693 -0.16694203 -0.0073589026 -0.018360894
-62.533924 -0.40917924 0.013815496 2.3852737 -0.052030776 0.22721878 -0.02210987 -12.993141
-2.7263527 0.0029262283 1.7688946 0.29721442 0.037305243 -0.06582523 0.093390025 0.027620425
-2.5460322e-05 0.047657233 -0.67249316 0.5096697 0.093306005 -0.00352153 -0.01084732 0.001912669
0.026086925 0.013354736 0.004828058 0.25617445 0.002114535 -0.036751468 0.00035823035 0.0063123154
-1.5175475 0.05676103 0.010434946 -6.356528e-05 0.3635288 0.020209646 0.039483372 0.014562872
7.1523666 0.011250858 0.0047926977 0.05077124 0.004720287 0.09317792 -1.6795162 -0.26083675
0.26890033 -0.004817397 9.424346 -0.0064734593 -0.11400059 -0.33707842 0.5039134 -0.099746644
-0.00654229 0.6586922 0.032939546 -0.2115826 -0.023096163 6.794437 0.0050063753 0.045279358
-5.513763 -0.025901705 -0.34701678 -0.04137209 1.0025895 0.058126822 -0.056686513 -4.0552897
0.004462875 -0.0780972 0.17503144 -0.06522736 0.025591113 0.40851837 0.5136974 0.8219393
-0.054697886 -0.71757865 -0.083167724 -0.024338184 -0.03640266 -4.7743206 0.0075126584 3.5650885
0.06857766 0.09815546 -0.018587496 0.017591242 2.3369164 -0.008798165 2.30839 -0.022070888
0.20458317 -0.008597452 0.0062600425 -0.054374315 0.000998359 -0.004550708 0.002628601 -0.009134755
0.0017927411 -128.14867 0.004933717 0.003067949 0.048014536 0.36887577 0.7444369 -0.0062709227
0.0042240517 0.009039913 -0.086732246 -0.17196819 -2.3339007 -0.47813392 0.37813154 0.06418224
2.0395796 0.003368545 -0.4231662 -0.04386293 -1.8553237 -0.023672683 -0.22562559 0.009018435
0.0132342875 -0.0070407894 -0.015726974 -0.009489643 0.0055696573 0.41799554 0.012850607 0.0062619457
-0.0034272778 -0.006724622 -0.006202659 0.011398313 -1.3614743 -3.1826544 0.031242352 -3.261916
0.027273258 -0.25721774 -0.00025999077 -0.001934136 1.8818552 -0.044715807 -1.5505239 0.01826425
-0.066316895 0.0037569578 0.0017403745 0.97955304 -0.96290255 0.063021205 -0.004048948 -0.012526168
-0.012003157 -0.016524825 0.14019527 -0.0066480115 -0.002327712 0.0036437726 0.0070752297 -0.01504962
-22.109985 0.49586776 -0.9009852 -0.03299464 0.8078613 0.20559314 -0.020198716 -0.019772379

fc1.bias f4 [32]
00000000: 6955 15bf 98a2 133f 104b 2040 70b0 a93f
00000010: f4b5 7c3f d218 673f 2e92 0e3f 112b 2ebf
00000020: a43d dbbf 1cd1 e5be 3956 803e fa5d c63f
00000030: 2f27 6fc0 3e67 a4be 43b6 83bf 0b1c 0ac0
00000040: 503e 8ec0 9b3e 7640 5f87 3ebf 61f7 71bf
00000050: f8d3 1b40 98ff 0a3f 8bf5 853f d6a7 fbbf
00000060: 880b cd3b e3ab 9abe 9cd4 4140 1d45 57c0
00000070: e4af e03d aada 3f3f aebe ed3f ac84 89bf
-0.5833345 0.57669973 2.5045815 1.325697 0.9871514 0.9027225 0.556918 -0.68034464
-1.7128186 -0.448861 0.25065783 1.5497429 -3.7367666 -0.32110018 -1.0289997 -2.1579616
-4.4451065 3.8475711 -0.7442531 -0.94518095 2.4348125 0.54296255 1.0465559 -1.9660594
0.006257478 -0.30209264 3.0286016 -3.3635933 0.109710485 0.7494303 1.8573816 -1.0743613

fc2.weight f4 [32, 32]
00000000: 8962 60be 3fc7 0f3e 0144 ba3d 597c 853e
00000010: 26fb 373f b180 7cc0 9c24 11c0 a167 133f
00000020: 6a33 85bf 6c12 65be 1eba 15bf 0bd8 4fbf
00000030: 1a3f 63be fde6 dfbc 2c61 23bf 1f11 0a3e
00000040: c40d 013e 548b 57bf 3eab f3be faaa 8b3f
00000050: 9116 573f 469a 2dbf 7770 14bf 4ddf 27be
00000060: a54c 73bc db69 0f3f 6ca3 2b3e 8109 2f3e
00000070: baed 66bf 7200 39bb 8445 133f b324 79be
00000080: 63d7 f63b 733b 683d 6089 6a3d 5ead 17bf
00000090: 812f a340 8189 b03f 0597 b7bf bc24 a7c0
000000a0: ca6f 8f3f 8800 573b c464 c1bd c8f5 2f3d
000000b0: 976e ab3d 005d 8a3d f01b 673f b5dc ddbd
000000c0: 748f debb 61e5 d0bf 1b06 a03c 2f98 2d40
000000d0: 7a0a 283f 3836 3541 e42c 2ebe da08 e83c
000000e0: 0892 32be a2eb df3f 1fd9 0740 0bd0 a5be
000000f0: 736e 00be da7b dabb 0459 d3bf 9938 d93e
00000100: ca5a f7be e613 2e3a bf72 ec3c bfe1 82bc
00000110: af9a b93d 2397 e1c0 f9ae b7bf cbde c23c
00000120: 7fc0 a23d 641c 1cbf e95b b0bf a775 28bf
00000130: dded 45bd 5d22 80bf cdab c1b9 7d25 b63d
00000140: c198 513c 352c 1c3e 9f46 d5bd c789 a8bd
00000150: 644d c73d a670 7dbe aab9 193f 53fe 943f
00000160: 36c0 a03c f984 acbe a8aa 73bd c705 413d
00000170: 600b 6e3f 3220 2c3c ecdd a0bc b7fa cabf
00000180: 2837 093e ac3f 90bf eb48 8b3f c2b1 cebf
00000190: fae2 3440 e9e6 0c3f fb87 51c0 92fa 28c0
000001a0: 8fd3 0340 efa0 9cbe 6bb9 f53d 8d92 bd3d
000001b0: f04e 01c0 c75a 893e 89df 683f 583e 8740
000001c0: d668 5abf 1e1e 06bf c425 873c c1a4 4140
000001d0: e36d 5b3e 5503 0e40 bfd2 a13e 95a2 703e
000001e0: 9f92 c3be 1814 913d 61d7 803f 9d33 edbe
000001f0: 839d f63c 203c 083d 6be9 ad3f ec43 4e3e
00000200: 8a60 7f3e 4989 85bd f543 963e 990f 913e
00000210: 1841 9d3f 08a8 a73f 0b99 cabf a72c 223f
00000220: 2914 643e f854 1cbd ab2c 69be 057d be3e
00000230: b161 6f3e 9d7c e83d 5246 c0be 1547 19be
00000240: cf6b fdbe e5d1 91bf d2c1 87be 0560 d6bf
00000250: 76b7 883f 861b 0440 e165 f83d 6dcc 25be
00000260: 173e 4e3d a467 533f 731f ba3e de01 b340
00000270: b788 013e 8b6b 8fbd 2400 d93e 4957 603f
00000280: 1746 59bc 48af 293e 470c 543e 3222 36be
00000290: 747f cf3e b6c3 eebf f30b 43bf d951 9bbf
000002a0: 1b78 483f 9a18 85bb 4121 fcbe 7f75 d3bd
000002b0: fa4a 973e de99 653e 9c79 c13e b189 10bf
000002c0: 37e5 c73c 41b4 fd3e f1ae a13e 24dc 1bbf
000002d0: f251 29be 1d59 4d40 364e 5c3f 6ba8 3a3e
000002e0: 77c7 293e 6d5f ebbe c7dd 203f 109f 603d
000002f0: 277b a03f 90bd 52bc e793 e33e 6192 debe
00000300: 2a9b 85bd 40ee ccbe 3196 fabe 9c35 813e
00000310: 7b29 b2bf 03a8 a63e f394 3d3f 5c27 f13e
00000320: 50f1 743d c238 bdbb ba37 a63e 22ea c4bd
00000330: 47b9 b1c1 5de8 a4bd b48c 3abd 2130 efbf
00000340: 8f76 e5be 2ec0 6e3f 42b1 093d e1ed dabf
00000350: 6342 16bf ab7b 25c0 100b e5be 53be 22bd
00000360: 205c 5f3c fe93 1fbf a9a5 d1be 2de6 663f
00000370: 5a1a acbf 9837 22bc 2f00 18bf 6df2 8ebc
00000380: 6397 8a3d 386c a6bd b116 34bf efee 52be
00000390: 0b7e be3f 4649 21c0 d851 a8c1 b6e0 9f3d
000003a0: 1765 b9bf 2823 e53c 7635 9abd ba46 73be
000003b0: bd3c 4bbd ad76 9cbd 1404 dbbe 8364 cf3d
000003c0: 8936 bcbd 10e1 88be 620f 79bd 72de 783f
000003d0: 349e 40bf b59d 7d41 8ef2 3ebc fde3 603e
000003e0: e422 6f3d c37d 45bb c868 3cbf 03f4 7ebf
000003f0: 44e5 ba3f 49b2 9ebc 8f6f d13d 07bf c9be
-0.21912588 0.1404085 0.09095002 0.26071432 0.718676 -3.9453547 -2.2678595 0.5758
-1.0406315 -0.22370309 -0.5848712 -0.8118903 -0.2219204 -0.027331823 -0.6382015 0.13483094
0.12602907 -0.8419697 -0.47591585 1.0911553 0.8401881 -0.6781353 -0.5798411 -0.16393776
-0.014849816 0.560209 0.16761559 0.17093469 -0.9020649 -0.0028229025 0.5752795 -0.24330406
0.0075330003 0.05669732 0.057259917 -0.5924891 5.099549 1.3791963 -1.4342963 -5.223234
1.120599 0.0032806713 -0.09443048 0.042959005 0.08370703 0.067560196 0.90277004 -0.10833112
-0.0067920033 -1.6320001 0.019534161 2.7124135 0.65640986 11.325737 -0.17009312 0.028324533
-0.17438519 1.7493784 2.122627 -0.32385287 -0.12542133 -0.0066675963 -1.651154 0.42425993
-0.48311454 0.00066405383 0.028863309 -0.015976785 0.09062707 -7.0496993 -1.4350272 0.023787877
0.07946872 -0.6098082 -1.3778049 -0.65804523 -0.048322547 -1.0010487 -0.0003693983 0.08893869
0.012792767 0.15251239 -0.104138605 -0.08229404 0.09731558 -0.24750003 0.60048926 1.1640114
0.019622903 -0.336952 -0.059488922 0.04712465 0.92986107 0.010505723 -0.01963707 -1.5857762
0.13399947 -1.1269431 1.0881628 -1.6147997 2.8263535 0.5503984 -3.2739246 -2.6402936
2.0597875 -0.30591533 0.11998256 0.09256468 -2.020443 0.2682707 0.9096609 4.2263603
-0.85316217 -0.52389705 0.0164975 3.0256808 0.21428637 2.2189534 0.316061 0.2349952
-0.381978 0.07083911 1.0065728 -0.4632844 0.030104404 0.033260465 1.3586859 0.20143098
0.2493917 -0.06520326 0.29348722 0.28332213 1.228549 1.3098154 -1.5827955 0.63349384
0.22273315 -0.03816697 -0.22770946 0.37204757 0.2337711 0.11351893 -0.3755365 -0.14968522
-0.49496314 -1.139218 -0.2651506 -1.6748053 1.0680988 2.06418 0.12128807 -0.16191263
0.050352182 0.8258002 0.3635212 5.593978 0.12649809 -0.07002934 0.4238292 0.87633187
-0.01326134 0.1657077 0.20707808 -0.17786482 0.40526927 -1.8653476 -0.7619011 -1.2134353
0.78308266 -0.0040617706 -0.4924412 -0.10325145 0.2954939 0.22421977 0.37788093 -0.564601
0.02440129 0.49551585 0.31578782 -0.6088278 -0.16535166 3.208564 0.8605684 0.18228309
0.16579996 -0.45971242 0.62838405 0.054839194 1.2537583 -0.012862578 0.44448778 -0.43471053
-0.06523736 -0.4002552 -0.48942712 0.25236213 -1.3918909 0.32550058 0.74055403 0.4710034
0.059800446 -0.0057745883 0.3246439 -0.0961497 -22.215467 -0.08052132 -0.04554434 -1.8686563
-0.44817016 0.9326199 0.03361631 -1.7103845 -0.5869505 -2.585673 -0.44735003 -0.03973229
0.013632804 -0.62335193 -0.409467 0.9019497 -1.3445542 -0.00990095 -0.5937528 -0.017449582
0.06767156 -0.0812611 -0.70347124 -0.20598958 1.4882215 -2.5200973 -21.039963 0.07806532
-1.4483975 0.027970865 -0.07529728 -0.23757449 -0.04961847 -0.07639823 -0.4277655 0.10126593
-0.09190089 -0.2673421 -0.060805686 0.97214425 -0.752414 15.851003 -0.011654509 0.2196197
0.058382884 -0.0030134774 -0.73597383 -0.9959108 1.4601216 -0.019372122 0.10226356 -0.39403555

fc2.bias f4 [32]
00000000: 4c54 393f f656 4bbf 4892 ea3f 761b 443e
00000010: c022 85bf e7a0 273f 30eb 213f 7fdc 9abf
00000020: 35a2 4cbe 016d 5ebe 8958 8b3e ce66 98bf
00000030: efcd 1a3f 75a0 9dbe a174 87bf 2800 813f
00000040: 6686 b0bf a9b8 a73e 016b a53f 642d 41bf
00000050: f1ea cc3f 692b ae3f f52f 9ebf 17d8 91be
00000060: 2746 b5bf ac20 7abf febc a0bf 245b 0d3e
00000070: 80bc 773e 081e 243e 20f5 5cbd 7ba5 da3e
0.7239425 -0.79429567 1.8325891 0.191511 -1.040123 0.6547989 0.6324949 -1.209854
-0.19983752 -0.21721269 0.27215984 -1.1906374 0.6047048 -0.30786481 -1.0582467 1.0078173
-1.3791015 0.32758072 1.292328 -0.75459886 1.6009198 1.3606998 -1.2358385 -0.28485176
-1.4162034 -0.97706103 -1.2557676 0.13804299 0.24193001 0.16027081 -0.053944707 0.42704377

fc3.weight f4 [32, 32]
00000000: b46b 08c0 05e4 e2c0 5cd8 3fbd 78dc 9ec0
00000010: 8578 d7bc afc6 24bf 2642 8cbf 7ca7 15c0
00000020: da0a f4bc 5f00 abbd f214 983e 194a 58bc
00000030: dbd2 a73d 5795 51c1 9e7a d6c0 723b 36c0
00000040: fe58 9d3c 2fe7 943d 53e3 4c3f 747f 513f
00000050: 7227 5e3f d57d 443e d2ea 24c1 efb0 843d
00000060: 53a4 3bbe 333c 3dbe 6aff 03bd 14e9 90ba
00000070: 0d6b 883d 3310 46be ea9b 013f 9275 d8bf
00000080: 25b5 2b3f fa5f c63e 571d d7be b897 ca3e
00000090: 7472 43bf e53b bfbe 2fec ebbe 2507 073f
000000a0: 14ab 13bf d4c7 2fbc b0ea 0d3f 7f80 f03d
000000b0: ccea 79be 270f 26bf 3809 733e 7eca 4abb
000000c0: 9059 953d 85bd 053b 15ab 07bf 327c 4cbf
000000d0: 2328 97bf e291 87be 149f aebd 7c63 303e
000000e0: c149 af3d 11f1 babd 9437 9a3e 23d9 613e
000000f0: 20dc 703f 61fc ee3e 71dd 3f3f a6c1 e6be
00000100: 24e2 65bf aa44 073c f77f a63f 5bd6 453e
00000110: 254f dfbe d43b 803e f0a7 f13e 8091 b63d
00000120: 2052 e8be 4d01 e93e f81d 76bf 6a70 cbbd
00000130: 7647 b0be 8137 47c0 450d 6ebe 3ed8 52bb
00000140: af45 bdbf 1a8c aabe eccd 163f 6005 3dbe
00000150: 2b68 19c0 19dd 233f 0f23 9ebd 3850 b8be
00000160: 963d 3b3d 1c62 11c0 e3fc 603e 95f7 e63c
00000170: 0f1e 1abd 286d 49be cf61 6f3e 4504 50bf
00000180: b3de 8c3f c4bf e63e dd97 d3be b805 d93e
00000190: 121c aabf 7b76 bfbe e071 42be 7f80 443f
000001a0: 4853 f0be 63e3 d4be 16b8 1bbd 4ac1 603e
000001b0: 9f51 e6be a6d4 0c3e e489 26bb a42f 88ba
000001c0: 4df8 4fbe cd06 88bd 194f dabe 2a87 07bf
000001d0: 18ea b4bf 020e 623d 7514 96bd 82b8 f73d
000001e0: 19da f93d 6a7a f73e 7818 d83e a5f4 6a3e
000001f0: 5ab3 213f 8a49 113e d8f5 783f 2b33 d9bd
00000200: 3d5d c9bf 219a 203f 22a3 60bf 8841 f4bf
00000210: 956a 1640 2aa9 b1bf 02c2 16c1 20fa 913e
00000220: a394 c3be 977d 28bf cf91 4e3d 3acb 9e3f
00000230: 25d4 dabf a5f0 87c0 745e b1c0 a977 cebf
00000240: 3c29 77be 62f1 a2be 83e7 dbbf ac35 10c0
00000250: d651 0040 a073 b6bc 19f1 48bf cf85 99bd
00000260: 61e9 fabe 7b47 8f3e 97d2 073e 6ecd 2cbe
00000270: fee9 d5bf 2e34 e2bd 5158 27c0 043e d13d
00000280: 34f6 af3d 93eb c53d 93cf 1e3d 2706 9bbc
00000290: ffe6 4c3e c20c 19bf 707e 17bf fea0 543e
000002a0: db22 723d 6de9 533d f11e f63e dd8d e63d
000002b0: 789f 6d3c d87e 93bc 7045 b2bc 6a96 5f3d
000002c0: 647c 99be 0eb7 0bbd 7f11 0e3f 8684 e63e
000002d0: ed31 ca3e 81ca 893e 2bc2 083c 815a 6bbd
000002e0: d9d8 f6bd 711c 6d3e cd49 ecbd 99b5 95bd
000002f0: 37a5 abbd ebc5 943c bb76 d33e a9d2 063c
00000300: 60d2 8bbd 7a5c 0e3d 7ba5 08bc 7d02 af3d
00000310: d205 153c 40d1 66be 624e 02be f70d d6bc
00000320: 1165 1c3e 32ad b1be 2345 b83c 0ff9 a13c
00000330: 8980 203e 90aa 9b3c d6f2 8abc 9b50 c93b
00000340: 11b4 8c3f e149 6bbc db52 80be cd31 34be
00000350: c8ae 123e b369 01be 7935 863b f3de 4ebe
00000360: 7e3d 6e3e 6618 aabe 41c0 b1bc d738 e5bc
00000370: f672 00bf 5e2e 5dbc b01c 993e fb7f 4dbd
00000380: 062c 26be 395a 47c0 03ee d53d c0a4 e4bf
00000390: 837e 8c3c e980 a83e a91f 26be 9cd8 5bbe
000003a0: 0bcd 1bbf a34b 5fbf 834b 2abe 6e2d fbbd
000003b0: 91af 6e3d 4538 14c0 a9fb 31be ea63 04bf
000003c0: 0a16 3fbe bc0d 053e 0032 c43e 4279 d93f
000003d0: 3f9b 623e 7d50 cbbd a9e0 07c0 fca1 be3d
000003e0: e044 d3be dc2c 51c0 0ebe debd 68b9 ecbc
000003f0: 30a2 bf3d ed3a 9fbd 4d24 7cbf 9df6 51c0
-2.1315737 -7.0903344 -0.046837196 -4.9644127 -0.026302585 -0.6436567 -1.0957687 -2.3383474
-0.02979033 -0.0834968 0.2970348 -0.01320126 0.08194514 -13.09896 -6.702468 -2.8473783
0.019207474 0.07270657 0.8003437 0.81835103 0.8677894 0.19188626 -10.307329 0.0647906
-0.18324403 -0.18479995 -0.032226004 -0.0011055791 0.06661043 -0.19342117 0.5062853 -1.691088
0.6707328 0.387451 -0.42014572 0.39568877 -0.76346517 -0.37350383 -0.4607863 0.52745277
-0.5768292 -0.010728795 0.5543623 0.11743259 -0.24405974 -0.6486687 0.23733985 -0.0030943449
0.07292473 0.0020407152 -0.52995425 -0.79877007 -1.1809124 -0.26478487 -0.085264355 0.1722545
0.08558989 -0.09128011 0.30120528 0.22055487 0.94085884 0.46676925 0.7494727 -0.45069617
-0.8979819 0.008256117 1.3007802 0.19320051 -0.4361507 0.25045645 0.4719844 0.08914471
-0.45375156 0.45508805 -0.9613948 -0.09933551 -0.3442952 -3.1127627 -0.2324725 -0.0032172347
-1.4786891 -0.33310014 0.5890796 -0.18459082 -2.396983 0.64009243 -0.07721531 -0.35998702
0.04571303 -2.2716131 0.21971469 0.028194228 -0.037626322 -0.19670546 0.23377155 -0.81256515
1.1005462 0.4506818 -0.413268 0.42387176 -1.3289816 -0.3739508 -0.18988752 0.7675857
-0.4693854 -0.41579732 -0.038017355 0.21948734 -0.44984147 0.13752994 -0.002541178 -0.0010390175
-0.20309563 -0.06641922 -0.42638472 -0.5294062 -1.413394 0.05518914 -0.073281206 0.12095739
0.12199802 0.48335582 0.42206168 0.22944887 0.63164294 0.14188209 0.9725013 -0.10605463
-1.5731579 0.6273518 -0.8774892 -1.9082499 2.3502553 -1.387975 -9.422365 0.28511143
-0.38199338 -0.65816635 0.050432023 1.240577 -1.7095991 -4.2481256 -5.54278 -1.6130267
-0.24136823 -0.31824785 -1.7180027 -2.2532759 2.0049949 -0.022271931 -0.78492886 -0.07496225
-0.4900618 0.27984223 0.13263927 -0.1687524 -1.6712034 -0.11045109 -2.6147654 0.10216907
0.085918814 0.09664073 0.038772177 -0.018923832 0.20009993 -0.5978509 -0.59177303 0.20764539
0.059115272 0.051736284 0.4807048 0.11257527 0.014503352 -0.01800482 -0.021761626 0.054586805
-0.29977715 -0.03411012 0.55495447 0.45022982 0.39491215 0.2691231 0.0083470745 -0.057459358
-0.12053079 0.23155381 -0.11537514 -0.07310028 -0.083811216 0.01816078 0.41301522 0.008228936
-0.06827235 0.03475616 -0.008340235 0.085453965 0.009095626 -0.2254076 -0.12725213 -0.026129706
0.15272929 -0.3470245 0.022493904 0.01977208 0.15674032 0.019002229 -0.016961496 0.006143642
1.0992452 -0.014360876 -0.25063214 -0.17597122 0.14324486 -0.12637977 0.00409573 -0.20202236
0.23265645 -0.3322174 -0.02169812 -0.027981205 -0.50175416 -0.013499824 0.299047 -0.05017088
-0.16227731 -3.1148818 0.10445788 -1.7862778 0.01715017 0.3291085 -0.16223015 -0.21469349
-0.60859746 -0.8722479 -0.16630368 -0.122645244 0.058272902 -2.3159344 -0.17381157 -0.51714957
-0.18660751 0.1299352 0.38319397 1.699013 0.22129534 -0.09927461 -2.1230872 0.0930824
-0.41263485 -3.268363 -0.10876094 -0.028897002 0.09357107 -0.07774911 -0.9849289 -3.280677

fc3.bias f4 [32]
00000000: 64e6 a03f c464 bdbf f976 c43e abe2 613d
00000010: 00e1 52c0 e5af 8fbe 05c8 96be 324c 2840
00000020: 17bd b33f 83a7 a1bd f2a0 11bf 66dc 65c0
00000030: 3f1d 1540 ecf7 afbf 9fd4 a6bf 567b a3bf
00000040: 2e10 adbf 734b f53e 124d d63e 1810 86be
00000050: 470a 623a 9f68 28be 7191 d93f ea0d 73bf
00000060: af1e 4cbf fa9c 0740 3f13 863f 43ea 1cbe
00000070: dda0 14bd 4d29 ab3f 68b9 c73f a322 7bbd
1.257031 -1.4796376 0.3837202 0.055147808 -3.294983 -0.28063884 -0.29449478 2.6296506
1.4042081 -0.078932784 -0.5688621 -3.591577 2.32991 -1.3747535 -1.3033637 -1.2772014
-1.3520563 0.47909126 0.41855675 -0.26184154 0.0008622747 -0.1644616 1.699751 -0.94943106
-0.7973432 2.118956 1.0474623 -0.15323739 -0.036286224 1.3371979 1.5603456 -0.06131233

fc4.weight f4 [2, 32]
00000000: d78b a3bd fdfa b3bc cc53 bd39 8231 82bb
00000010: 1f26 83bd ee9b d33d e931 03ba 4b7f 33bd
00000020: 2b43 033b f761 1c3d 676e 823c 1687 8f3b
00000030: edc8 ad3a 6e95 5639 7d1d 243d e219 bdb9
00000040: c80f ffb9 d733 39bd c612 10bc eca6 a7bb
00000050: 0313 dcbc 6dc2 3d3a 6e1a 9bbc bb06 f53c
00000060: ab05 eb3a 3257 baba 8fb6 9ebc 7355 0e3a
00000070: d6da 223c 1928 6aba 7b3a ffbc 4655 b53c
00000080: bf13 0b3b e9a7 0abe 8207 1e3d 7586 873d
00000090: e36d 593b 01eb 523c 42f2 e1bc 8c05 d03a
000000a0: 4bc4 403d a602 d63b 1d7a 0abc 1cb5 ebbd
000000b0: 2af3 503d 942e 36bd 994d 073d ec9b a5bc
000000c0: 2499 d4bc 2b77 a23c 7813 15be 154a d2bc
000000d0: 5c12 703c 8be4 4b3d a408 8f3b 6d8d 523b
000000e0: 4947 573d e5f1 e13d 188d 893a f24f 52bd
000000f0: d1ed 483d 1c91 343d ecf6 d439 ba88 18bb
-0.07985657 -0.021970266 0.00036111323 -0.003973187 -0.064037554 0.103324756 -0.00050046906 -0.043822568
0.002002905 0.038179364 0.015921785 0.004380117 0.0013258733 0.00020464297 0.040067185 -0.00036068173
-0.00048649148 -0.045215454 -0.008793538 -0.005116334 -0.026864534 0.00072387495 -0.018933501 0.029910436
0.0017930766 -0.001421666 -0.01937416 0.0005429603 0.00993987 -0.00089323666 -0.031155815 0.022135388
0.0021221486 -0.13540615 0.03858138 0.066174425 0.003317707 0.012873412 -0.027581338 0.0015870794
0.0470622 0.0065310774 -0.008451966 -0.11509153 0.05101315 -0.044478014 0.033032987 -0.02021595
-0.02595193 0.019832214 -0.14558208 -0.02567009 0.014652815 0.049778502 0.0043650437 0.0032127753
0.052558217 0.11032466 0.001049432 -0.051345773 0.049054924 0.0440837 0.00040619762 -0.0023274855

fc4.bias f4 [2]
00000000: b835 f7be a601 3e3f
-0.48283172 0.74221265
