droplet_approximation/models/network_400m_jagged_weighted.pth (torch, 13619 bytes, 8 tensors)

fc1.weight f4 [32, 7]
00000000: 3fe2 443f 6ea7 c1bd 0472 d7ba 5ecf 4bbd
00000010: 1091 8d3c 3999 903a 7cd0 3cbf 429a ce3c
00000020: f6ba 313c 21ef acba a040 18be c03e fdbd
00000030: e766 9d3b 1bb3 b7bc 5c80 f23e 1b15 6fbd
00000040: 2466 4dba 68cb bb3c c4d7 163b b0d7 acb9
00000050: 5924 25bf d3db c83e b24e 203d 42c6 19ba
00000060: beae 88bd f9d9 f9bb fa61 c93a 7df8 42bf
00000070: b57b 0f3b 68d7 b1bb 5437 36bb 3bf0 ee3d
00000080: 6ac1 cf3d 4fab 87ba 1263 433d 26ca edbe
00000090: 16c2 06bc 8b27 d7ba 7c73 e13b c79b 9a3e
000000a0: b268 213b 61b7 6e3e f9ff 063e 4356 cdbb
000000b0: 31a2 adba 4c1e 08bb a5cd 24bd ce3e 89ba
000000c0: 8a2a bdbf 5e9d 5d3c f5da 48bb 87cb baba
000000d0: b812 efbd ef84 f33d f14b 7b3a ae75 7dbb
000000e0: fc93 2c3f 205a 2abb 919d e239 e6fc b1bc
000000f0: 49d0 bdbd 99b5 d5ba cc88 c5be cebc 3cbf
00000100: 33e9 d03b 8e8f 5bbb 7961 d33c d632 c4be
00000110: 0b6b b43a 1233 3a3f 10a7 ffbe d59c d8bc
00000120: 04d1 a13a a28e ddbe a76c 29bb c892 4839
00000130: 98ac e93d 11fe 4b3e 3865 53be 6677 c6ba
00000140: 91c9 3e3e 0296 c73c 33d4 56ba ed39 2fbd
00000150: 13c1 2d3f 2747 8dbb dc18 d3b9 cd96 07bd
00000160: 2eb5 523d adce 923a ab6b 633e eb69 eebd
00000170: e2d8 9e3a a1a0 1eba fd69 033c cac0 1c3f
00000180: 1655 0f3b bffd c83d a9bc 08bd 3ced 813c
00000190: 0f69 563a 6494 4ebc f8ff baba 6f72 d3b9
000001a0: 58bc 9a3f ef6a a3be 626d e2bc eb89 673a
000001b0: 2f4f 523d 9020 cf3b 576c 0b39 cf90 5e3f
000001c0: d7d7 56be 88a2 15ba cd25 0e3a 5ed1 153b
000001d0: a823 423f 64db b63a 824f d33d 4167 0a3e
000001e0: e574 11be c136 10bb df8f 053e 2a25 563c
000001f0: e508 d8ba aca3 3ebd b01e de3e e5ca a737
00000200: a949 6cba 65fc 35bc 731a 5f3d 5ab1 403a
00000210: 18d3 46be a67e 9bbc eb53 fcba 8ad9 293a
00000220: d6e7 9d3b 6b7d ddba e96c 6fb9 5433 4ec0
00000230: 42ba 3f3e 3067 e9bb 5f66 d7ba 38ed 9bbb
00000240: e17c aa3a 184d 8cbb 2a70 b33f 83ae ad3e
00000250: d5af 843a 4f11 0dbb 8d5b 22bc 7f63 993e
00000260: be1f 14bb ec85 053f f9ad 493f e5a8 98ba
00000270: 10fd b0ba 73a5 0fbd 0d30 253e fae2 b43a
00000280: 723a 4abf e2d4 2a3f 0678 9b3e f61e 08bb
00000290: ff2b 0cbe a041 f4bc f2bb f939 7e65 cbbe
000002a0: ee1b 29bc 6e5c 03bc 307c 3538 fb87 e53d
000002b0: 8831 d73d 0af4 58bb 8794 7c3d cf03 ffbe
000002c0: a87a 44bd afd7 ac39 a4aa 613e 9152 ac3c
000002d0: 58a9 2b3a f8ac bb3e 6f85 173f e44f 64bd
000002e0: 8cad 553a 1d0b 5cbe a04f d6bb 11eb 013a
000002f0: 3361 b7be 0ee8 9001 d099 de01 2ef4 7002
00000300: 50d2 7d80 45ac 3082 14bd 9481 fbff 6c83
00000310: ed31 c03c f438 47bc 1f57 b83a c1a4 43bd
00000320: 081b 37be 34c8 a23a b249 3e3f b1c9 883a
00000330: 9dcd 6f3d 3964 303b e8be 263e da6e 2a3c
00000340: 44a2 44b8 2922 c13e b52c 013f ebfa de3c
00000350: 10e4 6dba bfcf df3e 6fca 5e3b d63c cf38
00000360: 22c5 e9bd d401 44be 99a4 563e 3e9a 483a
00000370: d164 3fbe 68c1 88bc 17dc b93a 63d1 503d
0.76907724 -0.09455763 -0.0016437178 -0.049758308 0.017281085 0.0011031992 -0.7375562 0.02522004
0.010847798 -0.0013193825 -0.14868402 -0.12365484 0.0048035267 -0.022424271 0.47363555 -0.058369737
-0.00078353495 0.02292414 0.002301679 -0.00032967096 -0.6450859 0.39230213 0.03913755 -0.00058660295
-0.066739544 -0.0076248613 0.0015364282 -0.76160413 0.0021893803 -0.0054272898 -0.0027803974 0.11666914
0.10144313 -0.0010350737 0.047701903 -0.4644329 -0.008224985 -0.0016414983 0.006880222 0.30196974
0.0024629054 0.23312141 0.13183583 -0.0062663867 -0.0013247189 -0.0020770011 -0.04023518 -0.0010470988
-1.4778607 0.013526289 -0.0030648087 -0.001425133 -0.11673492 0.118905894 0.0009586206 -0.003867488
0.67413306 -0.002599366 0.00043223475 -0.021727037 -0.09268243 -0.0016304731 -0.3858093 -0.73725593
0.0063754558 -0.0033502313 0.025803315 -0.38320035 0.0013764811 0.7273418 -0.49932146 -0.02644197
0.0012345617 -0.43272883 -0.0025852115 0.00019128167 0.11409873 0.19921137 -0.2064408 -0.0015141785
0.18631579 0.024363521 -0.00081950723 -0.04277985 0.6787273 -0.0043114605 -0.00040263578 -0.0331028
0.051442318 0.001120051 0.22209041 -0.11641296 0.001211908 -0.0006051157 0.008020875 0.6123167
0.0021870784 0.09814023 -0.033383045 0.015860192 0.0008179107 -0.012608621 -0.0014266958 -0.00040330316
1.2088728 -0.3191752 -0.027640048 0.0008832502 0.051345047 0.0063210204 0.00013296433 0.8693971
-0.20980774 -0.0005708118 0.0005422503 0.0022860388 0.7583566 0.0013950882 0.10317899 0.1351595
-0.14204748 -0.0022005292 0.13043164 0.013070384 -0.0016482143 -0.04654281 0.43382788 2.0002431e-05
-0.0009013662 -0.011107539 0.054468583 0.0007350646 -0.19416463 -0.01898129 -0.0019251084 0.0006479254
0.0048188968 -0.0016898339 -0.00022833388 -3.2218828 0.18723395 -0.0071228966 -0.0016433707 -0.0047585033
0.0013007188 -0.004281651 1.4018605 0.33922204 0.0010123203 -0.002152521 -0.009909523 0.29958722
-0.0022601928 0.52157474 0.78781086 -0.0011647014 -0.0013503153 -0.035069894 0.16131611 0.0013800554
-0.7899543 0.66731083 0.30365008 -0.0020770407 -0.13688658 -0.029816449 0.0004763301 -0.3972587
-0.0103216 -0.008017642 4.326942e-05 0.11207577 0.10507494 -0.0033104443 0.061665084 -0.49807593
-0.047968537 0.00032967093 0.2203775 0.021035464 0.00065483665 0.36655402 0.5918798 -0.055740252
0.00081511657 -0.21488614 -0.0065402538 0.0004955987 -0.35816345 5.323023e-38 8.177063e-38 1.7702491e-37
-1.1554883e-38 -1.2979877e-37 -5.463793e-38 -6.964802e-37 0.023461306 -0.012159575 0.001406405 -0.047764543
-0.17881405 0.0012419284 0.743312 0.0010436085 0.058545697 0.0026915206 0.16283762 0.010402406
-4.6881163e-05 0.37721375 0.5045884 0.027219256 -0.00090748165 0.43713185 0.0033995172 9.881861e-05
-0.11414553 -0.19141322 0.20961227 0.00076523784 -0.18690802 -0.016693786 0.0014179972 0.050980937

fc1.bias f4 [32]
00000000: 19c0 98be 6f1c f6bd 0da2 bdbe 5ba3 aabe
00000010: c552 c3bd 6ebf 5f3d 8988 af3e 6e21 58ba
00000020: cbac d43e 0757 96be 289c ab3b e99f c1bd
00000030: 4b7c e33c b92b 8c3d 96bf 283c 1923 743e
00000040: 11b3 06be e44e 1d3d f981 973e 01d2 293e
00000050: 4708 0abe 7f77 443e c487 d53e 2d32 47be
00000060: 429c ea3a 06db 2d3e 7f5c 92be 381b 8183
00000070: 46a9 6c3e 3a8d 663e 45a8 b2bb 437d 62bd
-0.2983406 -0.12017142 -0.37037697 -0.33327755 -0.095372714 0.05462592 0.34283856 -0.00082447275
0.4153808 -0.29363272 0.005237121 -0.094543286 0.027769228 0.06844277 0.010299584 0.23841514
-0.13154246 0.038405314 0.2959135 0.16584016 -0.1347972 0.19186209 0.41705143 -0.19452734
0.0017899352 0.16978082 -0.28586194 -7.588188e-37 0.23111448 0.22514811 -0.005452188 -0.05529524

fc2.weight f4 [32, 32]
00000000: a41c a339 1eb3 ec3c 4139 923c 9e94 abbc
00000010: 17e8 9d3c 1011 773c 4ddd db3d e659 fa3b
00000020: b280 1b3d 32e3 ef3d ce7e 783c aafe 953c
00000030: 2883 e3bc 2cf7 6c3d ac21 02bc 6de5 81bd
00000040: 40a4 9e3c 50a7 88bb 5ba2 ce3c 5f25 393e
00000050: 4393 573e 24b3 be3d 8028 3b3e c80a adbb
00000060: 9daa 143c 3e1a 82bc ec3c 453d 789f 5e83
00000070: 9085 50be 50ef 85bc 8925 d0bb 7b22 cebc
00000080: c044 50b9 1f18 043d b505 83bc d21f 08bd
00000090: ec3d 5a3d d164 b53e 2c3c 6e3d 71eb b9bc
000000a0: b3c1 a93e bdcc 36be 2c5e 3cbd 2d6f e13b
000000b0: 8cf8 953e 33bb a93e 48d6 b73d 3681 7fbd
000000c0: d2aa 803e 2c7b a33c d298 713e d2c9 73be
000000d0: c058 cabc 24a0 113d f36f 0f3e 7777 f0bd
000000e0: 1584 793d 3952 aabd 66f0 123d 0c30 6e03
000000f0: d4e8 753c 5e42 67bc 1b16 533d 9c1c 90bc
00000100: c233 a13e 07b4 1fbc 42c4 973e 082a 153e
00000110: b866 b8bc 22f2 1c3d 5ebc 883e b774 e7bc
00000120: 1f81 0e3d ecc9 4d03 64fd 23be af1e eabd
00000130: 786a 42bd 6b74 653b 5927 a03e 3483 12be
00000140: 35ef 233b 4d8a 923c 9d57 18bd 9419 1d3f
00000150: 90aa 6cbe 8f1b 2abe cf64 363e 2280 eebd
00000160: 031a 18bb 640a 1e3d 48cf d83d 4ceb 7783
00000170: 7765 5fbe 0c53 b5bd 0ed3 1d3e d026 8cbd
00000180: aab2 c2bc d6d4 b13c 521f 44bb f80c cf3b
00000190: 9f2e 403d 80b5 be3d c02c b63c 1099 a03c
000001a0: f856 df3c 7675 78bd 20ea 4dbd 05b9 18bc
000001b0: 0cfd 60bc 58d5 a0bb 469c 9939 dd45 a7bb
000001c0: d4e1 2d3c c0a3 9bbc c431 3cbd 6907 61bc
000001d0: 6083 dc3c aed9 073d 60d2 483d 9bb2 183c
000001e0: c849 063e e3a0 d33d dd0e a23d 1ef1 7203
000001f0: ab21 01be f05c d33c 4942 623c d8f0 1d3d
00000200: 3ba9 7dbc 03a9 573b 2dc0 ccbb adce e502
00000210: f13e 36bc e694 f5bd 5d47 ffbb 57d9 243d
00000220: 713f 5f3c 6b1d dc3d 5fc0 bbbc 9893 303d
00000230: 5d15 ed3d cf92 453d f2bb 4cbd c918 19bd
00000240: b6a7 07bd 1c9c 9e3a ab38 e3bb 4c3d d23c
00000250: 45a8 c43c 261d 853c 0137 01be 1711 85bd
00000260: e63e 11bd 6706 14bd 0fb6 b8ba 3c7f 7283
00000270: ce2b 573d 3538 7b3b c1d7 053d f3f4 9f3c
00000280: 9309 17bc 29ed a2bb 5491 743b aa4c b2bc
00000290: 90a3 6e3c d189 12bc ae7c 31bc 6c1f 773d
000002a0: c783 babc da87 babc a8be e63d 4017 e23c
000002b0: 1600 e1bb 37f4 993c f5c7 573d 94ec 4dbd
000002c0: b4c6 b03d 990f 7abc 5f5b bb3c 8799 2f3c
000002d0: 0c78 3cbc 4ecc 4c3d 8ff0 0e3d 9852 9abc
000002e0: 1ddb e3bc 794a 3abd 1cdf 393d a2e0 5783
000002f0: c9e9 623c 5740 8fbd b30a 6abd bff2 e83c
00000300: 6bdd 853e fd43 e2bc c022 3d3e d019 bb3e
00000310: 44d3 c1bc a66b 1cbd 05a6 3e3e b2f5 8b39
00000320: eacc fd3c 50b4 6982 eeb8 4fbd d7c2 07be
00000330: a497 b4bd ed6a 853b e6e1 a9be ae16 0f3e
00000340: 3ef5 d23b 88d3 d93c 13ae a8bc 90a6 273f
00000350: 389f 9abe 628d 3fbe bb53 2e3e 1e0c 623e
00000360: 2a46 4ebc e777 0f3a 924c 3a3e c0b1 7403
00000370: fdb2 6dbe 3365 f6bd 4aa7 553d c1fe 8d3d
00000380: 7d24 1dbe 38b4 41bc 4582 023d 0f5d a93d
00000390: 2596 20bd 48b2 f4bd 8232 fc3e cf1f cd3c
000003a0: 0eba 603e 075c 41be 24c9 c0bd 334d bc3d
000003b0: 1563 013e eed0 bfbd f2bf aabd 7171 a4bd
000003c0: d09c c3ba f960 55bd 69a1 d13c ce74 0a3f
000003d0: ae6c 823e ff8f d6bd 1ed0 bc3d 44b0 923e
000003e0: 454e 82bc fd59 60be 13ae 85be 664d 7f83
000003f0: 5332 ea3d 2803 403c f321 fb3d 55de 0fbe
0.00031111122 0.028894003 0.017849566 -0.02094489 0.019275708 0.015079752 0.10735569 0.0076401113
0.03796453 0.11713256 0.015166951 0.01830991 -0.027772501 0.05785291 -0.007942598 -0.063425876
0.01936543 -0.004170336 0.025223901 0.18080662 0.2105227 0.09311512 0.18277168 -0.0052808262
0.0090738805 -0.015881654 0.048153803 -6.5422998e-37 -0.2036345 -0.016349465 -0.006352131 -0.025162926
-0.00019862037 0.032249566 -0.015993932 -0.03323347 0.05328171 0.3542848 0.058162853 -0.022695275
0.33155593 -0.17851539 -0.045988247 0.0068797083 0.2929119 0.33150634 0.08976418 -0.062379085
0.25130326 0.019956194 0.23593453 -0.23807457 -0.024700522 0.035553113 0.14007549 -0.11741536
0.06091698 -0.08316464 0.035873793 6.999707e-37 0.015009124 -0.014114944 0.051534753 -0.017591767
0.314848 -0.009747512 0.2964192 0.14566815 -0.022509918 0.038316853 0.26706213 -0.028253896
0.03479111 6.047588e-37 -0.1601463 -0.11431634 -0.047464818 0.0035012017 0.3128002 -0.14307863
0.0025014405 0.017888213 -0.03719293 0.61367154 -0.2311194 -0.16612075 0.17811893 -0.11645533
-0.0023208864 0.038584128 0.10586411 -7.2856884e-37 -0.2181605 -0.088537306 0.15412542 -0.068433404
-0.023766834 0.021707933 -0.0029925895 0.0063186847 0.04691946 0.09311962 0.022238135 0.019604236
0.02726315 -0.060658894 -0.050272107 -0.009321456 -0.013732206 -0.004908245 0.00029298867 -0.005104764
0.010612924 -0.01899898 -0.045945898 -0.013734677 0.026918113 0.03316658 0.049028754 0.009319927
0.13114083 0.10333421 0.07912991 7.1394197e-37 -0.126105 0.025801152 0.013809749 0.038559765
-0.015482242 0.0032907135 -0.006248495 3.3767152e-37 -0.011123405 -0.11991291 -0.0077904896 0.040246334
0.013625965 0.107477985 -0.022918878 0.043109506 0.1157634 0.04823571 -0.049983926 -0.037377153
-0.033118926 0.0012100968 -0.0069342456 0.025663994 0.024006018 0.01624925 -0.12618639 -0.064974
-0.035460375 -0.03613892 -0.0014092344 -7.1263466e-37 0.05253201 0.0038333063 0.032676462 0.01952598
-0.009218591 -0.0049721193 0.0037318068 -0.021765072 0.0145653635 -0.008943991 -0.010832949 0.0603327
-0.022767914 -0.022769857 0.112668335 0.027598977 -0.0068664653 0.018793209 0.05268093 -0.050274447
0.086316496 -0.015262508 0.022870718 0.010717756 -0.011503231 0.049999528 0.034897383 -0.018838212
-0.027814442 -0.04548118 0.04537879 -6.3440687e-37 0.013849684 -0.06994694 -0.05713911 0.028436063
0.2614549 -0.02762031 0.18470287 0.3654313 -0.02366031 -0.0381886 0.18618019 0.00026695203
0.0309815 -1.7169884e-37 -0.050713472 -0.13257919 -0.08817986 0.0040715844 -0.3318016 0.13973495
0.0064379266 0.026590124 -0.020590818 0.6548853 -0.301996 -0.18706277 0.17024128 0.22074935
-0.012589971 0.0005472884 0.18193272 7.1909202e-37 -0.2321281 -0.12031021 0.052161492 0.06933356
-0.1534595 -0.011822753 0.031862516 0.08269703 -0.03920569 -0.11948067 0.49257284 0.025039582
0.21945974 -0.18882762 -0.094133645 0.09194412 0.12635453 -0.09366022 -0.08337392 -0.0802945
-0.0014924053 -0.052094433 0.025589662 0.5408448 0.2547354 -0.10476684 0.09219383 0.28650105
-0.015906462 -0.21909328 -0.2610937 -7.5026614e-37 0.1143538 0.0117195025 0.12262335 -0.14049657

fc2.bias f4 [32]
00000000: edaa 8ebd eaa1 13be b635 90be 7d5a edb8
00000010: 927c 08bc ad8e 6fbd 759b 88be 7e17 abbd
00000020: c980 d4bd 7054 783e f0bd f03c 2b53 d6bd
00000030: 17e1 7b3e 536f ca02 6e17 b03d 50c5 873d
00000040: c71d 4f3e 549d a6bd 11f3 843d 91e9 003e
00000050: 3b69 0fbe fd40 ac3d bf5e db3d 00aa 663c
00000060: 853f 9fbd 75d2 393e ac38 983d eb6c 453d
00000070: 0658 8f3e beae df3d 19a1 f53d 3ed8 3fbe
-0.06966195 -0.14417234 -0.28165978 -0.000113178954 -0.008330481 -0.058485676 -0.26681104 -0.0835409
-0.10376126 0.2425096 0.029387444 -0.10465082 0.24597584 2.974513e-37 0.08598219 0.06629431
0.20226203 -0.08135477 0.06491674 0.12589099 -0.14004986 0.08410833 0.10711431 0.014078617
-0.07775787 0.18146689 0.07432684 0.048199575 0.27996844 0.10922001 0.119936176 -0.18734834

fc3.weight f4 [32, 32]
00000000: df99 c6bd cd79 023c c26e 0fbe b70c 773d
00000010: f244 8b3d cbee 38bd 51d5 4e3e 8f1d d03e
00000020: 3ecb 5d3e 6f2f f23c 4209 fabd 4e6f 183e
00000030: 401b 1b3d 686c 4403 edce 76bd 9501 eebd
00000040: d428 7d3a 2c27 5ebe e5da bb3d c90e 7dbe
00000050: 2ad0 b9bd 21c7 82bb 1db1 69bc 1805 203e
00000060: 3416 c73d 8630 d83c df49 553d 02c8 0cbd
00000070: d35a 04bd 9420 2abe 6fbe a83e f356 063e
00000080: 24b5 093d 21b4 72bd 2723 58be 9528 893d
00000090: c00f 1ebd da09 46bc fb3b a13e 9322 0e3e
000000a0: ac65 05bd c18f 883d b9e4 d83d eb87 25bd
000000b0: 974f 673e dca5 a180 c8b2 27bd 1fe2 513d
000000c0: 15e3 2bbe 0457 9f3d 6ba9 4fbc 7156 a13d
000000d0: efdc 2e3e f5f3 c43d 3aba e13e 5f92 a6bd
000000e0: d81e dfbd cc5c 3bbe e530 f23d f20e e3bc
000000f0: ab2e 51be 5e84 61be 15a7 edbb cf41 b63d
00000100: c8be d782 b614 d981 7477 5c82 8e9c 3482
00000110: 610a 5f83 7405 de01 9ee4 f182 a63a 6503
00000120: a049 4683 d089 0f82 eae1 7e82 b628 9c02
00000130: dce3 0e80 8473 9d80 202f c382 7bd9 ba81
00000140: 58d4 3383 3a0e 8282 4d93 4383 43fb cc82
00000150: 8d45 b402 20f0 3883 602f 5082 987e 2b83
00000160: 447a ee02 caaa 1083 eff2 8e01 ac88 6e82
00000170: 52d6 0002 497c da02 615d 2183 f422 d702
00000180: c20f 8882 5e4f a582 72ec aa81 a46c a982
00000190: bc94 9282 9cec a882 741d 7482 71ac 8582
000001a0: b8ff af82 f2b5 9882 c968 9282 5cfa 6681
000001b0: 7f6b b282 696c 5903 431f ae82 a4f5 9882
000001c0: b1b5 9882 f0e6 a682 6612 ae82 0c70 ab82
000001d0: 7d3c 9382 edc6 a682 300d 9c82 464d e802
000001e0: 2264 7982 16ec a282 1e1c a482 5112 9182
000001f0: b5ea 9f82 2ee0 ab82 5e41 be02 8a26 c182
00000200: aa5f a63d 8e3c b73c 4a1c af3d bb1c 803c
00000210: 2974 71bd e4da af3c a87d eabd 1d42 84bd
00000220: c37a c0bd 6778 893e 9d19 fe3b ffe4 4dbd
00000230: d9b0 29bd 7922 8682 8ad3 1c3d fab9 fdbd
00000240: 2f40 f03d 61be f03d 3e92 923c b670 a43d
00000250: a964 293d 0ae4 9e3a 3ea3 43be d743 c73c
00000260: 482f aebd 7550 503e a173 83bb f3af 46bc
00000270: 16ab 3b3e 1856 4d3d 0332 753d ca4f 9c3c
00000280: 826f c002 297c bc82 23db bf02 e4aa a282
00000290: 205f a182 630a b882 1861 b082 a330 b582
000002a0: d039 b082 5696 b982 a6d5 b782 cc17 b982
000002b0: 184a af82 e80c 2f00 d62f aa82 000e af82
000002c0: 3020 ab82 7e5d ab82 c2db ab82 a511 b182
000002d0: 6beb 9e82 584f b082 ac11 b282 685d 8d82
000002e0: 0675 8382 7043 ae82 66db c282 16bc ac82
000002f0: ea4b b982 f130 a682 857e b582 de48 a782
00000300: 9b23 18bd 244b a13d 8edc 573e 0005 1fbd
00000310: ab4b 2d3d 5de8 303c 22af 9bbe 1fc0 debd
00000320: d23a 2a3e e076 873d b611 c2bd 4a78 343d
00000330: abe9 223c e6d9 9f82 d9c3 a23d 5cbe 4d3c
00000340: 42da 853e 920f 9cbd b461 003d ae5d 8bbd
00000350: 9194 2abe e067 6bbd 66a8 51be 0d03 a53d
00000360: 432f 783e a469 e43e c4f4 86bd c311 003e
00000370: f34b a93e 21a3 a63e d0d7 bebd 14e3 92bd
00000380: 7223 44bd dff6 8b3d ad2c b884 10a6 503d
00000390: 31c5 f03b f97a 6dbc 54fd b584 a361 d13d
000003a0: 7aeb 493d 08df 23bd 630f adbb 6bd2 18bd
000003b0: 72ac c5bc caa4 7201 27ed f93d 1304 9dbe
000003c0: f799 b8bb 5ba4 c6bd 126b e93d 2829 dabd
000003d0: ce2a bebe d8a5 8aba b0e8 2d3d 96b5 ab3c
000003e0: e32d fd3c a756 a23d 08c7 80bc 2681 39bc
000003f0: 8232 933c a721 5fbb 3612 86bd 6cb5 96bd
-0.09697317 0.00796361 -0.14007095 0.06031486 0.0680026 -0.045149606 0.20198561 0.4064755
0.21659562 0.029563634 -0.12208797 0.1488621 0.037867785 5.7723667e-37 -0.060255934 -0.116213955
0.0009657268 -0.2169463 0.0917261 -0.24712671 -0.09072907 -0.003991023 -0.0142634185 0.15626943
0.09721032 0.026390325 0.052072402 -0.03437043 -0.03231318 -0.1661399 0.3295779 0.13119106
0.033620015 -0.059253816 -0.2110716 0.066971935 -0.03858924 -0.01208731 0.31491074 0.13880377
-0.032567665 0.06668044 0.105905004 -0.040412825 0.22588955 -1.4845014e-38 -0.040941983 0.051241037
-0.16785844 0.07780269 -0.01267467 0.078778155 0.17076467 0.096168436 0.44087392 -0.08133387
-0.10894555 -0.18297118 0.11825732 -0.027717087 -0.20427959 -0.2202315 -0.0072525837 0.08899271
-3.1700914e-37 -7.974293e-38 -1.6197329e-37 -1.326924e-37 -6.5545724e-37 8.1557745e-38 -3.5542987e-37 6.7364377e-37
-5.8271488e-37 -1.0545531e-37 -1.8725807e-37 2.2945507e-37 -1.367437e-39 -1.4459612e-38 -2.8679723e-37 -6.863768e-38
-5.284713e-37 -1.9109949e-37 -5.7474443e-37 -3.0119323e-37 2.6488543e-37 -5.434839e-37 -1.5295023e-37 -5.0397706e-37
3.5041134e-37 -4.2513853e-37 5.2511154e-38 -1.7524701e-37 9.465462e-38 3.2103557e-37 -4.742084e-37 3.1611473e-37
-1.9992449e-37 -2.4290126e-37 -6.278742e-38 -2.4894675e-37 -2.1538141e-37 -2.4821188e-37 -1.7934741e-37 -1.964157e-37
-2.5860714e-37 -2.2438824e-37 -2.1512916e-37 -4.2423952e-38 -2.621645e-37 6.3895017e-37 -2.5584945e-37 -2.2475383e-37
-2.2438678e-37 -2.452406e-37 -2.5577562e-37 -2.5190504e-37 -2.1634427e-37 -2.4505686e-37 -2.292971e-37 3.413369e-37
-1.8322368e-37 -2.3939267e-37 -2.4113773e-37 -2.1316348e-37 -2.3497665e-37 -2.5254865e-37 2.795551e-37 -2.8380922e-37
0.08123715 0.022367742 0.085503176 0.0156387 -0.05894867 0.02146668 -0.11449748 -0.064579226
-0.09398415 0.26849672 0.007754518 -0.050267216 -0.04142842 -1.9709317e-37 0.038287677 -0.12388988
0.11730992 0.11755062 0.017892 0.080293104 0.041355763 0.0012122404 -0.1910524 0.02432434
-0.08505112 0.20343192 -0.004011587 -0.0121269105 0.18326983 0.050130934 0.059862148 0.019081015
2.8275867e-37 -2.7695382e-37 2.8190706e-37 -2.3901847e-37 -2.3711423e-37 -2.7042332e-37 -2.5916605e-37 -2.6623476e-37
-2.5894058e-37 -2.7269595e-37 -2.7012061e-37 -2.7196966e-37 -2.5756467e-37 4.320898e-39 -2.5006711e-37 -2.5721975e-37
-2.5144666e-37 -2.5179854e-37 -2.5252327e-37 -2.601794e-37 -2.3351137e-37 -2.5906417e-37 -2.6164892e-37 -2.07717e-37
-1.9315888e-37 -2.560571e-37 -2.8631667e-37 -2.5381085e-37 -2.722688e-37 -2.4419599e-37 -2.6668178e-37 -2.4580268e-37
-0.03714333 0.0787566 0.21080229 -0.038823128 0.04230849 0.010797587 -0.30407053 -0.10876488
0.16624 0.066144705 -0.09476034 0.04406003 0.009943406 -2.3488018e-37 0.07947511 0.012557592
0.2614308 -0.07620157 0.031343177 -0.06804977 -0.16658236 -0.05747211 -0.20474395 0.080572225
0.24236779 0.44611847 -0.06589654 0.12506776 0.33065757 0.32546332 -0.09318507 -0.07172218
-0.047885366 0.06834196 -4.329922e-36 0.05093962 0.007347726 -0.014494651 -4.278554e-36 0.10223701
0.049296834 -0.04000762 -0.0052813753 -0.037310045 -0.02413008 4.456661e-38 0.12203436 -0.3066717
-0.0056335884 -0.09699317 0.11397375 -0.10652381 -0.37142032 -0.001057799 0.042458236 0.02096061
0.03090567 0.07926684 -0.015719905 -0.011322295 0.01796842 -0.0034047158 -0.06546442 -0.07358822

fc3.bias f4 [32]
00000000: e1ca 7a3c a742 1d3e 7a99 d982 f680 a582
00000010: 6d3b 063e ecee a982 6a3b 0a3e 5351 053b
00000020: da0b 193c 29bf 823e 7e87 aa3d df7c 9782
00000030: 1a1c 3f3d 1acc af82 f485 4d3e 1bb5 dc3d
00000040: ee18 0d3d 1766 b782 30a5 923e 2840 67bd
00000050: cd49 51bd a369 a182 2486 3e3e cb84 653c
00000060: a5c7 b6bd 38bd 673c 045e dc3d b0f7 ad3d
00000070: 2cc6 bd3d 36ea 4abd 113e 06bd 60eb 123e
0.015307159 0.15357457 -3.1973375e-37 -2.431859e-37 0.13108607 -2.4969453e-37 0.13499227 0.0020342662
0.009341205 0.2553647 0.08326624 -2.2259128e-37 0.04665766 -2.5831087e-37 0.2007063 0.107767306
0.034447603 -2.694803e-37 0.28641653 -0.05645767 -0.051095773 -2.3717456e-37 0.18605858 0.014008711
-0.08924798 0.014144234 0.107601196 0.08494508 0.09266314 -0.049539767 -0.032774035 0.14347601

fc4.weight f4 [2, 32]
00000000: ddeb ba3e c3e1 09be 6702 0902 531c cc82
00000010: 0140 84be ce30 c302 c35b 183e 7242 fa3e
00000020: 78d5 50bd 83fe 66be 73b1 823d 581d b702
00000030: cad6 d33e 9d2e d382 11e0 87be 590b 7dbe
00000040: efb0 05c0 3a7b b482 8b01 aebc 5ac7 92be
00000050: 5738 eabd 7e53 b402 2f78 273d 48cd 013f
00000060: 6703 d83e af80 a33e 4b1a c53e 85d2 25bd
00000070: b290 16bf 68cb cbbe bbd2 07bf 271e 82bf
00000080: 0f1e d83e 6483 173f ffd7 3983 f000 b802
00000090: 9e90 84be c66d b202 45de 14bf 6ed5 66bb
000000a0: 59ed e03d 34ce 363f cb76 c6be 6ee7 b982
000000b0: 8e21 03be d382 bc02 5375 a93e 3517 dfbe
000000c0: 1b3f 4b3e beaf be82 d7de 3dbf 4188 fa3b
000000d0: 60fb ecbf c566 ad02 f926 fd3e a6ff ea3d
000000e0: 7d2a 95bd 92ef 433f 53d4 6bbc d14b 78be
000000f0: 5b5f 333c 2467 313c 29ad 8f3f 718b 5cbd
0.36508074 -0.13465028 1.006586e-37 -2.9991363e-37 -0.2583008 2.8680687e-37 0.14878754 0.4887882
-0.05098483 -0.22558026 0.06381502 2.6906276e-37 0.4137481 -3.1030418e-37 -0.26538137 -0.2471136
-2.0889242 -2.6519351e-37 -0.02124097 -0.28667718 -0.11436527 2.6496545e-37 0.0408861 0.5070386
0.42190096 0.31934115 0.38496622 -0.04048397 -0.5881454 -0.39803624 -0.53055924 -1.0165452
0.42210433 0.5918486 -5.4614565e-37 2.7036908e-37 -0.25891584 2.6217756e-37 -0.58151656 -0.003522243
0.109827705 0.7140839 -0.38762507 -2.731614e-37 -0.12805769 2.7699207e-37 0.33097324 -0.43572393
0.19848292 -2.8018862e-37 -0.7416815 0.0076456373 -1.8514214 2.5479052e-37 0.49443796 0.11474542
-0.072834946 0.7653743 -0.014393884 -0.24247672 0.0109480275 0.010827813 1.1224719 -0.05384392

fc4.bias f4 [2]
00000000: f7ae bbbe 4ead 293d
-0.36656925 0.04142504
