droplet_approximation/models/network_box_residual_l1_epoch_5.pt (torch, 14061 bytes, 8 tensors)

fc1.weight f4 [32, 7]
0	0xbd1f1aa5	-0.03884377
1	0xbd3d7dfa	-0.04626272
2	0x388135aa	6.161195e-05
3	0xbb8db041	-0.0043239896
4	0xbe3e6881	-0.18594553
5	0x3a53780c	0.00080668996
6	0x3d4c31c1	0.049852137
7	0xbee4febf	-0.44725606
8	0xbe5297cd	-0.2056572
9	0x385a77fa	5.2086987e-05
10	0x3e62b98c	0.22141093
11	0xbc881cac	-0.016615234
12	0x3997233c	0.00028827216
13	0x3f3f6544	0.74763894
14	0xbd21118a	-0.039323367
15	0x3ada51e9	0.0016656491
16	0xb844faf2	-4.6963753e-05
17	0xba9fc74e	-0.0012190135
18	0xbbb11240	-0.005403787
19	0x389ac59c	7.3801e-05
20	0xc0192be4	-2.3933039
21	0xbc2ea24f	-0.010658815
22	0xbd0ef29e	-0.034899347
23	0x39131495	0.0001402668
24	0xbe03351f	-0.12813233
25	0x3f0715e8	0.527678
26	0x3b3c5748	0.0028738547
27	0x3c6a11cb	0.014286469
28	0xbcf94e3d	-0.030432815
29	0x3f167f64	0.5878813
30	0xba069e02	-0.00051352393
31	0xbf03b194	-0.5144284
32	0xbd6cd7ae	-0.057822876
33	0xba25090f	-0.00062956003
34	0x3efe5010	0.49670458
35	0xbf05037a	-0.5195843
36	0x3c13ae71	0.009013758
37	0xb9e16fd4	-0.00042998663
38	0x3c3c3c8e	0.011489047
39	0x3ec492c9	0.38393238
40	0x3a89905c	0.0010495293
41	0x3f8197f6	1.01245
42	0xbcd93cc0	-0.026518226
43	0x3efee09d	0.4978074
44	0x398559bf	0.00025434603
45	0xbf09f773	-0.538932
46	0xbc8b902c	-0.01703652
47	0x393ea6b0	0.00018181908
48	0xbe972fff	-0.29528806
49	0xbe659552	-0.22420242
50	0xbf13cfc0	-0.57738876
51	0x3a1b7632	0.0005930393
52	0x3f1266ae	0.57187927
53	0xbe541a1c	-0.20713085
54	0xb99a9189	-0.000294816
55	0xbe6fbf2e	-0.23412773
56	0xbefefb53	-0.4980112
57	0x3b0cced2	0.002148558
58	0x36415377	2.8807824e-06
59	0x3c08a78b	0.008340727
60	0xbe852384	-0.2600366
61	0x3a2d2ce9	0.00066061184
62	0x3f28594e	0.6576127
63	0x3eaf22fb	0.34206375
64	0xbea5d8a5	-0.3239185
65	0xb976a3e8	-0.00023521448
66	0x3e6baa52	0.23014191
67	0x3cf0d7f6	0.029399853
68	0x3abebd9e	0.001455236
69	0xbeecfb6f	-0.4628558
70	0x3f8098bd	1.0046612
71	0x3cfb3c0f	0.030668287
72	0xb94fe8d8	-0.000198278
73	0xbd7230da	-0.05912862
74	0xbe9b984b	-0.30389628
75	0xba3c5944	-0.00071849325
76	0xbf9c8294	-1.2227349
77	0x3d107c5d	0.035274852
78	0xbea13131	-0.31482843
79	0x38a5b5d9	7.901685e-05
80	0x3ecb0f95	0.39660326
81	0x3e84ae00	0.25914
82	0xbaa91710	-0.001290055
83	0xbdedf8c7	-0.11619716
84	0xbe03f735	-0.12887271
85	0x3cd88bcb	0.026433846
86	0x394de000	0.0001963377
87	0x3d299e24	0.04141058
88	0xbe4c5159	-0.19952907
89	0xba9aefa6	-0.0011820688
90	0x3e06ef58	0.1317724
91	0xbbc5568a	-0.006022279
92	0xbf1cda40	-0.61270523
93	0xb9442688	-0.0001870637
94	0x3f1e95ff	0.61947626
95	0x3c1b4ec7	0.009479231
96	0x391e2241	0.00015080815
97	0x3de69ac1	0.11259986
98	0xbbce58d5	-0.0062972107
99	0xbeefb66b	-0.4681886
100	0xb9d46dcf	-0.00040517605
101	0x3edc61c3	0.43043336
102	0xbbc29419	-0.005938065
103	0x3a8f7c21	0.0010947027
104	0x3f64ef1d	0.8942736
105	0x3e03fc35	0.12889178
106	0x3f1bf71c	0.60923934
107	0xb94adbe1	-0.00019346132
108	0xbf2010e5	-0.6252578
109	0xbd4f708b	-0.05064444
110	0x39ba73de	0.00035563012
111	0xbdfb4360	-0.1226871
112	0xbe56602d	-0.20935126
113	0x3ca64bed	0.020299876
114	0xba22706f	-0.00061965635
115	0xbc8dff57	-0.01733367
116	0xbec807f2	-0.39068562
117	0x3a702d9c	0.000916207
118	0x3f480063	0.7812559
119	0xbf296abc	-0.6617849
120	0x3c0594df	0.008153169
121	0x3957f2ab	0.00020594399
122	0x3c3b6ebc	0.011439975
123	0x3c435399	0.011921787
124	0x39f95397	0.0004755526
125	0x3f6241bd	0.8838156
126	0x3e708ceb	0.23491256
127	0xbe33e781	-0.1756878
128	0x38074ac1	3.2256128e-05
129	0x3c6a666e	0.014306648
130	0xbe4686a2	-0.19387296
131	0x3b0ca856	0.002146264
132	0xbec6b775	-0.38811842
133	0x3c527183	0.012844446
134	0x3ec427e8	0.38311696
135	0xba4064f1	-0.000733926
136	0xbec6ce55	-0.38829294
137	0xbc1a731e	-0.00942686
138	0x3aa14edb	0.0012306826
139	0x3f8810ab	1.0630087
140	0x3d828a69	0.06374056
141	0x3f462d37	0.7741274
142	0x3888bdcc	6.520338e-05
143	0xbf4a307e	-0.78980243
144	0xbe5e6604	-0.21718603
145	0x3883b7a0	6.2807696e-05
146	0x3d9e437f	0.077277176
147	0xbf3fb6b3	-0.7488815
148	0x3eb8d069	0.36096504
149	0x3a896b75	0.0010484295
150	0xbebcd533	-0.36881408
151	0x3e80259a	0.25028688
152	0xb86d6729	-5.660128e-05
153	0xbe5f479e	-0.21804664
154	0xbf08e080	-0.5346756
155	0x3c4bfbfb	0.012450214
156	0x37c395b0	2.3315515e-05
157	0x3b509ce6	0.00318318
158	0xbcf35be5	-0.029706905
159	0x3a2454d1	0.0006268742
160	0x3f4670d9	0.7751594
161	0x3e11dea5	0.14245088
162	0xbf2487d1	-0.6426974
163	0x3936cfab	0.00017434235
164	0x3f21e189	0.63234764
165	0x3cd05ed4	0.025435843
166	0xb98b1a72	-0.0002653185
167	0x3d384af9	0.044993374
168	0xbf01fc3f	-0.5077552
169	0xbc317665	-0.01083145
170	0x3918808a	0.00014543734
171	0x3cdf822c	0.02728375
172	0xbd9d6ee6	-0.07687168
173	0x39af92c5	0.00033487953
174	0x3f08061e	0.53134334
175	0x3cbee3c2	0.023301963
176	0xb8146ef9	-3.53893e-05
177	0x38bfa056	9.1374546e-05
178	0xba44b51d	-0.00075037946
179	0x3ca166ff	0.019702433
180	0xb9ddee42	-0.0004232992
181	0x3fafb29f	1.3726386
182	0xbf54083e	-0.82825077
183	0x3c467257	0.012112222
184	0x37914bd5	1.7320659e-05
185	0x3bdb4f32	0.0066927904
186	0xbe6c7522	-0.23091558
187	0x3a304ffb	0.0006725785
188	0x3f83016e	1.0234811
189	0xbd5b728f	-0.05357605
190	0x3f28d00d	0.6594246
191	0x393047b8	0.00016811385
192	0xbf2bc691	-0.67099863
193	0xbe4b63f1	-0.19862343
194	0x3901f5f8	0.00012394029
195	0x3e96f833	0.29486236
196	0xbd4df71d	-0.050284494
197	0xbb9aceff	-0.004724383
198	0x398909bb	0.00026137926
199	0x3bceb7fb	0.0063085533
200	0x3c2e994f	0.010656669
201	0xb94a5541	-0.00019295981
202	0xbfc58792	-1.5431998
203	0x3f4fb7b5	0.8113969
204	0xbec7aa69	-0.389972
205	0xba9617d5	-0.0011451194
206	0x3ecbfc26	0.39840811
207	0xbe8ac495	-0.27103105
208	0x3881a47b	6.181836e-05
209	0x3e707ff1	0.23486306
210	0x3e699d4f	0.22813915
211	0x3f1cca17	0.61245865
212	0xba1ce14c	-0.00059844996
213	0xbf1bb41f	-0.6082172
214	0x3e5633db	0.20918219
215	0x39a0bd08	0.00030658417
216	0x3e769810	0.24081445
217	0xbe1210d3	-0.1426423
218	0x3d09b12e	0.033616237
219	0x39c2d510	0.00037161307
220	0xbdc8cf56	-0.09805171
221	0x3de58c02	0.11208345
222	0x3a505fee	0.0007948865
223	0x3e3cf509	0.18452848

fc1.bias f4 [32]
0	0xbd8d4aee	-0.06899057
1	0x3e26cdc2	0.16289428
2	0x3e10a8ca	0.14126888
3	0x3da206c4	0.07911447
4	0x3e216b7e	0.15763661
5	0x3d504eff	0.050856587
6	0x3e08ad3b	0.13347332
7	0xbe4bddb0	-0.19908786
8	0xbf10e4b7	-0.5659899
9	0x3e00a872	0.12564257
10	0xbd524722	-0.05133737
11	0x3e7bae1f	0.2457814
12	0xbe81fc25	-0.25387684
13	0x3ddddd27	0.10833197
14	0x3d20b9f2	0.03923983
15	0x3e81ee80	0.25377274
16	0xbf18536e	-0.59502304
17	0xbe88f634	-0.26750338
18	0xbe82abc7	-0.2552168
19	0xbc92e8e8	-0.017933324
20	0x3bf4261c	0.007450832
21	0xbe95e546	-0.29276484
22	0xbde7f980	-0.11326885
23	0x3e950bef	0.29110667
24	0xbea99d75	-0.33127943
25	0xbdf69195	-0.12039486
26	0xbf582e2b	-0.84445447
27	0x3e30f439	0.17280664
28	0x3e252243	0.16126351
29	0x3ea2992d	0.3175749
30	0x3e4cfe1d	0.20018812
31	0x3e165f90	0.14684892

fc2.weight f4 [32, 32]
0	0x3d568fd5	0.052383263
1	0x3ddf0966	0.108904645
2	0xbedeea97	-0.43538353
3	0x3d86b5de	0.06577657
4	0x3d6087f8	0.05481717
5	0xbc157d69	-0.009124138
6	0xbde31303	-0.110876106
7	0x3d39f047	0.045395162
8	0x3e4be70d	0.19912358
9	0xbe26d399	-0.16291656
10	0xbe322a39	-0.17398919
11	0xbd92b3f5	-0.0716323
12	0x3e8f85c4	0.28031743
13	0xbe0599a6	-0.13046893
14	0x3def0062	0.11669995
15	0xbe524689	-0.2053472
16	0x3e91585c	0.28387725
17	0xbc7ff596	-0.015622517
18	0xbd8a05df	-0.06739401
19	0x3eadb474	0.33926737
20	0xba8449b6	-0.0010092768
21	0xbe44afdc	-0.1920771
22	0x3d057eed	0.03259175
23	0x3bb9ffae	0.0056762313
24	0x3e458971	0.19290711
25	0xbe51c891	-0.20486666
26	0x3d830f7b	0.06399437
27	0xbd3b6da4	-0.04575886
28	0xbe7d92df	-0.24763058
29	0x3e9116fc	0.28337848
30	0x3e035e83	0.12829022
31	0x3d572a87	0.05253079
32	0x3e5baf60	0.21453619
33	0x3e79ec92	0.2440665
34	0xbecfce06	-0.4058687
35	0x3e0a449a	0.13502732
36	0x3e0d8f22	0.13824132
37	0xbd8c4554	-0.06849161
38	0xbe362e0d	-0.17791004
39	0x3e185115	0.1487468
40	0x3ef72f4d	0.48278275
41	0xbd5e90ed	-0.05433743
42	0xbe1e2078	-0.15442073
43	0xbce73ea8	-0.028228119
44	0xbe13c17f	-0.14429282
45	0x3d9c47ff	0.0763092
46	0x3b32b7f1	0.0027270282
47	0xbe6d06d3	-0.23147134
48	0xbdf5b01a	-0.11996479
49	0xbb73348a	-0.0037110173
50	0xbc672813	-0.0141086755
51	0x3e1a3f73	0.15063266
52	0x3e658428	0.22413695
53	0x3e011787	0.12606631
54	0x3eb91f6e	0.3615679
55	0xbe4c8d2c	-0.19975728
56	0x3eb85640	0.36003304
57	0xbe6a6671	-0.22890641
58	0xbe9e7cf9	-0.30954722
59	0xbd8c81cb	-0.068606935
60	0xbe360470	-0.1777513
61	0xbdbb76cc	-0.09153518
62	0xbd3f5d12	-0.04671962
63	0xbd7d47eb	-0.061836164
64	0xbe4a7670	-0.19771743
65	0x3dc91eeb	0.0982035
66	0xbe0c1207	-0.13678752
67	0xbda2a5de	-0.07941793
68	0x3d58762a	0.052847065
69	0xbdad04e5	-0.08448199
70	0xbbea4522	-0.0071493546
71	0xbe4fb6c0	-0.20284557
72	0x3e5d6647	0.21621047
73	0xbca2ba8d	-0.019864345
74	0xbe9a5025	-0.3013927
75	0xbbaff237	-0.0053694504
76	0x3cb78387	0.022401584
77	0x3e343853	0.17599611
78	0x3ec384c4	0.3818723
79	0x3d749510	0.05971247
80	0x3e915146	0.2838232
81	0x3d91a6d3	0.07111897
82	0x3e07f0c5	0.1327544
83	0x3e8b5217	0.27211067
84	0xbdbaed88	-0.09127337
85	0x3ed9ebab	0.42562613
86	0x3e0d38b5	0.13791163
87	0x3dc8019b	0.09765931
88	0xbe8c083e	-0.27350038
89	0xbe0f959a	-0.14021912
90	0x3ebaf972	0.36518437
91	0x3ba8cb64	0.005151199
92	0xbd8c16a0	-0.06840253
93	0xbee5c08a	-0.44873458
94	0x3d652a1f	0.055948373
95	0xbe19cf01	-0.15020372
96	0xbd1757dd	-0.036949027
97	0x3e51a77c	0.20474046
98	0xbe2c72e9	-0.1684071
99	0xbe8eaac7	-0.27864668
100	0x3e30426b	0.17212836
101	0x3eb95c84	0.36203396
102	0xbd49e710	-0.049292624
103	0xbdf908b8	-0.12159866
104	0xbd54ea4a	-0.051981248
105	0xbe7750e5	-0.24151953
106	0x3e63fc3f	0.22264193
107	0xbdcf3622	-0.10117747
108	0x3e11aa88	0.14225209
109	0xbd6973e5	-0.05699529
110	0x3e4451bc	0.19171804
111	0x3bb7f397	0.005613755
112	0xbcd9b399	-0.026574897
113	0xbf51d7c6	-0.8196987
114	0x3ddde706	0.1083508
115	0x3e648e0e	0.22319815
116	0xbd8c4b43	-0.068502925
117	0x3ca322ca	0.01991405
118	0xbe82c8bf	-0.25543782
119	0x3daeb329	0.08530266
120	0xbe26209f	-0.16223381
121	0xbcc7a15d	-0.024368936
122	0xbf10c6c5	-0.565533
123	0xbdcda2a3	-0.10040786
124	0x3cdb641b	0.026781132
125	0xbdb6ccae	-0.08925758
126	0xbd6849ff	-0.056711193
127	0x3e2bb4a3	0.16768126
128	0xbe486b78	-0.19572246
129	0x3e847e62	0.25877672
130	0xbe3125e1	-0.17299606
131	0xbe690885	-0.22757156
132	0x3d953e88	0.072873175
133	0x3da0dc11	0.07854474
134	0x3d159bcd	0.036525536
135	0xbea898c4	-0.3292905
136	0xbe9989c9	-0.29987934
137	0x3d5936b8	0.0530307
138	0xbe875d06	-0.2643816
139	0xbcc3141b	-0.023813298
140	0x3d756aa3	0.05991615
141	0x3d029c7f	0.031887528
142	0x3dff3069	0.124604054
143	0x3cbf2c48	0.023336545
144	0x3e62d3a8	0.22151053
145	0xbc146621	-0.009057553
146	0x3d67636b	0.056491297
147	0xbc8f9057	-0.017524881
148	0xbe0a3cd5	-0.13499768
149	0x3edf2845	0.4358541
150	0x3c09e898	0.008417271
151	0x3dbe11b3	0.092807196
152	0x3bfb14dd	0.007662399
153	0x3d5a2317	0.05325612
154	0xbed82fb0	-0.42223883
155	0xbe3a3aaf	-0.18186449
156	0xbe10a751	-0.14126326
157	0xbe48bb9d	-0.19602819
158	0x3d4c7d19	0.04992399
159	0x3e105a2c	0.14096898
160	0x828d397a	-2.0751078e-37
161	0x815b2693	-4.0251623e-38
162	0x02b96a40	2.7244291e-37
163	0x0061f1c8	8.994778e-39
164	0x8311e135	-4.2870195e-37
165	0x82d486da	-3.1228001e-37
166	0x82c4372c	-2.8831279e-37
167	0x81e01196	-8.230984e-38
168	0x82331cc2	-1.3159096e-37
169	0x80c714f4	-1.828278e-38
170	0x832c4507	-5.0625497e-37
171	0x817e3726	-4.6692e-38
172	0x028064b4	1.886571e-37
173	0x8272f898	-1.7850695e-37
174	0x016ad181	4.3129324e-38
175	0x82e26c51	-3.3269886e-37
176	0x825da13c	-1.6282788e-37
177	0x83532faf	-6.2062065e-37
178	0x02b124c1	2.6028908e-37
179	0x81e21249	-8.3045526e-38
180	0x8306ad4e	-3.9578005e-37
181	0x020b1c95	1.022031e-37
182	0x021d0366	1.1535514e-37
183	0x8291da95	-2.1431295e-37
184	0x832ee446	-5.139605e-37
185	0x83479a8a	-5.8658246e-37
186	0x0311e6ee	4.2876764e-37
187	0x82ebc8bc	-3.4645362e-37
188	0x8240fe3c	-1.4178894e-37
189	0x82b96ba8	-2.7245099e-37
190	0x03307526	5.185623e-37
191	0x0233b38b	1.3202369e-37
192	0xbd70bd90	-0.05877453
193	0xbe3530bd	-0.17694373
194	0x3dcdb8be	0.100450024
195	0xbc22d75e	-0.009939043
196	0x3d869de8	0.06573087
197	0xbe0a363e	-0.13497254
198	0xbc999156	-0.01874606
199	0xbe53c7ce	-0.20681688
200	0x3d65ca0b	0.056100886
201	0x3ebfa8aa	0.37433368
202	0x3e2fd893	0.1717246
203	0x3bcbf96c	0.0062248018
204	0x3db92e52	0.09042038
205	0x3e75b4b7	0.23994718
206	0xbdb726c3	-0.0894294
207	0xbd90e17d	-0.070742585
208	0x3d95b501	0.073099144
209	0xbc995470	-0.01871702
210	0xbd9e623e	-0.07733582
211	0x3ddddafc	0.108327836
212	0x3c00222e	0.007820649
213	0x3dea7037	0.114471845
214	0x3d584237	0.052797522
215	0x3eae7a05	0.3407747
216	0x3e938d4a	0.28818733
217	0x3d07ec3c	0.033184275
218	0xbe36421e	-0.17798659
219	0xbe39f8f6	-0.18161377
220	0x3d89fb63	0.06737401
221	0x3d86d50f	0.065836065
222	0xbd9f90b1	-0.077912696
223	0x3d44a06a	0.048004545
224	0x3d476e76	0.048689328
225	0x3e988686	0.29790133
226	0xbb92b0a4	-0.0044766236
227	0xbb7bc1db	-0.0038415107
228	0xbe0b5426	-0.13606319
229	0xbd099072	-0.03358502
230	0xbe090dc2	-0.13384154
231	0xbd8c4c0f	-0.068504445
232	0x3c62248d	0.01380266
233	0xbd166e07	-0.036726024
234	0xb9d1d96f	-0.00040025587
235	0x3e11a92e	0.14224693
236	0x3d5355b0	0.05159539
237	0x3db82a3f	0.08992433
238	0xbeb553f2	-0.35415608
239	0xbe2c542e	-0.16828987
240	0xbe1ffe0c	-0.15624255
241	0x3b9bf8b9	0.0047598747
242	0x3dd90635	0.10596887
243	0x3e53865e	0.20656726
244	0x3f6c02de	0.92191875
245	0xbd42d83c	-0.0475695
246	0x3cd06aa3	0.025441473
247	0x3e249e7c	0.16076082
248	0x3d0b8c64	0.034069434
249	0xbc82327c	-0.015893213
250	0xbce65406	-0.028116237
251	0xbf4db602	-0.80355847
252	0x3c2a0288	0.01037658
253	0x3d14198c	0.036157176
254	0x3d98689a	0.07441826
255	0x3e7f718e	0.24945661

fc2.bias f4 [32]
0	0xbcd1f96b	-0.025631627
1	0xbdb00ac5	-0.08595804
2	0x3d16a9d4	0.036783054
3	0x3e523b59	0.20530452
4	0x3d9788c1	0.073991306
5	0x82e7800a	-3.401589e-37
6	0x3dd35bc7	0.103202395
7	0x3d19126d	0.037371088
8	0x3de3810c	0.11108598
9	0x3e8d6355	0.27614847
10	0x3df747fc	0.12074277
11	0x3e4c9d30	0.19981837
12	0xbe86156e	-0.26188225
13	0xba260560	-0.00063331984
14	0x3e7589c0	0.23978329
15	0xbc0ed9f8	-0.00871896
16	0x3deefc07	0.11669164
17	0xbdc53cc9	-0.096307345
18	0xbe31fe1c	-0.17382091
19	0x8298685f	-2.2394299e-37
20	0xbe569486	-0.20955095
21	0x3e306fdd	0.17230172
22	0xbca636b5	-0.020289758
23	0xbed228ad	-0.41046658
24	0x3e1acf16	0.1511806
25	0xbe5d52d2	-0.21613625
26	0x3eca0ddd	0.39463702
27	0xbe12e92d	-0.14346762
28	0x3df64a38	0.12025875
29	0x3d225436	0.03963109
30	0xbe0aae56	-0.13543066
31	0x3cb0882d	0.021549309

fc3.weight f4 [32, 32]
0	0x82b95ae4	-2.7235476e-37
1	0x82b29983	-2.624286e-37
2	0x82a6f66d	-2.453295e-37
3	0x82a34596	-2.3990638e-37
4	0x82a8c265	-2.4796958e-37
5	0x8243036c	-1.4327319e-37
6	0x82a701f0	-2.4539557e-37
7	0x82975d70	-2.2241086e-37
8	0x82abdc30	-2.5252573e-37
9	0x829bec7a	-2.2910934e-37
10	0x82b4674d	-2.6507915e-37
11	0x82acc98e	-2.5388815e-37
12	0x82b6c236	-2.6853968e-37
13	0x829c473e	-2.296303e-37
14	0x82a79b79	-2.4627682e-37
15	0x82af7c58	-2.5785309e-37
16	0x82b1f98f	-2.6151052e-37
17	0x82a4535c	-2.414548e-37
18	0x82a74a22	-2.4580995e-37
19	0x834a866f	-5.9516787e-37
20	0x82b85998	-2.7087794e-37
21	0x82ad2218	-2.5439634e-37
22	0x82ae809f	-2.5640827e-37
23	0x02c59c57	2.9036283e-37
24	0x82a96411	-2.4889753e-37
25	0x82a91faf	-2.4850504e-37
26	0x82a43106	-2.4125772e-37
27	0x82a29b92	-2.3893054e-37
28	0x82a6bc7a	-2.4499688e-37
29	0x82a22ea2	-2.3830527e-37
30	0x82a1c22e	-2.3768277e-37
31	0x82969946	-2.2128494e-37
32	0xbd631381	-0.055438522
33	0x3bbb6597	0.0057188976
34	0x3da4bc29	0.08043701
35	0x3e0658db	0.13119833
36	0x3e82f290	0.25575686
37	0x0298fd4a	2.2479773e-37
38	0x3e8c2289	0.27370098
39	0x3e890f65	0.26769558
40	0x3dbaaf03	0.09115412
41	0x3dd2a1f1	0.10284794
42	0x3d7529d1	0.059854332
43	0x3dbbe7bf	0.091750614
44	0x3e8af469	0.27139595
45	0xbc42371b	-0.0118539585
46	0x3d9938a3	0.07481506
47	0x3df598cc	0.11992034
48	0x3e8b5fbb	0.27221474
49	0xbdec1bac	-0.115287155
50	0xbb0d5c1e	-0.0021569799
51	0x02a3ac4c	2.404959e-37
52	0x3df05036	0.11734049
53	0x3e8e3f0b	0.27782473
54	0xbc495ce8	-0.012290217
55	0x3e4deb5e	0.20109317
56	0xbd0ea7e4	-0.03482808
57	0xbd2f8554	-0.04285176
58	0x3ddce102	0.10785104
59	0x3da9f984	0.082995445
60	0xb9f47d95	-0.00046632873
61	0xbd978594	-0.07398525
62	0x3e122354	0.14271289
63	0x3c0b8c3b	0.00851732
64	0x3e5917c7	0.21200477
65	0x3e0eedc9	0.13957895
66	0x3e565388	0.20930302
67	0xbe926466	-0.28592223
68	0xbe022e42	-0.12712958
69	0x0292be2d	2.1561927e-37
70	0x3bea2c98	0.0071464293
71	0xbd45253b	-0.04813121
72	0xbe8604b2	-0.26175457
73	0x3e2facbc	0.17155737
74	0xbd7c663b	-0.061620932
75	0x3d0b3606	0.033987068
76	0x3e5cf913	0.2157939
77	0xbdb3c277	-0.087773256
78	0xbe89ba5c	-0.26899993
79	0x3c8029b0	0.015644878
80	0xbea71192	-0.32630593
81	0xbda60d95	-0.08108059
82	0xbe2ff896	-0.17184672
83	0x029da43b	2.316334e-37
84	0x3e25a698	0.16176832
85	0xbecac325	-0.39602008
86	0x3dfba847	0.12287956
87	0xbdfc2981	-0.12312604
88	0xbebff4b4	-0.3749138
89	0xbe9d623d	-0.30739012
90	0xbe9f9a48	-0.31172395
91	0xbe83bff1	-0.25732377
92	0xbd9182d9	-0.07105035
93	0x3d9875f1	0.074443705
94	0xbe028feb	-0.12750213
95	0xbdff256e	-0.12458311
96	0xbdecb866	-0.11558609
97	0x3e64b35e	0.22334048
98	0x3dc3cbea	0.09560378
99	0x3e4dcd54	0.20097858
100	0x3dafb872	0.08580102
101	0x8241342c	-1.4194373e-37
102	0xbdfb0dba	-0.122584775
103	0x3b903015	0.004400263
104	0xbe4f42a6	-0.20240268
105	0xbd846a9b	-0.06465646
106	0x3eab4dc9	0.33457783
107	0x3e5c422b	0.21509616
108	0x3e652678	0.22377956
109	0xbdca8859	-0.098892875
110	0xbe8f707a	-0.280155
111	0xbde81424	-0.113319665
112	0xbc9cae91	-0.019126208
113	0x3bb0d769	0.0053967726
114	0x3e18fa55	0.14939244
115	0x02aed49e	2.5689038e-37
116	0x3e8ee535	0.27909246
117	0xbe6c66ad	-0.23086043
118	0x3e3bfa1a	0.18357125
119	0xbd7b3be7	-0.061336424
120	0xbe53983d	-0.20663543
121	0x3ec0f086	0.37683505
122	0xbe009ed5	-0.1256059
123	0x3bbb14b8	0.005709257
124	0xbe285a7f	-0.16440772
125	0xbdadb665	-0.084820546
126	0xbd512a45	-0.051065702
127	0xbaba848c	-0.0014230176
128	0xbdbe8605	-0.09302906
129	0x3dcf46f9	0.10120959
130	0xbd7a2767	-0.061072733
131	0xbd95ec81	-0.073205
132	0x3e8199c6	0.25312632
133	0x831ba5ea	-4.5740866e-37
134	0xbe1f8d56	-0.15581259
135	0x3d904e6d	0.070462085
136	0xbdaab948	-0.08336121
137	0x3d85dc6d	0.065361835
138	0xbdf9d673	-0.12199106
139	0x3e26d573	0.16292362
140	0x3f29b99c	0.6629884
141	0xbeae6843	-0.3406392
142	0x3e4c462f	0.19948648
143	0xbe09dd02	-0.13463214
144	0x3e9e34f7	0.30899784
145	0x3cbd1e6a	0.023085792
146	0x3d3e3d0a	0.04644493
147	0x0298aaa7	2.2432342e-37
148	0xbc7a6b9d	-0.015284446
149	0xbc21cf75	-0.009876122
150	0x3d4367cc	0.04770641
151	0xbe167023	-0.14691214
152	0xbdbc17cb	-0.09184226
153	0x3db3c769	0.08778269
154	0xbcafba2f	-0.021451084
155	0xbda41e07	-0.0801354
156	0x3e468419	0.19386329
157	0x3d808fdf	0.06277441
158	0xbd0cb042	-0.03434778
159	0x3d793902	0.060845383
160	0xbdc37eb2	-0.095456496
161	0x3e9e1b5d	0.30880252
162	0x3e21fb24	0.15818459
163	0x3e18aa4b	0.14908712
164	0xbcba5637	-0.022746189
165	0x82f73598	-3.632415e-37
166	0xbcf8a63f	-0.03035271
167	0xbcbb985f	-0.022899805
168	0xbe742ce4	-0.2384525
169	0x3d53a667	0.051672366
170	0x3d590163	0.052979838
171	0x3e342235	0.17591174
172	0x3d881098	0.0664379
173	0xbe5fa61e	-0.21840712
174	0xbe88cb76	-0.26717728
175	0xbd9efb5f	-0.07762789
176	0x3e449479	0.19197263
177	0x3d37852f	0.04480475
178	0xbc235971	-0.009970055
179	0x01fb4872	9.230679e-38
180	0x3e4beec6	0.19915304
181	0x3d90205e	0.070374236
182	0x3de404ab	0.11133703
183	0xbe59191a	-0.21200982
184	0xbee50ac8	-0.44734788
185	0x3ea8f2a9	0.32997635
186	0xbd9df41b	-0.07712575
187	0xbd6186ba	-0.055060126
188	0xbe6cfee0	-0.23144102
189	0xbb2f50b8	-0.0026750993
190	0x3d196de7	0.037458327
191	0x3e92cb91	0.28670934
192	0x3d89483b	0.0670323
193	0xbe552d4d	-0.20818062
194	0x3c697d2f	0.0142510375
195	0xbdc3e1aa	-0.095645264
196	0x3d4c2de3	0.04984845
197	0x0276ec8c	1.8141111e-37
198	0xbe21f7ad	-0.15817137
199	0x3dfe214a	0.12408693
200	0x3db86fd0	0.090057015
201	0xbd0f896b	-0.03504316
202	0x3e5ffd1e	0.218739
203	0xbcab47ec	-0.020908318
204	0xbf234fcc	-0.63793635
205	0x3bda5d2d	0.0066639394
206	0xbebdb132	-0.37049252
207	0xbc043716	-0.008069774
208	0xbd658a6d	-0.056040216
209	0xbe1e517f	-0.15460776
210	0xbe779df0	-0.24181342
211	0x02a31b60	2.396641e-37
212	0x3d99e020	0.075134516
213	0x3e8bae20	0.27281284
214	0xbd7542df	-0.059878226
215	0x3d8afd18	0.06786555
216	0xbd6cb025	-0.057785172
217	0x3bbb90e4	0.0057240594
218	0xbe823cef	-0.25437114
219	0x3c8850aa	0.016640026
220	0x3dda5351	0.106604226
221	0x3de75321	0.112951525
222	0x3d50b8c4	0.050957456
223	0x3dc0ae31	0.094082244
224	0xbe977769	-0.2958329
225	0xbc30f775	-0.010801186
226	0xbc6ac079	-0.014328116
227	0xbd00b9f1	-0.031427328
228	0x3cf3a3ee	0.029741254
229	0x030e6128	4.184158e-37
230	0x3f0e288c	0.5553062
231	0xbe1b4c28	-0.1516577
232	0xbe209731	-0.15682675
233	0x3edfe51a	0.43729478
234	0xbda21bc9	-0.07915456
235	0x3f0f89f3	0.5606987
236	0xbe3ddb7c	-0.18540758
237	0xbccc26cf	-0.02492085
238	0x3d000602	0.03125573
239	0x3de14823	0.11000087
240	0x3dc35ae7	0.095388226
241	0xbdb9fd5c	-0.090815276
242	0xbd93445f	-0.07190775
243	0x0304536f	3.888709e-37
244	0xbbed5121	-0.0072423373
245	0x3bae018b	0.0053102425
246	0xbc1cbcf0	-0.009566531
247	0x3d6afa2e	0.057367496
248	0xbdb6dc80	-0.08928776
249	0x3d5d4da3	0.05402912
250	0x3b22df9b	0.0024852518
251	0xbd94fdab	-0.07274946
252	0xbd82c837	-0.06385844
253	0x3de2e9d9	0.11079759
254	0x3e2c795c	0.1684317
255	0xbdf27f7d	-0.11840723

fc3.bias f4 [32]
0	0x82a67428	-2.4458178e-37
1	0x3d82b56c	0.0638226
2	0x3df9453b	0.12171408
3	0xbe14e71a	-0.14541283
4	0xbdb68d59	-0.08913679
5	0xbe35d506	-0.17757043
6	0x3d9fe542	0.07807399
7	0xbed21a6c	-0.41035783
8	0xbd96aaf8	-0.073568285
9	0x3cccdaae	0.025006618
10	0xbe4b32bc	-0.19843572
11	0x3db54744	0.088514835
12	0x3dd852cd	0.10562668
13	0x3e56ba50	0.2096951
14	0x3dd0db0a	0.101980284
15	0xbd941c95	-0.07232014
16	0xbe89ea16	-0.26936406
17	0xbe026a2a	-0.12735811
18	0xbdad2f11	-0.08456243
19	0x82bbc1a6	-2.758833e-37
20	0xbdc75ba2	-0.097342744
21	0xbb1d0716	-0.0023960522
22	0x3e1b915a	0.15192166
23	0xba0cdc91	-0.0005373443
24	0x3da845f1	0.08216465
25	0xbd947aae	-0.07249962
26	0xbdd6b3eb	-0.104835354
27	0xbdb75a7f	-0.08952808
28	0xbcb521c5	-0.02211083
29	0x3a2bcd4e	0.0006553725
30	0xbc2356fa	-0.009969467
31	0x82b83c02	-2.7070813e-37

fc4.weight f4 [2, 32]
0	0x82bd8dc4	-2.7852424e-37
1	0x3db0511c	0.086092204
2	0xbea36b0f	-0.31917617
3	0x3e8c006f	0.2734408
4	0x3e4c902f	0.19976877
5	0x3e602023	0.21887259
6	0x3e8f7820	0.28021336
7	0xbc06ae0e	-0.008220209
8	0xbadc046a	-0.0016785983
9	0x3bdcde79	0.006740388
10	0x3ce52b0a	0.027974624
11	0xbf0b6810	-0.5445566
12	0xbdbfbc16	-0.093620464
13	0x3bac762f	0.005263112
14	0xbdd20935	-0.10255662
15	0x3c564579	0.013078087
16	0x3b4b5e23	0.0031031452
17	0x3b025e0c	0.0019892482
18	0xbfaff5c3	-1.3746876
19	0x02bb3c95	2.7511953e-37
20	0x3e6783b9	0.22608842
21	0xbb531889	-0.003221067
22	0xbcbbeb34	-0.022939302
23	0xba446302	-0.000749156
24	0xbdea508a	-0.11441143
25	0xbb10dc27	-0.0022103877
26	0xbe1472be	-0.14496896
27	0xbf5ff4e0	-0.87483025
28	0xbed99455	-0.4249598
29	0xbd159acb	-0.036524575
30	0x3daade2b	0.083431564
31	0x82a3f16c	-2.4089267e-37
32	0x82b5c439	-2.6708186e-37
33	0x3e13536d	0.14387293
34	0x390910fa	0.00013071662
35	0xba5e50ff	-0.0008480697
36	0x39df2627	0.000425623
37	0x3a3ca18f	0.0007195705
38	0xb9bbd08e	-0.00035822805
39	0x3f23347e	0.6375197
40	0xbe29961e	-0.16561171
41	0x3ece820f	0.40333602
42	0x3ef6fad1	0.48238233
43	0x3d026ade	0.031840198
44	0x3987595e	0.0002581579
45	0x3e0e3ea0	0.13891077
46	0x3c8663dd	0.01640504
47	0xbe45e5e3	-0.19325976
48	0xbf0b03b3	-0.5430252
49	0xbe3a6beb	-0.1820523
50	0x3c592532	0.013253497
51	0x82b2291a	-2.617834e-37
52	0x3c0654f7	0.008198968
53	0xbdab5292	-0.083653584
54	0x3d77af90	0.060470164
55	0xbf0ab498	-0.54181814
56	0xbc5ad563	-0.013356539
57	0xbd9f52e8	-0.07779485
58	0xbb5ed547	-0.0034001635
59	0x3ea2c8da	0.31793863
60	0xbcbe39b7	-0.02322088
61	0x3dbe2734	0.09284821
62	0xbca2b1d9	-0.019860195
63	0x02b592bf	2.6679788e-37

fc4.bias f4 [2]
0	0xbc0af5af	-0.008481427
1	0x3c44ced9	0.012012207
