droplet_approximation/models/network_400m_jagged.pth (torch, 13429 bytes, 8 tensors)

fc1.weight f4 [32, 7]
000000 09 3a 09 3f f2 b8 44 be 9c a5 40 3a aa 8e f5 3d
       0.5360418 -0.19211176 0.00073488965 0.11990102
000010 89 ad 81 3c 2a f4 98 b9 9e 37 59 be c5 79 ac 3e
       0.015829818 -0.00029173616 -0.21212623 0.33686653
000020 fc 1d 21 3d bf 34 08 bb 5a 09 0b 3e 41 10 88 bc
       0.039335236 -0.0020783392 0.13577786 -0.016609313
000030 26 1a 69 bb 7b a6 03 bc ee cd bd 3e 1a 94 95 3d
       -0.0035568564 -0.0080352975 0.37071174 0.07303639
000040 b8 47 6f b9 37 5f 33 be d2 05 bd bc 7a 1c 06 ba
       -0.00022819533 -0.1751679 -0.023074064 -0.00051159377
000050 31 0a a5 3d d1 f1 27 bd fb 93 62 3a 6f 27 a8 39
       0.080585845 -0.0410021 0.00086432666 0.00032072837
000060 50 8e 0f 39 67 89 8f 3e 9a 89 2c b9 b0 1b 98 3f
       0.00013690558 0.28034517 -0.00016454459 1.188345
000070 c3 72 12 bf 4c 16 3c 3a 46 4c 81 ba b5 dc a2 3c
       -0.5720636 0.00071749534 -0.000986465 0.019880632
000080 63 fa b2 bd 74 50 8f ba 9a bd 0a bd 95 5a 79 be
       -0.08739164 -0.0010934011 -0.033872224 -0.2435096
000090 10 2f d6 bc 54 aa b9 3a 15 df 35 3d 4f b5 a3 3b
       -0.026145488 0.0014165142 0.0444022 0.004995979
0000a0 86 ee 98 39 63 79 89 3f 0a f7 85 bd 59 3e 84 bb
       0.00029169413 1.0740169 -0.065412596 -0.0040357527
0000b0 98 3f b4 b9 bc b6 08 3c 55 f3 85 3e 25 3f 08 bb
       -0.00034379656 0.0083443485 0.2616221 -0.002078959
0000c0 a9 9d 60 3f bb 4d d4 be 48 92 44 3d b8 40 12 ba
       0.8774057 -0.41465554 0.047991067 -0.0005579102
0000d0 93 8a 6f bc 0f 00 86 ba 8c 13 4e 3a a8 25 08 3f
       -0.014620441 -0.0010223406 0.0007861189 0.5318246
0000e0 75 0b 99 3f e4 ff db bb 0a d5 d3 ba 7d 71 52 bd
       1.1956621 -0.006713854 -0.0016161513 -0.051377762
0000f0 d8 34 65 bd e0 97 8e bb 43 04 84 bd d0 e4 ea 3d
       -0.0559586 -0.004351601 -0.06446125 0.11469424
000100 5f 6c fd 3c e0 fc 2e ba 32 0d 62 ba 0f 43 2c 3b
       0.030935464 -0.00066752546 -0.0008623182 0.0026285087
000110 de 7d dd 3a 43 42 5b 3f 74 1d d5 3c 5b 37 d4 39
       0.0016898473 0.8564798 0.02601502 0.00040477034
000120 8c 59 01 b9 1b e4 ab ba eb 0a ad 3e d4 3d 3a ba
       -0.00012335757 -0.0013114245 0.33797392 -0.000710455
000130 db 93 82 bf b1 3e d8 3e d8 f6 ee bb 21 b9 00 39
       -1.0201372 0.4223533 -0.0072926097 0.00012275997
000140 d2 20 4e bb f1 b3 82 be 0f a4 97 3a f3 fd e8 be
       -0.0031452668 -0.2552791 0.0011569279 -0.45506248
000150 c1 13 9d bc 44 ea ca ba 85 da 2b 3a 78 bb 2e bb
       -0.019174458 -0.0015481194 0.0006555694 -0.0026662033
000160 91 25 89 3d 7a 95 f9 b8 8a bd 61 3e 55 58 79 3a
       0.06696618 -0.000119010874 0.2204496 0.00095117587
000170 df 6e 75 3d dc 83 03 ba 89 c6 52 3e f3 b9 83 38
       0.059920188 -0.0005016902 0.20583548 6.2812025e-05
000180 e5 27 ad bb 9e 9a 1b 3d 1a 0d df 3a be b5 56 ba
       -0.005284297 0.03798925 0.0017017454 -0.0008190534
000190 36 d3 46 ba af f0 bf b9 82 ec 18 bf 88 3c 05 39
       -0.00075845735 -0.00036609682 -0.5973588 0.00012706418
0001a0 3c c2 88 3f ca 51 70 bc 44 dd 7e 3b e0 f6 70 b9
       1.0684276 -0.0146679375 0.0038889209 -0.00022980152
0001b0 2e 14 70 3b 9e a4 23 3f 08 b5 42 39 27 7b d0 3e
       0.0036633122 0.6392306 0.00018568721 0.40718958
0001c0 2b 4d e0 3e 08 c7 12 3d e2 9f f5 38 1f 24 8c bd
       0.43808874 0.035834342 0.00011712291 -0.06842827
0001d0 f2 39 f1 bb fe 07 de b9 4c 47 01 bf c3 1e 30 3e
       -0.007361644 -0.00042349094 -0.50499415 0.17199235
0001e0 33 db f9 ba 02 00 86 ba 36 62 56 bb 8b aa 39 be
       -0.0019062519 -0.0010223391 -0.0032712347 -0.18131463
0001f0 fc f8 92 3a bd cc fd bf fa b1 98 be bb 54 d5 bd
       0.0011213119 -1.9828106 -0.29823285 -0.10416552
000200 27 b9 e7 ba 59 03 02 3e fc b8 93 3c c9 7e 1e ba
       -0.0017679081 0.1269659 0.018032543 -0.0006046114
000210 42 47 10 3e 92 21 8f 3f b0 42 1a bb 90 fa a2 3a
       0.14089683 1.118212 -0.0023538284 0.0012434293
000220 5f 4a 41 bd 7e 9b f5 3c 55 72 04 3a b6 ef 09 be
       -0.047190066 0.029981371 0.0005052437 -0.13470349
000230 e7 d9 a7 3c 22 b3 27 3c 45 cb fc 3b 6a 7c 05 be
       0.020489646 0.01023558 0.0077146613 -0.13035741
000240 e7 e9 a0 bd 96 fb 24 3b df fe ef 3e 64 eb 03 ba
       -0.07857113 0.002517437 0.4687414 -0.00050323294
000250 ec 03 23 ba ad eb c9 3a 85 4f ac 3e 73 c4 08 3b
       -0.0006218541 0.001540532 0.3365442 0.0020869046
000260 7e 45 8f 3b be 2b 39 3a f5 18 d2 3d 4b ee 3f be
       0.004372298 0.0007063708 0.102586664 -0.18743245
000270 45 86 66 3b 17 83 35 3e ba 64 d0 3c 97 e3 6e bb
       0.0035175246 0.17725788 0.025438655 -0.0036451572
000280 21 c7 15 be ea a1 73 3e 36 d6 80 bb 0c d1 ae 3a
       -0.14626743 0.23792234 -0.003931786 0.0013337447
000290 b5 5f 79 bc 79 7e 3f bb c8 16 76 39 01 f1 cd bf
       -0.015220572 -0.002921967 0.00023468875 -1.6089174
0002a0 35 f1 0b 3f 56 ee ab ba 0c fa 15 ba 54 63 b0 bc
       0.5466493 -0.0013117294 -0.0005721159 -0.021531738
0002b0 0e c3 a9 be bf a1 9e ba 90 86 23 bf e9 2b 60 3f
       -0.33156627 -0.0012102647 -0.638772 0.87567
0002c0 89 bf ec bb b0 74 96 3b 60 0b e4 bc e6 ad 84 be
       -0.007224981 0.004591547 -0.027837455 -0.25913924
0002d0 c4 4a 8d 39 cb 95 86 3e 9f 81 c3 3d 4a 83 19 3e
       0.0002694932 0.26286158 0.09546208 0.14991489
0002e0 0d bd 83 3b da c6 10 be 4e c8 a1 bc 30 44 78 ba
       0.0040203393 -0.14138356 -0.019748833 -0.000947061
0002f0 95 c2 c7 bd 0d 38 e0 3c 90 74 20 be b5 50 b6 bb
       -0.097539105 0.027370477 -0.15669465 -0.0055638202
000300 10 37 3c 3b 8b 5a 07 bd e0 22 26 bb 61 0e 70 3e
       0.0028719343 -0.033045333 -0.0025350377 0.23442985
000310 31 29 85 bc d9 9c 60 bc 67 23 3c b9 63 7d 53 be
       -0.016254993 -0.01370927 -0.00017942266 -0.206533
000320 d7 99 07 be 89 88 cf 3b 81 05 c9 bb b3 61 a6 bd
       -0.13242279 0.006333415 -0.0061346893 -0.081241034
000330 3a 02 a6 bb c7 7a 06 bb cc 5f 89 3b 2a 06 00 bf
       -0.0050661834 -0.0020519958 0.004192328 -0.50009406
000340 cd 35 ad 3a fe 72 0b 3f 12 5f 7c 3f 4c 91 7a bb
       0.0013214886 0.5447234 0.98582566 -0.0038233576
000350 16 e3 f6 ba cd ab 2b bd 5e 8f c2 3d 5d 5f 1b ba
       -0.0018835987 -0.04191189 0.09500001 -0.0005926991
000360 72 48 16 be f8 49 1e 3f dd 2c 0d bb 7e 20 b5 ba
       -0.14676073 0.6183162 -0.0021541633 -0.0013818888
000370 0e 91 e1 bc c1 5d 8a 3e b4 e7 2f bb b9 85 bc be
       -0.027534988 0.27024654 -0.0026840987 -0.36820772

fc1.bias f4 [32]
000000 bd 1e 4c be 1a 65 3e bd 9b 73 ca bd 56 ac fd bd
       -0.199336 -0.046483137 -0.09885331 -0.12386386
000010 cb 02 81 be ca 45 13 3e ba 0a 6e be e4 f9 a9 3e
       -0.25197443 0.14382091 -0.2324628 0.33198464
000020 cd 64 e9 3c 30 7d f1 3d a1 a5 4a bd b2 e1 a0 3d
       0.028490448 0.11791456 -0.049474362 0.07855548
000030 76 e9 2a be 35 46 88 3e 4b af 60 3d 4c e0 8a bd
       -0.16690621 0.26616064 0.054854672 -0.067810625
000040 ea bd ce be 88 89 0b 3e 6b 7f 02 3e 16 4f 54 3e
       -0.40379268 0.13626683 0.12743919 0.20733294
000050 af ae 4e 3e 5b 34 ad 3e dc d2 24 be 59 a8 e4 bd
       0.20183824 0.33829007 -0.16096061 -0.11164922
000060 34 10 d6 3e c5 eb b8 be a1 71 44 be f7 d0 4e 3e
       0.41809237 -0.36117378 -0.19183971 0.20196901
000070 de 74 c0 bd 38 f6 6a bd 82 83 a6 3e 3b c2 b4 3e
       -0.09397291 -0.05736372 0.32522207 0.35304436

fc2.weight f4 [32, 32]
000000 1d af 8d bd 80 20 31 3d b3 54 1d 3e 30 9c ab bc
       -0.06918166 0.043243885 0.15364341 -0.0209485
000010 4e 6c a8 82 69 aa f0 3b dd 51 bf bc 0f 12 18 be
       -2.4747545e-37 0.007344533 -0.023354465 -0.14850639
000020 f3 29 d5 3d 72 b3 f3 bd c0 6b a3 3d 77 71 85 3d
       0.10408392 -0.11899461 0.07979536 0.06515782
000030 9e c6 e0 82 82 5e 11 bd 86 41 27 bd 98 48 20 3c
       -3.3027842e-37 -0.03549052 -0.040833972 0.009782933
000040 78 26 b3 3e fa af 80 3d d9 6e 66 bb 33 3d 8f 3d
       0.34990287 0.06283565 -0.0035161285 0.06994095
000050 68 cf a8 bd 9e 7b 03 be 7f 53 ae 3d f5 81 8d 3e
       -0.082426846 -0.12840125 0.08512019 0.27638212
000060 6e 37 18 3d 5e 3e 80 3d 40 69 11 be 6f 91 71 be
       0.037162237 0.062618956 -0.14200306 -0.23590635
000070 d9 80 99 bc 9a 71 a1 ba 36 ff 29 3d 60 c2 2c 3d
       -0.018738197 -0.0012317181 0.041503154 0.042177558
000080 bb 2e 87 be 0a fb 93 3d c1 f9 51 3d ed 78 08 3d
       -0.2640284 0.07225616 0.051263575 0.03331845
000090 95 1b a3 bc e5 ad 2d 3e 83 ef b9 bc 9c a8 60 be
       -0.019910613 0.16960867 -0.022697216 -0.2193932
0000a0 26 4e 13 bd ac 8f 9d bd 72 16 82 3d 89 aa 86 bd
       -0.0359632 -0.07693419 0.06351937 -0.06575496
0000b0 14 fd 98 bb 7e 67 b3 3e 3c b1 0c 3d cf 10 73 3d
       -0.004668841 0.35039896 0.03434871 0.0593422
0000c0 6e 7d c9 3e 39 d3 22 3e c4 9c 43 3e f0 51 34 3d
       0.39353508 0.15900888 0.1910277 0.044023454
0000d0 8b ef 40 be ee ec f8 3e 73 92 fd bc 64 80 1d be
       -0.18841378 0.48618263 -0.030953621 -0.15381008
0000e0 0b 61 84 3d 5e f6 b3 3c e9 9c 8b 3d 99 65 61 be
       0.06463822 0.021968063 0.068170376 -0.22011413
0000f0 bc 1b 29 3d 90 7f 8c 3d 4f 4e 1b 3d 4d a6 15 bb
       0.041286215 0.06860268 0.037916478 -0.0022834719
000100 4c a5 dc 3b 1e da 92 bc be e4 3f b8 a2 11 7b 39
       0.006733572 -0.017926272 -4.575098e-05 0.00023943794
000110 a4 88 16 bd 54 44 33 bd 52 5d 0b bd ec a5 2f be
       -0.036751404 -0.043766335 -0.034024544 -0.17153138
000120 2d e7 90 bd b1 d2 d5 3d 56 c5 ce bd 7f 4d 84 3d
       -0.07075343 0.10440577 -0.100962326 0.06460094
000130 b0 55 40 bd 83 cc 09 3d 81 aa 0d bc 8d 6e 96 3c
       -0.046956718 0.033642303 -0.008646608 0.018363262
000140 75 e0 a7 83 ff 8c 34 be ae 60 f5 bd 01 3c 26 bd
       -9.866911e-37 -0.1763191 -0.11981331 -0.040584568
000150 41 91 88 3d 3c 2d 19 3d 77 e3 5f 3c e6 c7 01 84
       0.0666833 0.037396654 0.013665072 -1.5255666e-36
000160 52 9e 28 be a7 d0 05 bd 68 0f 33 3a 6b 1a 8b 3d
       -0.16466644 -0.03266969 0.0006830604 0.06792148
000170 5a 76 d0 bc df 41 13 bd b5 59 e1 bd 3a 31 e3 3c
       -0.02544706 -0.03595149 -0.110034384 0.027733434
000180 7d fc 82 3e f6 21 f7 3c 6c ef 07 bb 4a c6 be bc
       0.25583258 0.030167561 -0.0020742072 -0.023287911
000190 6c ec a6 82 0e dd cf be 4a e7 65 bd 02 66 84 01
       -2.4527207e-37 -0.4059834 -0.056128778 4.8635516e-38
0001a0 67 81 d0 3d f1 1c fc bd 1b 03 9a 3d 72 4f 54 3d
       0.101809315 -0.12310208 0.075201236 0.051833577
0001b0 8d fd 90 02 0a 86 9c bd cd 0f 70 bd 90 81 92 3c
       2.130443e-37 -0.076427534 -0.05860882 0.017884046
0001c0 af a7 e5 bc 4e 1b 99 3d c4 61 e9 bc 50 ba 6f 3d
       -0.02803406 0.07475911 -0.028489001 0.05852729
0001d0 b9 29 0f be 2e 53 5e bc 2b d9 33 3e 2c 0c c7 3d
       -0.1398076 -0.013569636 0.17563312 0.097191185
0001e0 e6 db 0f bd d1 c3 fd 3d 4c ad 9a ba b0 e3 9f bb
       -0.03512182 0.12390865 -0.0011800914 -0.0048794374
0001f0 fc 56 34 bc a4 8c 3d ba d6 12 6a 3c 5c ac 1d 3c
       -0.011007067 -0.0007230735 0.014286717 0.009623613
000200 c5 ab 0a bd c7 ea bc ba 72 90 d8 ba c9 38 15 3d
       -0.03385522 -0.0014413231 -0.001652254 0.036431108
000210 32 73 f5 bc d0 4f 28 bd fe 86 b1 3b ee e5 5b 3d
       -0.029962156 -0.04109174 0.0054177037 0.053686075
000220 fc 0d 89 ba 28 e2 fa bc a5 ef 69 bb ac 30 b9 3b
       -0.0010456438 -0.030625418 -0.0035695818 0.005651554
000230 b3 62 fc 3a a4 0f ad bd a5 99 b2 bc d6 1e 53 3d
       0.0019255489 -0.08450249 -0.021801779 0.05154308
000240 68 5d 89 bd 6f e8 cc bc 73 50 6b 3b 54 04 4d 3c
       -0.06707269 -0.025013177 0.0035906106 0.012513239
000250 17 dc 52 3b 46 18 c8 bd fd 36 d7 38 f9 31 b3 bd
       0.003217464 -0.09770255 0.00010262241 -0.08749766
000260 e2 25 89 3a 91 02 d1 3b 0f f8 0f 3d 90 6d 99 bc
       0.001046356 0.00637848 0.035148676 -0.018729001
000270 c3 29 58 3b 23 03 65 3c 49 88 b7 3b e2 3a 56 3c
       0.0032983876 0.013977799 0.0056009633 0.013075562
000280 22 d1 29 bd a3 2f 31 bc ff 1c 98 bb fb b6 53 bd
       -0.04145921 -0.01081458 -0.0046421285 -0.051688176
000290 8e 60 a8 bd c1 f6 1f be f5 41 28 be 20 bc 3e be
       -0.08221541 -0.15621473 -0.1643141 -0.18626451
0002a0 38 38 3b be 79 65 64 b8 ea 3f 39 3d e5 f5 ca 3d
       -0.18283165 -5.445394e-05 0.04522697 0.09910182
0002b0 e4 c0 a7 82 5a f2 55 3c 14 02 35 bd 68 4c a1 bd
       -2.4649158e-37 0.013058269 -0.044191435 -0.078759015
0002c0 e5 02 22 3c a5 9d df 3c 24 20 c7 bd 2e 94 50 be
       0.009888385 0.02729685 -0.09722927 -0.20369026
0002d0 db a8 1e bb 61 f1 12 3d fb 75 7b bb aa 73 a9 3c
       -0.0024209532 0.035874728 -0.0038369882 0.020685036
0002e0 68 db 4b 3e 7b 9a aa bc 36 60 b0 bb ed ea 7c 3d
       0.19907916 -0.020825615 -0.005382563 0.06174748
0002f0 8e c6 89 3c c7 0c d9 bd 3a 26 a6 bb 28 e6 1e 3e
       0.016818311 -0.1059814 -0.005070475 0.15517485
000300 79 d5 b5 3c 53 4a 3b bd 07 e0 19 3d 95 66 31 bc
       0.022196518 -0.045725178 0.037567165 -0.01082768
000310 bd 4a e9 bc b1 09 15 bd 54 2a b0 bc 8c ed 43 3d
       -0.02847802 -0.036386196 -0.021504559 0.047833964
000320 84 7b 99 bd e4 81 bc 3d 9a 46 61 bd 2d 0b c9 bd
       -0.07494262 0.09204462 -0.05499897 -0.09816585
000330 4d f3 c9 bc 5d 5d e9 39 cd 41 22 bd 97 7f 7b bd
       -0.024652148 0.00044510784 -0.039613534 -0.061400976
000340 2c 35 90 bc b2 43 03 3e ff 3a 78 bd 02 bd 52 bd
       -0.01760348 0.12818792 -0.060603138 -0.051449783
000350 0e 01 e8 3c 44 92 0b bd 3a 62 b0 bc a3 7b 99 3c
       0.028320815 -0.034075037 -0.021531213 0.018735712
000360 7d a7 68 3d 3c 9b 36 bd 8a ac be bc 9b f4 31 3d
       0.056800354 -0.044581637 -0.023275632 0.043446165
000370 af cf 58 3e f9 7c 36 bd 35 f3 d5 3c f8 32 be 3c
       0.21172975 -0.044552777 0.026116947 0.023217663
000380 97 e5 97 bb 98 cd 0f bd be 74 56 bd 64 6f 7e be
       -0.0046355235 -0.03510818 -0.052357428 -0.2484718
000390 78 e4 19 be ae 00 af 3d 82 66 3a be 59 1c 0d 3e
       -0.1502856 0.085450515 -0.18203166 0.13780345
0003a0 33 8a 85 be f7 ca 30 bd fd 90 78 3d 57 77 a5 bd
       -0.26082 -0.043162312 0.060685147 -0.08079403
0003b0 2e 5c c5 3d 2c 9e f7 bb fe 5b 69 3e 13 47 0d be
       0.096367225 -0.0075566974 0.22788998 -0.13796644
0003c0 9a 9a 88 82 90 35 a7 be 36 fa a7 3c c3 b1 39 be
       -2.007214e-37 -0.32658052 0.020505052 -0.18134217
0003d0 f7 27 bc 3b 29 ef b9 ba 93 20 9a bc 7e 45 20 80
       0.005742069 -0.0014185655 -0.01881436 -2.963665e-39
0003e0 fd 6e 8a be 61 93 6a be b5 d2 f8 3b 08 aa a8 37
       -0.27037802 -0.22907783 0.0075934776 2.0106338e-05
0003f0 d5 94 20 bd d3 a0 3e 3e 52 b9 01 be 11 1a 20 be
       -0.039204437 0.18616037 -0.1266835 -0.15634944

fc2.bias f4 [32]
000000 7a 2f 79 be 0c 96 13 3e fb 51 fe 3d 71 3d 94 be
       -0.24334517 0.14412707 0.1241798 -0.28953126
000010 be 3f 81 3b 42 31 f2 3d 93 11 94 3d 3f 6f 32 bb
       0.0039443662 0.118258014 0.072299145 -0.0027226952
000020 fe 9a 99 82 98 73 9e bc c0 0a f5 82 47 1d 42 3e
       -2.257029e-37 -0.019342229 -3.6005685e-37 0.18956481
000030 bb b6 47 3d b6 37 39 83 d1 e9 d0 bc 98 b9 98 3d
       0.04875825 -5.4430567e-37 -0.025502117 0.07457274
000040 ce 24 dd bb 31 c8 a6 3d 78 93 4b 3d 2a 91 bb bd
       -0.006748772 0.08143652 0.049701184 -0.09158547
000050 33 b6 3a bd 78 f6 f2 bd 13 eb da bd 1a c9 43 bd
       -0.045583915 -0.118634164 -0.10689368 -0.047799207
000060 64 89 fa bc 58 ca c9 bb b4 ff f2 bc 07 b8 35 3e
       -0.030583091 -0.0061581545 -0.029662944 0.17745982
000070 80 25 c0 bd 2e a9 e4 3d 21 5f 79 bc de 2d 8f be
       -0.093821526 0.11165081 -0.015220434 -0.2796468

fc3.weight f4 [32, 32]
000000 1b 93 4a 3e 74 3a ad 3e 5e fe 91 ba af 16 34 be
       0.19782679 0.3383366 -0.0011138429 -0.17586778
000010 d3 c7 b1 bc 9b 24 ed bc 41 e9 5a bd 2d 91 15 bc
       -0.021701729 -0.028948119 -0.053445105 -0.009128851
000020 58 a6 84 82 25 2f 3d 3d d2 aa ab 82 69 7e 3a be
       -1.9491133e-37 0.04618754 -2.5224238e-37 -0.18212284
000030 e8 d3 96 bd f9 d9 2f 03 15 ea 80 be 77 a4 8f 3c
       -0.07364637 5.16781e-37 -0.2517859 0.017534478
000040 30 cb 49 3d b6 ca ac 3e da 93 bb 3d de b6 0a 3c
       0.04926604 0.33748406 0.0915906 0.0084664505
000050 ae 8b 02 3c d0 d4 c0 3e 38 a5 08 bc 1b c7 6b 3c
       0.007967873 0.37662363 -0.0083401725 0.014390732
000060 03 cb 7e 3c bf ec 7e 3d e9 44 ee bb e2 0c f7 bd
       0.015551331 0.062237497 -0.0072713983 -0.12063004
000070 96 e8 a4 be 92 26 b8 bb 00 df 93 bc 0d f7 9f 3c
       -0.322087 -0.0056198323 -0.01805067 0.019526983
000080 2b 03 5f be 54 44 68 be 6b 19 18 3b b2 f3 45 3e
       -0.21778552 -0.22682315 0.002320851 0.19331244
000090 15 a6 c4 3c 2a 06 cf 3c f4 28 b8 3d 5a dd 35 3d
       0.024004975 0.025271494 0.08992186 0.04440055
0000a0 86 80 f4 80 40 e6 28 bd 81 db cd 02 92 11 8c 3e
       -2.2453967e-38 -0.04123521 3.0248032e-37 0.27357155
0000b0 59 e1 ac 3d 2c d7 9a 01 10 0b 8e 3e 41 da cf 3c
       0.08441419 5.687942e-38 0.27742815 0.025372626
0000c0 0a 78 f9 bc 3a 4c 90 be be 2d d9 bc de dd 43 3c
       -0.030452747 -0.28183156 -0.02651107 0.011954753
0000d0 da 7d b8 3c c9 00 d4 be d7 9a 3c 3d 56 de 33 3b
       0.022520948 -0.4140685 0.046046104 0.0027445755
0000e0 2d c2 ca bc 4b b3 01 bd c8 cc 28 3c 6f ed 59 3e
       -0.024750793 -0.031665128 0.01030273 0.2128198
0000f0 8d 00 b6 3e 68 70 02 3d 97 aa 81 3c 60 55 93 3b
       0.35547295 0.03184548 0.015828414 0.0044962615
000100 64 9c bc 82 af 08 af 82 d0 f3 af 82 a8 26 bd 02
       -2.771388e-37 -2.5718923e-37 -2.585388e-37 2.7793242e-37
000110 c8 d7 a8 82 18 25 b0 82 d2 ff c4 82 10 e2 a7 82
       -2.4809234e-37 -2.5882166e-37 -2.8946445e-37 -2.4668198e-37
000120 9b 68 b5 82 b8 f9 ae 82 e1 88 4f 03 39 51 ba 02
       -2.66556e-37 -2.5710334e-37 6.098896e-37 2.7376863e-37
000130 8f 8b ae 02 d3 e0 bd 82 cd 41 d4 82 50 8e ab 82
       2.5647105e-37 -2.7900097e-37 -3.1188368e-37 -2.5207875e-37
000140 fa 80 ae 82 7d 18 af 82 e5 f9 bb 82 0f 8a b2 82
       -2.564103e-37 -2.5727995e-37 -2.7620613e-37 -2.623399e-37
000150 de a7 b1 82 92 af c5 82 6e 6b b8 82 3c 21 a7 82
       -2.6104164e-37 -2.904732e-37 -2.7098032e-37 -2.455752e-37
000160 f2 d5 0e 83 37 41 a8 82 87 ea 0e 81 76 45 aa 82
       -4.1975647e-37 -2.4722813e-37 -2.6249546e-38 -2.5019124e-37
000170 9f 01 89 02 cf f3 b9 82 1b 6a a7 82 85 8f bf 82
       2.0131271e-37 -2.7323246e-37 -2.4599346e-37 -2.8147304e-37
000180 ef 7f ae bd f9 19 f8 3c 01 35 08 3e c7 0a ab 3d
       -0.08520495 0.030285822 0.1330147 0.08351665
000190 67 ac fe 3a fc 7d bb bc e6 0e 0a bd 29 24 90 be
       0.0019430042 -0.022887222 -0.033705615 -0.28152588
0001a0 be f2 89 02 f0 d7 a3 bd 83 07 89 82 96 cf eb bb
       2.0269668e-37 -0.08000171 -2.0134652e-37 -0.007196377
0001b0 ab 6b a5 3d 8a 67 a8 02 91 39 d7 3d 96 0b b0 bd
       0.08077177 2.474481e-37 0.10509027 -0.0859596
0001c0 d0 16 86 3c 70 b4 69 bd 33 e2 6c 3e 50 2c e1 be
       0.0163683 -0.057056844 0.23133163 -0.4397912
0001d0 08 60 33 3e 96 19 2b be 1c b5 1d bf 88 4d b2 3d
       0.17517102 -0.16708979 -0.61604476 0.08706194
0001e0 58 4f a1 3d 40 7e cf bc 0e 1f a0 bd d4 e3 2c 3e
       0.07876462 -0.025328755 -0.07818423 0.16883785
0001f0 c0 39 01 3e 7c db 9a bd 5a 83 50 3d 07 7a 8e bf
       0.12619686 -0.075613946 0.050906517 -1.113099
000200 d2 6e ac 82 88 cc ad 82 e4 ab 94 82 ce 2f a2 82
       -2.5336736e-37 -2.553746e-37 -2.1845306e-37 -2.38312e-37
000210 6a b7 72 82 5d fb 23 01 bc ca a9 82 36 73 9e 82
       -1.7831989e-37 3.0118716e-38 -2.4948682e-37 -2.3282141e-37
000220 1a 0d a7 82 e0 1a ac 82 c4 30 57 82 d5 18 b8 82
       -2.4545965e-37 -2.5288554e-37 -1.58097e-37 -2.7050623e-37
000230 4d 07 b0 82 a8 38 b0 82 38 56 51 82 ab e7 a4 82
       -2.5865066e-37 -2.5893395e-37 -1.5379639e-37 -2.4230605e-37
000240 75 81 7a 82 fe cb aa 82 cf 0e a2 82 72 df 9f 82
       -1.8404252e-37 -2.509634e-37 -2.381226e-37 -2.3491202e-37
000250 ea 94 9a 82 78 58 99 01 1c 16 a1 82 66 e9 96 82
       -2.2713739e-37 5.633027e-38 -2.3669514e-37 -2.2174483e-37
000260 45 06 27 83 93 d8 91 82 0e 17 02 83 dd bb ab 82
       -4.9084086e-37 -2.1430143e-37 -3.823003e-37 -2.523402e-37
000270 4b af 4d 83 56 5f 9d 82 c9 27 b6 82 8a a2 9b 82
       -6.044531e-37 -2.3123797e-37 -2.6765332e-37 -2.2868496e-37
000280 9c a2 f2 bc 23 bf 0a be fb 45 15 04 2d 25 85 3e
       -0.029618554 -0.13549475 1.7547e-36 0.26004925
000290 b5 69 43 bd 81 08 35 3d a6 56 9b 3c e6 29 e4 03
       -0.047708232 0.044197563 0.018962216 1.3410255e-36
0002a0 40 8e 24 03 32 24 b1 bc 75 e5 d9 02 c5 97 6e be
       4.8358563e-37 -0.021623705 3.2016986e-37 -0.23300083
0002b0 c2 c5 2d 3f 3b e8 a5 82 03 3d 1b 3e 65 72 40 82
       0.6787988 -2.4377865e-37 0.15159993 -1.4138762e-37
0002c0 0a 2b 4c 83 dd 94 fb be 70 0c d9 3d fa 59 64 82
       -5.999962e-37 -0.4913701 0.105980754 -1.6776617e-37
0002d0 e2 23 0c 02 a8 62 b9 3d 9c 96 bc 82 7d d6 51 3c
       1.0295873e-37 0.0905202 -2.7710563e-37 0.012807486
0002e0 56 df 68 01 4b 55 93 3d 6f eb 5f 03 01 c8 b1 3d
       4.2771906e-38 0.07194003 6.5804075e-37 0.08680726
0002f0 58 bd e5 3e dc 13 9a 83 e2 27 01 be e4 9e 94 82
       0.4487102 -9.055866e-37 -0.1261287 -2.1837844e-37
000300 99 77 61 82 dc ec 81 82 c7 07 3d 82 10 a9 09 03
       -1.6564712e-37 -1.9090797e-37 -1.3887759e-37 4.0454756e-37
000310 73 d9 93 82 3c 9b 8f 82 88 da 94 82 44 05 65 02
       -2.1724518e-37 -2.1101062e-37 -2.1872076e-37 1.6825774e-37
000320 2b b7 7b 82 ad d7 65 03 04 c2 2f 00 cc ae 90 82
       -1.8493134e-37 6.7544635e-37 4.385868e-39 -2.1259227e-37
000330 01 71 75 82 61 22 9d 82 9e 0d 0c 81 a4 fe 6b 81
       -1.8032188e-37 -2.308881e-37 -2.572371e-38 -4.334538e-38
000340 bc e9 15 83 f4 84 1e 82 7f 15 a0 82 e8 59 08 82
       -4.405548e-37 -1.1646162e-37 -2.3522225e-37 -1.0017504e-37
000350 86 cd 76 82 84 5d 2b 02 86 dc 26 83 43 87 9a 82
       -1.8132208e-37 1.2589934e-37 -4.9036164e-37 -2.2705903e-37
000360 90 2a 7e 02 c1 d1 a2 82 42 62 3d 03 da e8 4b 82
       1.8673188e-37 -2.3924153e-37 5.5654903e-37 -1.498091e-37
000370 c4 3c 06 81 4c 6f 8c 82 f6 91 90 82 fb 30 40 03
       -2.465551e-38 -2.0635032e-37 -2.1242676e-37 5.6479956e-37
000380 a3 7e aa 02 23 1a c8 3c 4c 44 51 be 3f d2 b7 84
       2.505194e-37 0.024426525 -0.2043621 -4.3216174e-36
000390 51 38 ba 3d 51 f4 ee be 53 07 0e bd 1e 42 0f 3e
       0.09092773 -0.46670774 -0.034674954 0.13990065
0003a0 49 8b 8a 82 17 ed dd 3b 55 6c 09 02 cf 2f e0 bb
       -2.0357223e-37 0.006772648 1.009626e-37 -0.0068416367
0003b0 29 23 26 3f c6 d7 85 81 2b 4b f3 bb da 43 9f 3e
       0.648974 -4.9166104e-38 -0.007424732 0.31106454
0003c0 eb 82 53 be e3 d3 aa 3d 39 00 50 be bd f6 95 3d
       -0.2065541 0.083411954 -0.20312585 0.07322452
0003d0 83 13 75 be da 68 a7 82 e2 ce 92 3e 1e 81 2e be
       -0.23933224 -2.4598626e-37 0.28673464 -0.17041442
0003e0 4e b8 1b be 67 42 a8 be 8f e6 09 3b fb 96 ad 3d
       -0.15207025 -0.3286316 0.0021041965 0.08476063
0003f0 94 9d b7 84 41 c0 61 bc bc 5f 23 bd 91 a8 b2 3e
       -4.3167806e-36 -0.013778747 -0.03988622 0.3489423

fc3.bias f4 [32]
000000 f0 96 79 3d cc 1d 40 3e e9 f2 ae 82 9c 89 53 3d
       0.06093496 0.18761367 -2.5706426e-37 0.051644906
000010 69 a2 a3 82 22 7c a6 bd 7c a6 ad 82 c7 8f a1 3d
       -2.4043916e-37 -0.08129145 -2.5515623e-37 0.078887515
000020 08 57 94 82 90 36 84 3d b5 6f 88 3d fd 75 a2 3c
       -2.17966e-37 0.064557195 0.066619314 0.019831652
000030 db 61 07 3e 77 e7 ad 82 6c 76 90 3d 32 d3 32 3e
       0.13220923 -2.555292e-37 0.07053837 0.17463377
000040 77 52 9d 82 66 18 a3 82 df 50 e7 82 1c 8a 61 3e
       -2.311641e-37 -2.3964701e-37 -3.3988817e-37 0.22025341
000050 3a 6a c5 3d 92 23 c1 bd 1e fa a5 82 af fd 65 3e
       0.09639402 -0.094306126 -2.4388131e-37 0.22460054
000060 88 0e 4e 3d 77 51 04 3e 1e 99 8d 3d c4 a2 03 3e
       0.050306827 0.12921701 0.069139704 0.12855059
000070 40 c5 e8 3c cd 17 9a bc 00 25 9d 3c 7a c8 9b 82
       0.028414369 -0.018810177 0.019182682 -2.289027e-37

fc4.weight f4 [2, 32]
000000 20 c3 d9 3d 98 24 36 be 9c fa bd 82 9d 8a 97 3f
       0.1063292 -0.17787397 -2.7914897e-37 1.1839176
000010 a0 78 d2 82 74 a5 ab 3c 84 38 a6 82 61 cf 7c bf
       -3.0925962e-37 0.020952918 -2.4423946e-37 -0.98753935
000020 32 32 93 82 eb 33 26 bd e0 fa ab 3d 5d c0 0d 3f
       -2.162852e-37 -0.040576857 0.0839746 0.5537165
000030 45 90 72 b9 d8 8f ba 82 65 4a 92 3f 24 d2 3e be
       -0.00023132663 -2.7412806e-37 1.1428953 -0.1863485
000040 02 fb 9c 02 a6 68 ac 02 e5 b0 72 02 db 56 aa be
       2.3066211e-37 2.5333194e-37 1.7830118e-37 -0.3326939
000050 03 03 48 bd e5 2e 32 3f dc fe bf 02 ad 47 c6 be
       -0.048830997 0.69602805 2.821121e-37 -0.3872656
000060 c2 b5 a9 3c 0b 2e 7d bc e5 d6 59 3f c0 99 7e bb
       0.020716552 -0.015452872 0.8509353 -0.0038848966
000070 ab 51 bc bb 61 1b f8 3e 59 3c 58 3f 37 b9 bc 82
       -0.0057470403 0.48458388 0.84467083 -2.7730425e-37
000080 d2 d2 43 3f 98 3c 56 bf 0a 27 d2 02 7f 6c d4 be
       0.7649356 -0.8368621 3.0879134e-37 -0.41489026
000090 66 2f c5 02 88 17 88 bf 12 0f b7 82 58 cb 8b 3d
       2.8973754e-37 -1.0632181 -2.6898083e-37 0.06825894
0000a0 f8 fd b1 82 a4 35 36 3f ed 32 8c bf ce 8a 90 3a
       -2.6153583e-37 0.711756 -1.0953041 0.0011027695
0000b0 06 44 27 bf 26 42 ce 02 16 63 16 bd 38 06 45 bf
       -0.6533817 3.0306947e-37 -0.03671559 -0.76962614
0000c0 83 59 bb 82 90 8a ae 82 b2 34 08 82 1a f0 22 3f
       -2.7528558e-37 -2.5646533e-37 -1.0006825e-37 0.63647616
0000d0 a8 8f 3d 3f 6b 5c 1e 3d 86 0f a1 82 a8 ed de be
       0.7404733 0.038662355 -2.3665734e-37 -0.43540692
0000e0 46 8a f7 be 08 70 00 bf 0b c0 40 3f 73 60 32 bf
       -0.48347682 -0.50170946 0.75293034 -0.6967842
0000f0 b9 9f 52 3e ae 32 fc bd be a6 43 bf cc b2 be 02
       0.20568742 -0.12314354 -0.76426303 2.8020615e-37

fc4.bias f4 [2]
000000 47 d9 c5 be 99 13 a5 3d
       -0.38642332 0.080603786
