droplet_approximation/models/network_box_residual_l1_epoch_14.pt (torch, 14139 bytes, 8 tensors)

fc1.weight f4 [32, 7]
0	0xbd1e9158	-0.03871283
1	0xbd3b41fc	-0.045717224
2	0x381f3df6	3.796626e-05
3	0xbba256b8	-0.0049541853
4	0xbe3e9320	-0.18610811
5	0x3a4bfed5	0.00077818084
6	0x3d4b539d	0.049640287
7	0xbee5a580	-0.4485283
8	0xbe516c3e	-0.20451447
9	0x390099ad	0.0001226428
10	0x3e619600	0.22029877
11	0xbc887203	-0.016655928
12	0x3979a1cd	0.00023806766
13	0x3f3ffad2	0.74992096
14	0xbd20da68	-0.03927079
15	0x3ad82ef0	0.0016493481
16	0xb84fefb9	-4.9575905e-05
17	0xbaaa55a0	-0.0012995489
18	0xbbb14f28	-0.0054110475
19	0x38d8f0b8	0.0001034452
20	0xc01913c9	-2.3918326
21	0xbc2ece36	-0.010669282
22	0xbd10be83	-0.035337936
23	0x38a1b311	7.710432e-05
24	0xbe02f9e2	-0.12790635
25	0x3f07394f	0.5282182
26	0x3b3a20d9	0.0028400926
27	0x3c648b15	0.013949175
28	0xbcfbf136	-0.030754667
29	0x3f167363	0.58769816
30	0xb9f1ac0d	-0.0004609529
31	0xbf039e0d	-0.5141304
32	0xbd6d70c9	-0.05796889
33	0xba356d2a	-0.0006920869
34	0x3efe41e1	0.49659637
35	0xbf052461	-0.52008635
36	0x3c161922	0.009161266
37	0xb9d296de	-0.00040166726
38	0x3c3885de	0.011262385
39	0x3ec493f0	0.38394117
40	0x3a902a4b	0.0010998932
41	0x3f819b18	1.0125456
42	0xbcdb493b	-0.026768317
43	0x3efed618	0.49772716
44	0x39bd5b04	0.000361167
45	0xbf09f348	-0.5388684
46	0xbc8b6d58	-0.017019913
47	0x3905e877	0.00012770468
48	0xbe971384	-0.29507077
49	0xbe65e4c9	-0.22450556
50	0xbf13ba52	-0.5770618
51	0x3a0fba6a	0.0005482795
52	0x3f12516a	0.5715548
53	0xbe542eb1	-0.20720936
54	0xb9b0d6e4	-0.00033729442
55	0xbe6fbf01	-0.23412706
56	0xbefee0d6	-0.4978091
57	0x3afee823	0.0019447844
58	0xb770d49b	-1.4354616e-05
59	0x3c0e16c9	0.008672425
60	0xbe8505e6	-0.25981063
61	0x3a0fb3a8	0.0005481788
62	0x3f286ba7	0.65789264
63	0x3eaefbdd	0.3417653
64	0xbea54aef	-0.32283732
65	0xb999510d	-0.00029242822
66	0x3e6abcb4	0.22923547
67	0x3cefc53d	0.029268855
68	0x3aba70c1	0.0014224277
69	0xbeec5d7e	-0.4616508
70	0x3f80892a	1.0041859
71	0x3cfb19da	0.030651975
72	0xb940571d	-0.00018342999
73	0xbd714701	-0.058905605
74	0xbe9b82f5	-0.3037335
75	0xba370f48	-0.0006983173
76	0xbf9ca899	-1.2238952
77	0x3d10431b	0.035220247
78	0xbea0ff4d	-0.3144478
79	0x3839a3bb	4.4259923e-05
80	0x3ecad987	0.39619085
81	0x3e849453	0.25894412
82	0xbaacae55	-0.0013174514
83	0xbdeec9ac	-0.116595596
84	0xbe045ea0	-0.12926722
85	0x3cd59054	0.026069798
86	0x38f0c610	0.00011480984
87	0x3d2c1bb4	0.042018607
88	0xbe4c95bb	-0.19978993
89	0xba8e0b2e	-0.0010837072
90	0x3e0753c0	0.13215542
91	0xbbbf9a78	-0.0058472715
92	0xbf1ccf69	-0.6125398
93	0xb94e61fb	-0.00019682191
94	0x3f1e96f4	0.61949086
95	0x3c167238	0.009182505
96	0x390480a3	0.00012636422
97	0x3de5724c	0.11203441
98	0xbbdd66a8	-0.0067566223
99	0xbeefa57c	-0.46805942
100	0xba03c750	-0.00050269533
101	0x3edc4c43	0.43026933
102	0xbbbda94d	-0.0057880045
103	0x3a9038e4	0.0011003283
104	0x3f64b628	0.8934045
105	0x3e03c8eb	0.12869613
106	0x3f1bebfa	0.60906947
107	0xb955bda0	-0.00020383904
108	0xbf200586	-0.6250843
109	0xbd4faa82	-0.05069972
110	0x39cee69d	0.00039463202
111	0xbdfaf946	-0.122545764
112	0xbe56bc26	-0.2097021
113	0x3ca46922	0.020069662
114	0xba2e3973	-0.0006646134
115	0xbc8b57ec	-0.017009698
116	0xbec80775	-0.3906819
117	0x3a6ea51a	0.00091035815
118	0x3f47ec33	0.78094786
119	0xbf2966fb	-0.6617276
120	0x3c05058d	0.008118999
121	0x38ecb68d	0.0001128736
122	0x3c3c3833	0.011488008
123	0x3c4182eb	0.011810998
124	0x3a005a68	0.0004896284
125	0x3f62360b	0.88363713
126	0x3e70e888	0.23526204
127	0xbe32298f	-0.17398666
128	0x3904643e	0.00012625844
129	0x3c4b4a38	0.012407832
130	0xbe468b9e	-0.19389197
131	0x3b117b9f	0.0022198928
132	0xbec6f323	-0.38857374
133	0x3c537b60	0.012907833
134	0x3ec43040	0.38318062
135	0xba608999	-0.00085654255
136	0xbec6d63b	-0.3883532
137	0xbc1aae63	-0.009440991
138	0x3aa6ac9b	0.0012716235
139	0x3f87d851	1.061289
140	0x3d813b40	0.06310129
141	0x3f46186d	0.7738102
142	0x37c85017	2.3879153e-05
143	0xbf4a1d7a	-0.7895123
144	0xbe5e841b	-0.21730082
145	0x38a13ea7	7.688748e-05
146	0x3d9c62b1	0.076360114
147	0xbf3fcce9	-0.74922043
148	0x3eb89db9	0.36057833
149	0x3a87fb0c	0.00103745
150	0xbebc9c61	-0.36838058
151	0x3e802dcc	0.2503494
152	0xb895a311	-7.135247e-05
153	0xbe5eef76	-0.21771035
154	0xbf08d8ef	-0.53456014
155	0x3c469693	0.012120861
156	0xb7e42cd3	-2.7200591e-05
157	0x3b6400a3	0.0034790419
158	0xbcf45a8f	-0.029828338
159	0x3a254653	0.00063047296
160	0x3f4657ee	0.7747792
161	0x3e116c66	0.14201507
162	0xbf24817f	-0.64260095
163	0x397bc9a7	0.00024012347
164	0x3f21db70	0.6322546
165	0x3ccfccf6	0.025366288
166	0xb9848991	-0.00025279497
167	0x3d354eee	0.044264726
168	0xbf01f6cf	-0.50767225
169	0xbc32a39f	-0.010903268
170	0x38b6a622	8.709381e-05
171	0x3cdeeba5	0.027211973
172	0xbd9d2200	-0.076725006
173	0x39cb199d	0.0003873826
174	0x3f084dbf	0.5324363
175	0x3cbfb49d	0.023401553
176	0xb8ecb9a7	-0.000112879374
177	0x39b36bee	0.00034221954
178	0xba3f1cf1	-0.00072903844
179	0x3c9fefd9	0.019523548
180	0xb9fda9e0	-0.00048382487
181	0x3faf92e7	1.3716706
182	0xbf541337	-0.8284182
183	0x3c4391cd	0.011936617
184	0x38986bea	7.2680254e-05
185	0x3be3d8f2	0.006953352
186	0xbe6c68bf	-0.23086832
187	0x3a406b9b	0.0007340253
188	0x3f8300ef	1.023466
189	0xbd5c9378	-0.053851575
190	0x3f28c0d8	0.65919256
191	0x3924e94c	0.00015727169
192	0xbf2bb501	-0.67073065
193	0xbe4bb12a	-0.19891801
194	0x38f564d9	0.00011701295
195	0x3e96ff11	0.29491475
196	0xbd4df193	-0.05027921
197	0xbb9bd79a	-0.0047559263
198	0x39151f35	0.00014221373
199	0x3bcd6084	0.006267609
200	0x3c2f239f	0.010689645
201	0xb922b35d	-0.00015516342
202	0xbfc54770	-1.5412426
203	0x3f4fc12c	0.8115413
204	0xbec78091	-0.38965276
205	0xba92ab96	-0.0011190053
206	0x3ecbcd32	0.3980499
207	0xbe8ac47b	-0.27103028
208	0x38985b95	7.264983e-05
209	0x3e7050b0	0.2346828
210	0x3e6a103d	0.22857757
211	0x3f1cb3f3	0.6121208
212	0xba0554ff	-0.0005086213
213	0xbf1b9b46	-0.60783803
214	0x3e565acb	0.20933072
215	0x39bf32d8	0.0003646824
216	0x3e76df41	0.24108602
217	0xbe11e88f	-0.1424887
218	0x3d099b97	0.033595648
219	0x39a73802	0.0003189445
220	0xbdc8da65	-0.098072805
221	0x3de5a9f9	0.1121406
222	0x3a5711dd	0.0008204261
223	0x3e3b8275	0.18311484

fc1.bias f4 [32]
0	0xbd8d1349	-0.06888444
1	0x3e273cbb	0.1633176
2	0x3e107213	0.14106016
3	0x3da1cbd7	0.079002075
4	0x3e21bf43	0.15795617
5	0x3d4ef2cc	0.050524518
6	0x3e08d5b1	0.13362767
7	0xbe4c0139	-0.19922341
8	0xbf10d4c3	-0.5657465
9	0x3e00971b	0.12557642
10	0xbd510693	-0.05103166
11	0x3e7bb159	0.24579372
12	0xbe822665	-0.25419918
13	0x3ddfd43a	0.10929151
14	0x3d21f510	0.03954035
15	0x3e820d96	0.2540099
16	0xbf1872d0	-0.5955019
17	0xbe89038d	-0.26760522
18	0xbe82e3ad	-0.25564328
19	0xbc911c83	-0.01771379
20	0x3bf4a1e9	0.0074655903
21	0xbe9602de	-0.29299062
22	0xbde878bc	-0.11351153
23	0x3e95374a	0.29143745
24	0xbea9a3aa	-0.33132678
25	0xbdf62778	-0.12019247
26	0xbf5835d3	-0.8445713
27	0x3e3144c7	0.17311393
28	0x3e24f76a	0.16110006
29	0x3ea2ac34	0.31772006
30	0x3e4d36ab	0.20040385
31	0x3e165e83	0.14684491

fc2.weight f4 [32, 32]
0	0x3d565e8e	0.052336268
1	0x3ddf1793	0.10893168
2	0xbede286e	-0.4339022
3	0x3d85cc95	0.065331616
4	0x3d5e7935	0.05431481
5	0xbc2010ee	-0.009769661
6	0xbde0f885	-0.10984901
7	0x3d3a0f87	0.045424964
8	0x3e4c5744	0.19955164
9	0xbe2655b2	-0.16243628
10	0xbe3170ca	-0.17328182
11	0xbd907db4	-0.07055226
12	0x3e8ff62e	0.28117508
13	0xbe05508c	-0.13019007
14	0x3deea741	0.11652995
15	0xbe523f3a	-0.20531932
16	0x3e915bf0	0.28390455
17	0xbc74159f	-0.014897733
18	0xbd89b6eb	-0.06724342
19	0x3eadbe13	0.33934078
20	0xb9e85c93	-0.0004431946
21	0xbe4508b6	-0.19241604
22	0x3d06595b	0.03280006
23	0x3bab48c8	0.005227182
24	0x3e4538bb	0.19259922
25	0xbe510c1c	-0.20414776
26	0x3d83f78e	0.06443702
27	0xbd3c5ad2	-0.04598505
28	0xbe7c86f8	-0.24660861
29	0x3e90cbd1	0.282805
30	0x3e033708	0.12813962
31	0x3d59a893	0.05313928
32	0x3e5bc946	0.21463498
33	0x3e79d373	0.24397068
34	0xbecfa207	-0.40553305
35	0x3e0a16f4	0.13485318
36	0x3e0db0f5	0.13837035
37	0xbd8ae90a	-0.0678273
38	0xbe369598	-0.17830503
39	0x3e17e10d	0.14831944
40	0x3ef6d392	0.4820829
41	0xbd5b90de	-0.053604953
42	0xbe1dccb2	-0.15410116
43	0xbce96fc2	-0.028495673
44	0xbe138f73	-0.1441019
45	0x3d9c488c	0.07631025
46	0x3b0e0ffc	0.0021677008
47	0xbe6d2b4b	-0.23161046
48	0xbdf5fa10	-0.12010586
49	0xbba085b5	-0.0048987516
50	0xbc674af0	-0.014116988
51	0x3e19ca50	0.15018582
52	0x3e658469	0.22413792
53	0x3e008f59	0.12554683
54	0x3eb924f8	0.36161017
55	0xbe4cd484	-0.20002943
56	0x3eb862c0	0.3601284
57	0xbe6a12fd	-0.22858806
58	0xbe9e354b	-0.30900034
59	0xbd8c7f80	-0.06860256
60	0xbe35d247	-0.17755996
61	0xbdbab955	-0.091173805
62	0xbd3e5814	-0.046470717
63	0xbd7c915e	-0.06166207
64	0xbe4a12c9	-0.19733728
65	0x3dc91b32	0.0981964
66	0xbe0c400d	-0.13696308
67	0xbda2a346	-0.07941298
68	0x3d56dc9f	0.052456494
69	0xbdacbae5	-0.08434085
70	0xbbee629e	-0.0072749397
71	0xbe4f9de6	-0.20275077
72	0x3e5dae9c	0.2164864
73	0xbc9e9b89	-0.019361274
74	0xbe9a64bb	-0.30154976
75	0xbbae9ff4	-0.0053291265
76	0x3cb0b676	0.02157138
77	0x3e3408b1	0.1758144
78	0x3ec3a420	0.38211155
79	0x3d72afd6	0.05924972
80	0x3e91927d	0.28432074
81	0x3d919173	0.0710782
82	0x3e0772d8	0.13227403
83	0x3e8baba2	0.27279383
84	0xbdb98a7c	-0.09059617
85	0x3ed9dada	0.42549783
86	0x3e0c957c	0.13728899
87	0x3dc723c3	0.09723618
88	0xbe8c07f0	-0.27349806
89	0xbe100956	-0.14066061
90	0x3ebb4673	0.36577186
91	0x3b9a0233	0.004699969
92	0xbd8c431b	-0.06848737
93	0xbee58b8b	-0.44833025
94	0x3d650469	0.05591241
95	0xbe19a4e3	-0.15004306
96	0xbd153696	-0.03642901
97	0x3e51a48a	0.20472923
98	0xbe2ac7c1	-0.16677763
99	0xbe8edf4b	-0.27904734
100	0x3e2fe265	0.17176206
101	0x3eb9e9b6	0.3631112
102	0xbd4869b8	-0.048928946
103	0xbdf87d0f	-0.12133228
104	0xbd516ce1	-0.051129226
105	0xbe7697a8	-0.2408129
106	0x3e647c49	0.22313036
107	0xbdd23ec5	-0.102658786
108	0x3e1230f9	0.14276494
109	0xbd6b5544	-0.057454363
110	0x3e43ae22	0.19109395
111	0x3bbb4c76	0.005715902
112	0xbcdf8638	-0.02728568
113	0xbf51bb3e	-0.81926334
114	0x3ddd25ea	0.10798247
115	0x3e6314fa	0.2217597
116	0xbd8c3958	-0.06846875
117	0x3c9add7e	0.018904444
118	0xbe8325cf	-0.25614783
119	0x3dadd0b2	0.08487071
120	0xbe26d0d4	-0.16290599
121	0xbcc0762c	-0.023493849
122	0xbf10b13f	-0.56520456
123	0xbdcd2fef	-0.10018908
124	0x3ce1c2a7	0.027558638
125	0xbdb62031	-0.08892859
126	0xbd666f20	-0.05625832
127	0x3e2bcd19	0.16777457
128	0xbe47c9a3	-0.19510512
129	0x3e849f9f	0.2590303
130	0xbe30a6f0	-0.17251182
131	0xbe68380b	-0.22677629
132	0x3d94b900	0.072618484
133	0x3da0b2d7	0.07846611
134	0x3d14ed6f	0.036359247
135	0xbea7a9b8	-0.32746673
136	0xbe99b229	-0.30018738
137	0x3d59dd30	0.053189456
138	0xbe85ee2b	-0.2615827
139	0xbcbbd220	-0.022927344
140	0x3d768a50	0.0601905
141	0x3d003c71	0.03130764
142	0x3dfdedb1	0.12398852
143	0x3cbb98dc	0.022900037
144	0x3e647acc	0.22312468
145	0xbc0b9a7c	-0.008520719
146	0x3d5f6ab8	0.054545134
147	0xbc90c165	-0.017670343
148	0xbe09ab1d	-0.13444181
149	0x3edf1fb7	0.43578884
150	0x3c0a63dd	0.008446661
151	0x3dbcc2c9	0.0921684
152	0x3bddfef3	0.006774777
153	0x3d5bde3f	0.053678747
154	0xbed89560	-0.42301464
155	0xbe3ae7ed	-0.18252535
156	0xbe10cd9b	-0.14140932
157	0xbe487f2d	-0.19579764
158	0x3d4af68c	0.04955153
159	0x3e10ab25	0.14127786
160	0x828d397a	-2.0751078e-37
161	0x815b2693	-4.0251623e-38
162	0x02b96a40	2.7244291e-37
163	0x0061f1c8	8.994778e-39
164	0x8311e135	-4.2870195e-37
165	0x82d486da	-3.1228001e-37
166	0x82c4372c	-2.8831279e-37
167	0x81e01196	-8.230984e-38
168	0x82331cc2	-1.3159096e-37
169	0x80c714f4	-1.828278e-38
170	0x832c4507	-5.0625497e-37
171	0x817e3726	-4.6692e-38
172	0x028064b4	1.886571e-37
173	0x8272f898	-1.7850695e-37
174	0x016ad181	4.3129324e-38
175	0x82e26c51	-3.3269886e-37
176	0x825da13c	-1.6282788e-37
177	0x83532faf	-6.2062065e-37
178	0x02b124c1	2.6028908e-37
179	0x81e21249	-8.3045526e-38
180	0x8306ad4e	-3.9578005e-37
181	0x020b1c95	1.022031e-37
182	0x021d0366	1.1535514e-37
183	0x8291da95	-2.1431295e-37
184	0x832ee446	-5.139605e-37
185	0x83479a8a	-5.8658246e-37
186	0x0311e6ee	4.2876764e-37
187	0x82ebc8bc	-3.4645362e-37
188	0x8240fe3c	-1.4178894e-37
189	0x82b96ba8	-2.7245099e-37
190	0x03307526	5.185623e-37
191	0x0233b38b	1.3202369e-37
192	0xbd6e11ab	-0.05812232
193	0xbe3696dd	-0.17830987
194	0x3dcdd699	0.10050697
195	0xbc25592b	-0.01009206
196	0x3d885625	0.06657056
197	0xbe0a12e2	-0.13483766
198	0xbcaa0fd7	-0.020759506
199	0xbe547af1	-0.20750023
200	0x3d6808b7	0.056648936
201	0x3ebf1ef2	0.37328297
202	0x3e30e5aa	0.1727511
203	0x3bb64f84	0.005563678
204	0x3db76e46	0.0895658
205	0x3e765a21	0.24057819
206	0xbdb93aeb	-0.09044441
207	0xbd8fd3ad	-0.07022796
208	0x3d96f097	0.073701076
209	0xbc9d524a	-0.019204278
210	0xbd9d85d7	-0.076915435
211	0x3ddb77da	0.10716219
212	0x3c1c02eb	0.00952218
213	0x3ded11db	0.11575671
214	0x3d5b43d2	0.053531475
215	0x3eaeb201	0.3412018
216	0x3e92c66c	0.2866701
217	0x3d0dc0f0	0.034607828
218	0xbe34cc0f	-0.17655967
219	0xbe38a90a	-0.18033233
220	0x3d8a3f0a	0.06750305
221	0x3d84054b	0.06446322
222	0xbd9c2fd5	-0.07626311
223	0x3d46cad1	0.048533265
224	0x3d476e36	0.04868909
225	0x3e98e062	0.2985869
226	0xbb955ad4	-0.0045579467
227	0xbb7e8c12	-0.0038840813
228	0xbe0b26fa	-0.13589087
229	0xbd0a7916	-0.033806883
230	0xbe091bba	-0.13389483
231	0xbd8cca21	-0.068744905
232	0x3c6551f6	0.013996592
233	0xbd15115f	-0.03639352
234	0xb9b17d5a	-0.00033853465
235	0x3e1124fd	0.14174266
236	0x3d5431f3	0.051805448
237	0x3db56a99	0.088582225
238	0xbeb4f67e	-0.3534431
239	0xbe2bc939	-0.16775979
240	0xbe1fc87f	-0.15603827
241	0x3b9724ac	0.004612526
242	0x3dd84107	0.10559278
243	0x3e5353c2	0.2063742
244	0x3f6ba107	0.92042583
245	0xbd4530d6	-0.048142277
246	0x3ccf3e2a	0.025298197
247	0x3e243d2c	0.1603896
248	0x3d0b7602	0.034048088
249	0xbc7e537a	-0.015522832
250	0xbceb53b1	-0.02872643
251	0xbf4d93b9	-0.8030353
252	0x3c25d729	0.010122099
253	0x3d161e4a	0.03664998
254	0x3d993336	0.07480471
255	0x3e7e2930	0.248204

fc2.bias f4 [32]
0	0xbcd4ef55	-0.025993029
1	0xbdb030bd	-0.08603046
2	0x3d151a4e	0.03640204
3	0x3e523bd6	0.20530638
4	0x3d9703e0	0.07373786
5	0x82e7800a	-3.401589e-37
6	0x3dd32b19	0.103109546
7	0x3d195946	0.037438653
8	0x3de312d9	0.11087579
9	0x3e8d081f	0.27545258
10	0x3df76916	0.120805904
11	0x3e4ca627	0.19985257
12	0xbe862f9c	-0.26208198
13	0xba19e92a	-0.0005871231
14	0x3e758ef9	0.23980321
15	0xbc0e4125	-0.008682524
16	0x3deeafd1	0.11654628
17	0xbdc4ca2b	-0.09608873
18	0xbe325353	-0.17414598
19	0x8298685f	-2.2394299e-37
20	0xbe56726f	-0.2094209
21	0x3e304c61	0.17216636
22	0xbca53558	-0.020167038
23	0xbed21763	-0.41033468
24	0x3e1b0c63	0.15141444
25	0xbe5d47c9	-0.21609415
26	0x3ec9fe61	0.39451888
27	0xbe128699	-0.14309157
28	0x3df4f355	0.119604744
29	0x3d220975	0.0395598
30	0xbe0a9580	-0.13533592
31	0x3cae4ff6	0.021278363

fc3.weight f4 [32, 32]
0	0x82b95ae4	-2.7235476e-37
1	0x82b29983	-2.624286e-37
2	0x82a6f66d	-2.453295e-37
3	0x82a34596	-2.3990638e-37
4	0x82a8c265	-2.4796958e-37
5	0x8243036c	-1.4327319e-37
6	0x82a701f0	-2.4539557e-37
7	0x82975d70	-2.2241086e-37
8	0x82abdc30	-2.5252573e-37
9	0x829bec7a	-2.2910934e-37
10	0x82b4674d	-2.6507915e-37
11	0x82acc98e	-2.5388815e-37
12	0x82b6c236	-2.6853968e-37
13	0x829c473e	-2.296303e-37
14	0x82a79b79	-2.4627682e-37
15	0x82af7c58	-2.5785309e-37
16	0x82b1f98f	-2.6151052e-37
17	0x82a4535c	-2.414548e-37
18	0x82a74a22	-2.4580995e-37
19	0x834a866f	-5.9516787e-37
20	0x82b85998	-2.7087794e-37
21	0x82ad2218	-2.5439634e-37
22	0x82ae809f	-2.5640827e-37
23	0x02c59c57	2.9036283e-37
24	0x82a96411	-2.4889753e-37
25	0x82a91faf	-2.4850504e-37
26	0x82a43106	-2.4125772e-37
27	0x82a29b92	-2.3893054e-37
28	0x82a6bc7a	-2.4499688e-37
29	0x82a22ea2	-2.3830527e-37
30	0x82a1c22e	-2.3768277e-37
31	0x82969946	-2.2128494e-37
32	0xbd631497	-0.055439558
33	0x3bc49c02	0.006000043
34	0x3da4ca5b	0.08046409
35	0x3e07838b	0.13233773
36	0x3e83460a	0.25639373
37	0x0298fd4a	2.2479773e-37
38	0x3e8c4f8e	0.27404445
39	0x3e888d59	0.2667034
40	0x3dba3b43	0.090933345
41	0x3dd231b6	0.10263388
42	0x3d77206e	0.06033366
43	0x3dbc1c5b	0.09185096
44	0x3e8ae7c5	0.2712995
45	0xbc4f3e2f	-0.012649103
46	0x3d980377	0.07422536
47	0x3df5dbf8	0.12004846
48	0x3e8aeecb	0.2713531
49	0xbdebd6b9	-0.115155645
50	0xbabc40bf	-0.0014362558
51	0x02a3ac4c	2.404959e-37
52	0x3defaa55	0.1170241
53	0x3e8e36e9	0.27776268
54	0xbc45acd6	-0.012065133
55	0x3e4f8a3a	0.20267573
56	0xbd0ebc08	-0.03484729
57	0xbd310924	-0.043221608
58	0x3ddd0edd	0.107938506
59	0x3daa1382	0.08304502
60	0xb9ebafd2	-0.0004495369
61	0xbd96f835	-0.073715605
62	0x3e117484	0.14204603
63	0x3c169803	0.009191516
64	0x3e5937d9	0.2121271
65	0x3e0f71a4	0.14008194
66	0x3e5648dc	0.20926231
67	0xbe9239dc	-0.28559768
68	0xbe025355	-0.12727101
69	0x0292be2d	2.1561927e-37
70	0x3c028f70	0.0079687685
71	0xbd41e81c	-0.047340497
72	0xbe85da15	-0.26142946
73	0x3e2ea17a	0.17053786
74	0xbd7b2ffb	-0.061325055
75	0x3d0a64dd	0.033787597
76	0x3e5d9bf8	0.21641529
77	0xbdaeb073	-0.08529749
78	0xbe892e69	-0.2679322
79	0x3c72c577	0.014817587
80	0xbea6570b	-0.32488284
81	0xbda797aa	-0.081832245
82	0xbe312100	-0.17297745
83	0x029da43b	2.316334e-37
84	0x3e25cc2a	0.16191164
85	0xbecab418	-0.39590526
86	0x3dfbb97e	0.12291239
87	0xbdf969ef	-0.12178408
88	0xbec009dd	-0.37507525
89	0xbe9db1e8	-0.30799794
90	0xbe9f3070	-0.31091642
91	0xbe83a171	-0.25709108
92	0xbd8f5261	-0.069981344
93	0x3d98ba76	0.074574396
94	0xbe02e75c	-0.12783569
95	0xbdff0f41	-0.12454081
96	0xbdecc2a3	-0.115605615
97	0x3e64a156	0.2232717
98	0x3dc5d171	0.096590884
99	0x3e4d1f75	0.20031531
100	0x3db0f33b	0.086401425
101	0x8241342c	-1.4194373e-37
102	0xbdf6e0b3	-0.12054577
103	0x3b9d0189	0.004791443
104	0xbe4f0388	-0.20216191
105	0xbd852266	-0.065007016
106	0x3eab5e70	0.33470488
107	0x3e5c0d3e	0.21489426
108	0x3e65523a	0.22394648
109	0xbdca4a21	-0.0987742
110	0xbe8f90bc	-0.2804011
111	0xbde7b641	-0.11314059
112	0xbc9b44fc	-0.018953793
113	0x3bb5ee07	0.0055520567
114	0x3e19d5c8	0.15022957
115	0x02aed49e	2.5689038e-37
116	0x3e8e8478	0.2783544
117	0xbe6d9b63	-0.23203807
118	0x3e3c3dc4	0.18382937
119	0xbd798980	-0.060922146
120	0xbe5367b4	-0.20645028
121	0x3ec09691	0.37614873
122	0xbe00ce17	-0.12578617
123	0x3bc6c71f	0.0060662176
124	0xbe280c41	-0.16410924
125	0xbdade5d1	-0.084910996
126	0xbd560881	-0.052254204
127	0xba82f763	-0.000999194
128	0xbdbe6dbf	-0.09298276
129	0x3dcde0b9	0.10052628
130	0xbd7a1fd1	-0.0610655
131	0xbd955d46	-0.07293181
132	0x3e816e62	0.25279528
133	0x831ba5ea	-4.5740866e-37
134	0xbe1ec78e	-0.15505812
135	0x3d8ed537	0.06974261
136	0xbdab943c	-0.08377883
137	0x3d863548	0.06553131
138	0xbdf93e5e	-0.12170099
139	0x3e26aad6	0.16276106
140	0x3f29c01b	0.66308755
141	0xbeae9305	-0.34096542
142	0x3e4be5dd	0.19911905
143	0xbe0b6061	-0.13610984
144	0x3e9e12a1	0.30873588
145	0x3cbc4232	0.022980783
146	0x3d43d218	0.047807783
147	0x0298aaa7	2.2432342e-37
148	0xbc819645	-0.015818724
149	0xbc2172a3	-0.009853992
150	0x3d445ca2	0.047939904
151	0xbe169d68	-0.14708483
152	0xbdbd8310	-0.09253514
153	0x3db2795c	0.08714554
154	0xbcb12f6d	-0.02162906
155	0xbda47cdb	-0.08031627
156	0x3e4575ed	0.19283266
157	0x3d8039ed	0.062610485
158	0xbd0fcf85	-0.035110015
159	0x3d7a2c65	0.061077494
160	0xbdc40595	-0.09571377
161	0x3e9de083	0.3083535
162	0x3e22c6b9	0.15896119
163	0x3e181b79	0.1485423
164	0xbcb73c3b	-0.022367587
165	0x82f73598	-3.632415e-37
166	0xbceeb0f2	-0.029137108
167	0xbcc07ac9	-0.023496049
168	0xbe748255	-0.23877843
169	0x3d5414b1	0.051777545
170	0x3d5aeb09	0.053446803
171	0x3e3433f1	0.17597939
172	0x3d866519	0.065622516
173	0xbe5f1cc1	-0.21788312
174	0xbe896e92	-0.2684217
175	0xbd9eb8f4	-0.07750121
176	0x3e44adf7	0.19206987
177	0x3d3a79af	0.045526203
178	0xbc22c183	-0.009933832
179	0x01fb4872	9.230679e-38
180	0x3e4baee3	0.19890933
181	0x3d8eb918	0.069688976
182	0x3de45eda	0.11150904
183	0xbe59d61a	-0.2127308
184	0xbee5d1fd	-0.4488677
185	0x3ea8d943	0.32978258
186	0xbd9e85e1	-0.07740379
187	0xbd62274a	-0.05521325
188	0xbe6d6fdc	-0.23187202
189	0xbb4a11a0	-0.003083326
190	0x3d15df7d	0.03659009
191	0x3e92f539	0.28702715
192	0x3d8a36c1	0.06748725
193	0xbe5502cf	-0.20801853
194	0x3c69f229	0.014278927
195	0xbdc3718e	-0.09543143
196	0x3d52fd32	0.051510997
197	0x0276ec8c	1.8141111e-37
198	0xbe22715a	-0.15863553
199	0x3dfd5c99	0.12371177
200	0x3db69b7c	0.08916375
201	0xbd0f2033	-0.034942817
202	0x3e5f9f60	0.2183814
203	0xbcaa140f	-0.020761518
204	0xbf22c598	-0.63582754
205	0x3bf3e482	0.0074430117
206	0xbebd4b6b	-0.36971602
207	0xbbffac7b	-0.0078025437
208	0xbd6cb2cc	-0.0577877
209	0xbe1d125f	-0.1533904
210	0xbe76df78	-0.24108684
211	0x02a31b60	2.396641e-37
212	0x3d99a501	0.07502175
213	0x3e8bda22	0.2731486
214	0xbd776247	-0.06039646
215	0x3d8a2284	0.067448646
216	0xbd6ada93	-0.057337355
217	0x3bb8a337	0.005634691
218	0xbe81a524	-0.25321305
219	0x3c86795c	0.01641529
220	0x3dd7484f	0.10511839
221	0x3de65feb	0.11248764
222	0x3d528a51	0.05140144
223	0x3dbf1142	0.093294635
224	0xbe97549e	-0.29556745
225	0xbc370aa7	-0.011171973
226	0xbc741091	-0.014896528
227	0xbd045164	-0.032304183
228	0x3cf3e45c	0.029771976
229	0x030e6128	4.184158e-37
230	0x3f0e49c8	0.5558133
231	0xbe1b1736	-0.15145573
232	0xbe202f69	-0.15643086
233	0x3edfe525	0.4372951
234	0xbda315e5	-0.079631604
235	0x3f0f8b90	0.5607233
236	0xbe3e0ec6	-0.18560323
237	0xbcca346a	-0.024683196
238	0x3d029495	0.03187998
239	0x3de25667	0.11051636
240	0x3dc343cd	0.09534416
241	0xbdbd1ffa	-0.09234615
242	0xbd94edea	-0.07271941
243	0x0304536f	3.888709e-37
244	0xbbf8ba8a	-0.0075905966
245	0x3bb1b0f4	0.005422706
246	0xbc0f4432	-0.008744286
247	0x3d69e288	0.057100803
248	0xbdb6ef34	-0.08932343
249	0x3d5e1cfe	0.054226868
250	0x3b49a3d9	0.0030767827
251	0xbd952b27	-0.07283621
252	0xbd835dc9	-0.064143725
253	0x3de28b6a	0.11061747
254	0x3e2b0812	0.16702297
255	0xbdf2ae85	-0.11849693

fc3.bias f4 [32]
0	0x82a67428	-2.4458178e-37
1	0x3d82b68f	0.063824765
2	0x3df8b4f9	0.12143893
3	0xbe14b75e	-0.14523074
4	0xbdb5f7fe	-0.088851914
5	0xbe35a856	-0.17739996
6	0x3d9f62d5	0.077825226
7	0xbed25fac	-0.41088617
8	0xbd96409d	-0.07336543
9	0x3cce3482	0.025171522
10	0xbe4b8ca0	-0.19877863
11	0x3db4df07	0.088316016
12	0x3dd814af	0.1055082
13	0x3e568114	0.20947677
14	0x3dd1322e	0.10214649
15	0xbd93ffbe	-0.07226513
16	0xbe89f05b	-0.2694119
17	0xbe01bb93	-0.1266921
18	0xbdad7204	-0.084690124
19	0x82bbc1a6	-2.758833e-37
20	0xbdc73f51	-0.097288735
21	0xbb172139	-0.0023060574
22	0x3e1bda26	0.15219936
23	0xba83743b	-0.0010029146
24	0x3da91408	0.08255774
25	0xbd935bb4	-0.07195225
26	0xbdd6a9f6	-0.10481636
27	0xbdb78f2d	-0.089628555
28	0xbcb86a39	-0.022511588
29	0x3a1694fe	0.00057442475
30	0xbc1b7413	-0.0094881235
31	0x82b83c02	-2.7070813e-37

fc4.weight f4 [2, 32]
0	0x82bd8dc4	-2.7852424e-37
1	0x3db0c886	0.08631997
2	0xbea3efa5	-0.32018772
3	0x3e8c05f5	0.27348295
4	0x3e4cd03f	0.20001315
5	0x3e60adb8	0.21941268
6	0x3e902812	0.2815557
7	0xbc036976	-0.008020749
8	0xbad505aa	-0.0016252298
9	0x3bd3523d	0.0064490126
10	0x3ce6db06	0.02818061
11	0xbf0bcd19	-0.5460983
12	0xbdc0b93b	-0.0941033
13	0x3bb1a703	0.0054215207
14	0xbdd4513c	-0.10367057
15	0x3c557418	0.013028167
16	0x3b4e7ab7	0.003150625
17	0x3b016eaf	0.001974981
18	0xbfb06404	-1.3780522
19	0x02bb3c95	2.7511953e-37
20	0x3e684dab	0.22685878
21	0xbb52821f	-0.0032121015
22	0xbcb1c91a	-0.021702338
23	0xba3b96e1	-0.00071559666
24	0xbdebdde6	-0.11516933
25	0xbb0ab698	-0.0021165963
26	0xbe1568a2	-0.14590696
27	0xbf607eda	-0.8769356
28	0xbedaf56b	-0.42765364
29	0xbd1546c9	-0.03644446
30	0x3dac60a5	0.08416871
31	0x82a3f16c	-2.4089267e-37
32	0x82b5c439	-2.6708186e-37
33	0x3e13827f	0.14405249
34	0x38a64359	7.928041e-05
35	0xba6fa068	-0.0009141029
36	0x39ca222a	0.00038553897
37	0x3a454cfa	0.0007526424
38	0xb9d32348	-0.00040271343
39	0x3f237843	0.6385538
40	0xbe29f3c5	-0.16596897
41	0x3ecffea3	0.4062396
42	0x3ef7930f	0.48354384
43	0x3d02ea64	0.031961814
44	0x396238c2	0.00021574183
45	0x3e0e710f	0.13910316
46	0x3c8788c3	0.016544705
47	0xbe4647da	-0.19363347
48	0xbf0b466b	-0.54404324
49	0xbe3b843a	-0.18312159
50	0x3c5dacb7	0.013529948
51	0x82b2291a	-2.617834e-37
52	0x3c073193	0.0082515655
53	0xbdac3afd	-0.084096886
54	0x3d797a36	0.060907565
55	0xbf0bbe8f	-0.54587644
56	0xbc5bd21c	-0.013416793
57	0xbda09fd9	-0.078429885
58	0xbb5ed01e	-0.003399856
59	0x3ea35489	0.31900433
60	0xbcbdbaa8	-0.023160294
61	0x3dbed31a	0.09317608
62	0xbca226a9	-0.019793825
63	0x02b592bf	2.6679788e-37

fc4.bias f4 [2]
0	0xbc0c818b	-0.008575807
1	0x3c44875c	0.011995163
