droplet_approximation/models/network_400m_weighted.pth (torch, 13457 bytes, 8 tensors)

fc1.weight f4 [32, 7]
00000000: 4a1b ed3e f649 8f3a c4d4 6eba 436f c8bb
00000010: 0e8a 68be cc29 193a 0619 f5be 92b3 d9be
00000020: 24f4 21bd f741 8139 7805 933d 1fc1 013c
00000030: 1d62 303a 2b2d db3e 61b2 23bf b73c 48bb
00000040: 691a 86ba cfd4 033d d1cc 13bf 865b 3e3b
00000050: 3c90 e13e 38a9 083f fb9d ea3d efab 2539
00000060: 166b c23e c0ad 58bc c453 8db8 ecae a2bd
00000070: f612 3ebe 068b 03bc df16 483b eddb 3dbc
00000080: 035e 18bc b76d b33a 9f04 613f f3e4 0fbf
00000090: 8c62 f93b 47f9 1c3a 348c 263c f7cd e63e
000000a0: 2e7e 8839 adb5 d63e d3dd 8ebd 3033 213b
000000b0: d105 90b8 8e0a 4d3b 04bf 7439 6975 73b9
000000c0: 4fcb 39c0 e13f 953d 008b 2f3e 4060 adb8
000000d0: 8482 42be e27c 47bc e47f 00ba 3832 c3bd
000000e0: 9546 f4be dc49 c03a 4ca2 9aba 8737 aa3c
000000f0: 3196 263f eb5f 1f3b c12a 063f 7bca 333f
00000100: f6fd 43be a07e 8eb7 9cb4 903d 971f d23c
00000110: 7055 77ba 6dbc 5bbf cf2d 8e3e 192e d0ba
00000120: 0a43 05ba 8496 5bbc 96c0 a5be 65c9 5739
00000130: 64e8 6f3f 6fa4 183f 5891 bfbd 991a e73a
00000140: 9bef bbbe d2ea 07be fab1 e63a 8e4d b2bd
00000150: d4bf 323f 0f16 9bba dbcc 2b39 1897 fdbc
00000160: 02d3 183e f067 a4ba 7fdd 91be ca93 a1be
00000170: 4b15 203d 94d5 27b9 23a2 8cbc 7de5 d0ba
00000180: 7dd2 e0b9 f64c 6e3f dcb2 abbe 5e2d 72ba
00000190: cda6 3f3a 841b 583c 3952 4dbe e5cb a939
000001a0: bee6 993e 11b8 a23b f006 0abe d87e 2b3a
000001b0: 6ed2 573e e655 053c 44e4 5a3a 50fd 693e
000001c0: 19d3 cb3e bc86 abb9 0584 2239 203f 91bc
000001d0: 2d39 14bd 0228 bf38 dc6f 09c0 0d53 0dbe
000001e0: 657e 79bc a4b6 a2b8 a437 c63c 4d8e 783b
000001f0: 9aca 4237 d7bf a83f 1390 0dbf dd85 b23d
00000200: 68b1 adba 12ca ad3e 462b 003e 4502 74ba
00000210: 3e22 a63d 1f4b 033f 998c 373b 8b06 72b9
00000220: 9a78 77bc b57a 993e 3844 9aba f871 673f
00000230: 0f4d 81bc de45 213e 268d 8fbb 6398 58bd
00000240: 4316 3dbd 9715 64bb 69a7 c33c 7ba3 0f3c
00000250: 9bc6 b6bc 64eb 46bc 6aa0 633a 5f69 9a3b
00000260: 680a 44bb 9380 923e 3690 ec3b f2a8 b4ba
00000270: 6f78 abba b08c 1d3e 7e8c 1c3e 6a80 3bbb
00000280: 6749 993d f309 00ba 48eb ad39 c82f 9339
00000290: 6879 ff3d 7fa5 c63d 2e83 99ba 92c7 073a
000002a0: c05d 03bf 9151 e2bd 8d82 03ba c613 bbbe
000002b0: 2643 5a3c 23b1 f239 667b 9f3d c8e4 043e
000002c0: 6abd 55bb 5342 c8b7 a28e edbb 5e0e 9b3b
000002d0: 7220 8db9 d143 b0bf 499d 2c3e 64bf 8fbe
000002e0: d08b 1abb 6639 863e 561f 733c ab4a 00ba
000002f0: 1e4e 81be f159 afbe 27d0 34be 9523 5039
00000300: de7c 193e f075 d93c 3ba2 0ebb d09e 603e
00000310: 779b 79be 0264 9cbc ca3b e839 424a 1c3d
00000320: c84e 693b 4758 c438 adef 4f3e 5ab5 913f
00000330: fb87 f7ba b890 df38 3ebb 26bd 762e 6bbd
00000340: 05d1 67ba 8199 1b3d 7a7b 913e 8985 6b3e
00000350: f492 c83a d02d 83be c7c6 f0bc 5856 b7b9
00000360: da34 28be 581f 563c f5e4 703a 5af8 dbb9
00000370: 1c66 06be c645 0a3e 72b5 173a 896b a139
0.46309882 0.0010932076 -0.0009110684 -0.006116779 -0.22708914 0.0005842715 -0.47870654 -0.42519814
-0.03953947 0.00024653945 0.071787775 0.007919579 0.0006728487 0.42807898 -0.6394406 -0.0030553767
-0.001023126 0.032185372 -0.577344 0.0029046251 0.44055355 0.5338321 0.11455914 0.00015799676
0.37972325 -0.013225019 -6.7390065e-05 -0.0794352 -0.1856192 -0.008028751 0.003053121 -0.011588079
-0.009299758 0.0013689314 0.87897676 -0.56208724 0.0076106247 0.0005988073 0.010165263 0.45079014
0.00026033953 0.41935483 -0.06975903 0.002459716 -6.8675385e-05 0.0031286809 0.00023340812 -0.00023218025
-2.903034 0.072875746 0.17142868 -8.267211e-05 -0.189951 -0.0121757705 -0.00049018697 -0.09531063
-0.477101 0.0014670449 -0.0011797636 0.02077843 0.65072924 0.0024318646 0.5240899 0.70230836
-0.19139847 -1.6986683e-05 0.070656985 0.025649829 -0.00094350334 -0.8583439 0.27769324 -0.0015882879
-0.0005083537 -0.013402585 -0.32373494 0.00020579023 0.93713975 0.59625906 -0.09353894 0.0017631828
-0.36706242 -0.1327317 0.0017600649 -0.08706199 0.69823956 -0.0011832135 0.00016384145 -0.030955836
0.14924243 -0.0012543183 -0.284893 -0.31558067 0.039082807 -0.00016005925 -0.017167157 -0.0015937533
-0.00042881435 0.93086183 -0.33534896 -0.00092383276 0.0007310927 0.013190154 -0.20050897 0.00032386105
0.30058855 0.00496579 -0.13479209 0.00065420335 0.21076366 0.008138156 0.0008350054 0.22850537
0.39809492 -0.00032716047 0.00015498705 -0.017730296 -0.03618734 9.115042e-05 -2.1474524 -0.13801213
-0.015227889 -7.7587814e-05 0.024196453 0.0037926615 1.1610473e-05 1.3183545 -0.55297965 0.08716939
-0.0013251724 0.3394323 0.12516508 -0.00093081995 0.08112 0.512865 0.0028007387 -0.00023081356
-0.015104437 0.2997643 -0.0011769598 0.9040828 -0.015783815 0.15749308 -0.00438084 -0.052879702
-0.04616381 -0.0034802908 0.023883538 0.008767004 -0.0223115 -0.012141082 0.00086832664 0.0047122682
-0.002991343 0.2861372 0.0072193397 -0.001378326 -0.0013082157 0.153857 0.15287969 -0.0028610476
0.074847035 -0.0004884295 0.0003317243 0.00028073625 0.12474328 0.096995346 -0.0011712068 0.00051795796
-0.51314926 -0.11050714 -0.0005016707 -0.36538523 0.0133216735 0.00046289814 0.07787208 0.12977898
-0.003261412 -2.3872743e-05 -0.007249669 0.0047319373 -0.0002691779 -1.3770696 0.16856875 -0.28075707
-0.002358187 0.26215667 0.014839014 -0.0004893939 -0.2525491 -0.34248307 -0.17657529 0.00019849681
0.1498904 0.026545495 -0.0021764177 0.21935582 -0.24375711 -0.019090656 0.00044295035 0.038156755
0.0035599936 9.362451e-05 0.20306273 1.1383469 -0.001888513 0.000106604246 -0.04070591 -0.057417355
-0.0008843097 0.03798819 0.28414518 0.23000158 0.0015302585 -0.2562089 -0.02939166 -0.0003496881
-0.16426411 0.013068996 0.00091893907 -0.0004195597 -0.13124889 0.13503179 0.00057872303 0.00030788433

fc1.bias f4 [32]
00000000: 2d9a ac3c cfaf b53e 3f49 67be 5329 1d3e
00000010: e5fe 453e 71b3 8cbd 2f78 f43d ca0c 98be
00000020: 4136 b3be dd9e b6be 71e7 313e d665 da3c
00000030: 2bdc c43e cf6c 773e c1dc 11bd fe58 ac3e
00000040: 9d50 ae3e 6135 9b3d 1fba d0bc 88a2 6f3e
00000050: 1ccd b1bd e23d f63c bc6a 273b ca51 bfbd
00000060: 7338 17be e08c e23e 798f a0be 26aa 8fbc
00000070: c53d 393e 0e4e cc3d 825d 1abe d247 b0bd
0.02106961 0.35485694 -0.22586535 0.15347795 0.19335516 -0.06870163 0.11936986 -0.29697257
-0.3500233 -0.35668078 0.17373444 0.026659887 0.38449225 0.24162601 -0.035610918 0.33661646
0.34045878 0.075785406 -0.025479374 0.23401845 -0.086817 0.030058805 0.0025545796 -0.09341772
-0.14767627 0.44248104 -0.3135946 -0.017537188 0.1808997 0.09975825 -0.15074733 -0.08607449

fc2.weight f4 [32, 32]
00000000: 25b2 e33d 6070 923d 810c babe 5442 31be
00000010: bf3f cf3d 5474 d83d 79ac 85be 7820 143d
00000020: 4653 17be d675 6f3d 6fe9 a93d 74ef 543d
00000030: 4ef9 10bd 56fc 11bd 3f79 56bd c3ac ac3d
00000040: 6c27 69be ec44 17bc 48d5 1f3e 79f7 2d3e
00000050: ad37 41bd 1760 4e3d d47d 193d 2565 5e3d
00000060: 9f8d fc3d 86ff 483e 41dd 1d3e b1fc 06be
00000070: b0c0 14bd 1352 dbbd cba3 7c3d d788 753d
00000080: 0c5f cfbc 62f3 ebbd 4c1c 96bd 15e2 86bd
00000090: 1966 aa3e 2a9c d53d 46ad e7be 8082 60bc
000000a0: c9fb 773d 61b5 bcbe 48a3 c83e f49f 5dbd
000000b0: d1b6 303e 65da 313e 203f b4bd 852e 943c
000000c0: 754c 10bf ad8c 6fbd f3a1 dbbd d466 743e
000000d0: 517c 63bd 09dc bb3d dddb c8bc 90c4 783c
000000e0: c03a 173e 1eaf 81be 7d90 b33d b110 aebd
000000f0: 7e20 6dbd 3131 e3bd 899f 103d ef8d 9b3b
00000100: 04ec 00be 7d57 3e3e 2e5d 823e ddd2 c2bc
00000110: b194 633d d7e4 47be bee5 39bf 6dd9 1cbd
00000120: 5b87 95be 989f cf02 d4db 493d c8ce 7abd
00000130: 72d3 5ebe 1ad8 403e ef1a 853c e5ca a0bd
00000140: 1f6b 14bf 97e4 293e 2da0 0e3d 4101 e5be
00000150: 7195 833c dbfe a13b 4e41 203a fc62 2e3c
00000160: f0d2 c13c 167e 81be a877 96bc 0645 0d3d
00000170: 90db 063d ab61 c6be 88ff 9abd ff0b 8a3d
00000180: fe35 24bc bf5f fb3d 9b24 46be 1bc9 d33b
00000190: 225f b2bc e8e0 fabb e613 033e d05b ac3d
000001a0: 51c2 923d d9e6 983d f9cd 803d 3a24 523c
000001b0: 6466 4d3d 0656 0f3c f6da 62bd 57bd ab3c
000001c0: de01 caba bf39 a93d 65b8 80bd 3fd3 a63c
000001d0: 1b18 923d 2693 183c 0edd 803d ea7f 303d
000001e0: 6cd3 7f3b 27b3 8fbc 8cd4 c33e aa2d 91bd
000001f0: 9ebb a03c 9805 fcbd 2d9b b93e 155a b73c
00000200: 6665 a2bd 7dd3 d83e a1fa 393e c7ed 993c
00000210: 55be 23be d861 a9be a5f2 013f 37b1 1b3d
00000220: ae98 4fbe 7306 e6bc b4df 4ebe 149d 953c
00000230: 2098 6abd 3721 c63c fbe6 583e 5609 0fbe
00000240: eb3c b03e f4e2 9d3e d769 7cbd 2979 41be
00000250: c8f5 963c fd74 1fbd 0fe9 2c3a 91d1 da3c
00000260: 8a18 09bd e1ad a43e 9aa3 46bd 3b0d 4cbd
00000270: 9e72 973e e608 073e 5f2f cebb 0b7a a8bb
00000280: 342a 27be b72a aebc a42b ecbd cd83 82bc
00000290: 117f 5f3e f611 19be bbec 29bf 0194 1f3e
000002a0: fec1 4cbd fb25 8cbd 249c 863e 755e 1bbd
000002b0: 725d 613d a109 8f3e 7bb0 3d3d 7265 853d
000002c0: 8962 68be b139 253d c2ae 81bd d0a4 893d
000002d0: 781f cfbc aa9c 973d 49e8 293c 8f36 bb3c
000002e0: 81c0 1d3d 7a1f 71be b158 943c 17af b3bd
000002f0: df6c 913d 6881 66be ab82 863e 2593 5d3c
00000300: 5d83 d2bd 6a17 3bbd 96b4 07bd 0f8b 33bd
00000310: 64fb 71bc eb8c 32bc 5b83 7c3a 2e44 ef3a
00000320: f6a7 a63d 8f43 103d 0268 b0bd 5781 683d
00000330: b3f1 0c3c 8a86 6d3d 12e2 743d 0faf 06bd
00000340: 63d0 bbbb 4114 24bd 24cf 52bd 529c b33d
00000350: 6d3d f13c f6c7 8dbc b932 f3bc 3c9b bcbd
00000360: 99a7 2dbd 394e 9f3b f3c3 96bc b299 9c3c
00000370: 9e2a 2dbc 00c4 c8ba d5f8 91b9 e780 ca3c
00000380: 2ae2 073e d894 d7bd 4e73 6dbe 1691 9d3d
00000390: a1ed 233d 67b7 253e e4de 303d 8fad 8f3b
000003a0: 441d 31be de62 02bd fc2e 87bc 612d d93d
000003b0: 72ae 48bd f9fd c9bc 932a c5bd 20d7 e93c
000003c0: 07d4 8cbe c28c e7bb dd2f adbd 0da2 ee3d
000003d0: 65e9 1f3d e85a 853c 7466 05bd a701 a0bc
000003e0: 4128 cbbd a69b 103e 47a6 a3bd ff09 253d
000003f0: e9e1 c9bd 2a92 24be 1b9c e13c b8c4 f63c
0.11117963 0.0715034 -0.36337665 -0.17310458 0.101195805 0.10569063 -0.2610815 0.036163777
-0.1477786 0.058461986 0.08296477 0.051986173 -0.035394005 -0.035641037 -0.052361723 0.08431389
-0.22768945 -0.009232741 0.15608704 0.16988935 -0.047172237 0.050384607 0.037473515 0.054295678
0.123316996 0.19628724 0.15416433 -0.13182332 -0.036316574 -0.10709014 0.061679643 0.059944954
-0.025313877 -0.11521031 -0.07329616 -0.065860905 0.3328102 0.104301766 -0.45249385 -0.013702989
0.060542855 -0.3685713 0.39187074 -0.05410762 0.17257239 0.17368467 -0.08801103 0.018088588
-0.56366664 -0.05848377 -0.10724249 0.23867351 -0.05553848 0.09172828 -0.024518901 0.015183583
0.14768505 -0.25328916 0.08767793 -0.084992774 -0.057892315 -0.11093367 0.035308395 0.0047471444
-0.12590033 0.18588062 0.25461715 -0.023782188 0.055561725 -0.19520889 -0.72616184 -0.03829329
-0.2920483 3.0507519e-37 0.04928191 -0.06123236 -0.21760347 0.18832436 0.016248195 -0.07851199
-0.57975954 0.16591106 0.034820724 -0.4472752 0.01606247 0.004943711 0.0006113247 0.010643717
0.023660153 -0.25291508 -0.018367603 0.034489654 0.032924235 -0.3874639 -0.0756827 0.06740569
-0.010022638 0.122741215 -0.19349901 0.0064631826 -0.021773878 -0.0076562054 0.1280056 0.08415949
0.07165969 0.07465906 0.06289286 0.01282602 0.050146475 0.008748537 -0.0553846 0.020964308
-0.0015411933 0.08262967 -0.062851705 0.020364402 0.07133504 0.009312427 0.06292163 0.04309074
0.003903593 -0.017541481 0.38248098 -0.07088788 0.019620713 -0.123057544 0.36251202 0.022381822
-0.079294965 0.42348853 0.18162014 0.018790139 -0.15990575 -0.3308246 0.5076087 0.038010802
-0.20273086 -0.028079247 -0.20202523 0.018263377 -0.057273984 0.02418576 0.21181862 -0.13968405
0.34421477 0.30837214 -0.061624374 -0.18893875 0.018427745 -0.038929928 0.0006596008 0.026711257
-0.033470668 0.3216391 -0.048495866 -0.049817305 0.29579633 0.13186988 -0.006292268 -0.005141502
-0.16324693 -0.021260602 -0.11531761 -0.015931988 0.21825816 -0.14948258 -0.6637685 0.15583803
-0.049989693 -0.06843182 0.26291 -0.037931878 0.055020757 0.27937034 0.046310883 0.0651349
-0.22693838 0.040338222 -0.063321605 0.067208886 -0.02528356 0.07402928 0.0103703225 0.022853164
0.038513664 -0.23547164 0.018108698 -0.0877363 0.07100844 -0.22510302 0.26271567 0.0135238515
-0.10278962 -0.045676626 -0.033131205 -0.04383379 -0.014769409 -0.010897855 0.00096326106 0.0018254572
0.08137505 0.03522068 -0.08613588 0.056763973 0.008602547 0.057989635 0.05978591 -0.032881793
-0.0057316287 -0.040058378 -0.051467076 0.0877005 0.029448235 -0.017307263 -0.029687272 -0.09209296
-0.04239616 0.00486162 -0.018403983 0.019116256 -0.010569243 -0.0015317202 -0.0002784195 0.024719669
0.13269868 -0.105264366 -0.23188516 0.076936886 0.040021542 0.16183244 0.043181315 0.0043847035
-0.1729632 -0.03183257 -0.016501896 0.106043585 -0.04899449 -0.024657236 -0.09627261 0.028544962
-0.27505514 -0.00706634 -0.08456395 0.116520025 0.03904094 0.016278699 -0.03256841 -0.019532038
-0.09919787 0.14121875 -0.07990699 0.040292736 -0.09857542 -0.16071382 0.027540257 0.0301231

fc2.bias f4 [32]
00000000: f358 093e 4108 8d3e 7ce4 2539 151d a3bd
00000010: d2f2 61be 1b50 863e 2b6a 413d c53d d63d
00000020: 569a 9bbe 244a 8b3e 72d6 72bd 2b50 febb
00000030: 19f9 343e f50a cbbb 8fb7 e83d e0e6 4d3c
00000040: b5e5 08bd 0ef7 56be f716 853e 2bfd 543e
00000050: ff3a af3d 8671 803e cb0d c1bc 54a5 2e3e
00000060: ac96 0c3e 9b1d a33c 2440 79bd 167b 5b3d
00000070: 0e72 9982 80f3 90bc cc72 363e 5590 04be
0.13412838 0.2754536 0.00015820743 -0.07964531 -0.22065285 0.2623299 0.04722039 0.10461
-0.30391186 0.27205002 -0.059286542 -0.0077610216 0.17673148 -0.0061963745 0.11363136 0.012567252
-0.03342219 -0.20992681 0.25994083 0.20799701 0.085561745 0.25086612 -0.023566147 0.17055255
0.13729352 0.019911578 -0.060852185 0.05358418 -2.2546794e-37 -0.017694235 0.17817229 -0.12945683

fc3.weight f4 [32, 32]
00000000: 2b3c af82 6cf2 8282 5e15 9982 9355 8a82
00000010: fafa a502 74d2 2101 e534 2083 a5ac ca02
00000020: b2ed 9782 66fd 7282 66a1 9982 1ed4 9782
00000030: 2463 9a82 03ec 8882 190e cb02 b794 ad02
00000040: c24b 4f02 24fc 8582 df9a ae82 50bb ae82
00000050: 73e6 8b82 46fb 9382 2939 1a83 b8d6 6982
00000060: 0531 9682 2995 9682 6c96 3e03 b3b8 4582
00000070: 7e26 9502 6c20 8782 c0bd 9a82 0e1b b202
00000080: 8294 a33d 4574 11be c281 6f3d ff5f 8e3c
00000090: 77e9 ae3d e928 5dbd f7db 1ebd 5e2b 68bd
000000a0: df5d a2be 1d75 11be ee7e 9c3d 2210 0a3d
000000b0: f49a d83a 720f 553d 7b44 88bd 3bf0 0c3e
000000c0: c85f 8ebd 6dda 123d 2ddb 2c3d bba1 2a3e
000000d0: 6be1 e23b 1659 1bbe cdc8 9fbd 21cd c13d
000000e0: 746a 773d 888e 3dbd 108c 4dbd 0748 5e3e
000000f0: a540 b202 d6c8 093e 4fd3 91bd 7872 43bd
00000100: c883 2fbe 841d 3d3d fd17 d6be 797b cb3d
00000110: bc8d 223e 851d b53b ba3b efba 2709 35be
00000120: 07fa 3d3e 7b2b c23c 2056 3dbe 56ed 013e
00000130: 28dd d33c d37d dd3d 9889 633c a981 2b3e
00000140: 4fb9 56be 7168 6cbe cce7 36be c608 6abb
00000150: 66ea d3bd 19c6 8d3d e0be 77bd 4ed4 283e
00000160: a66c 57be c94c 3e3c 684e fdbb dd39 d23d
00000170: c36d 8782 ae84 bcbe 7268 b63d 2fba 07be
00000180: 43b7 afbd 23e7 433e bd31 d63e daaf 9d3d
00000190: b9d3 6ebe 4e8b 6e3e 6005 0fbd a508 a4be
000001a0: 932a b282 192c 59be 863c 88be cb79 a8be
000001b0: d42d 5dbc 7f67 cc3e dfbe 69bb 9365 13be
000001c0: 9273 e2bd 1525 a5bd f062 c9be 94e8 ec3d
000001d0: 6f79 f5bd 54b5 133e c4c1 0fbe 5e06 b5bd
000001e0: 33cf 543e c34f 14bd 0216 16be f3fb de3d
000001f0: 3412 8b02 eb22 643e 03f6 103d bf05 b7be
00000200: 0767 0abc d550 be3e db12 70bd 0f4b 8cbc
00000210: 395c d4bd 1842 683e 7ed1 653d 0521 873d
00000220: c114 e93e 0929 6f3e 2f14 93bc 2a9f 1dbb
00000230: 0061 9a3d 7390 75bd 21b0 e03d 28ba 92bd
00000240: d98f ec3d 830a 86bd bec7 08bc e11f 28be
00000250: 460a ba3b 1aba 923e 6805 cf3d d005 bfbd
00000260: 9aa2 08bd f880 c13d a9ea 863d 2bd3 f8bd
00000270: f6bf ce02 cc0c 34be 9cda 453e c372 e43d
00000280: 7ad5 8a3e fa7a 7c3e 1a1f e33b 158e 863e
00000290: 291b 9ebe 03b5 60bc 3243 a3bd e9ab 5a3d
000002a0: 286f 0fbf 8a73 c33e f65b 32be 2583 fbbd
000002b0: 8f5b ad3d ac8f 8ebd f9aa 093e b2f9 86be
000002c0: 9f68 bdbc ac6e 9dbe bbcb 04bd f442 bf3e
000002d0: 8d90 c3bc f4e4 933d 9f4c 053e 20d8 05be
000002e0: 543a fcbc c02e 883e e4cf ccbd 4901 ae3e
000002f0: 74af 9282 4424 6d3e aebc 9c3e 225e 72be
00000300: 657a a5bd f25f 9dbc 88b5 a5bd 2d0a 2f3d
00000310: fac5 6fbc 734f 8b3d 0543 2bbd 6299 013d
00000320: 16d0 d13c 5bc5 24bd a8b6 7ebe f3ac a83e
00000330: 7282 0c3d 7017 e13d 53e8 3cbe 60a9 2e3e
00000340: 285d 6bbd 8c77 74be fe83 f1bc 7bfc 073d
00000350: ddd6 70bc e8fb 743d 17dd b33c d1ad b83d
00000360: 5ac3 743d 4edc a43d aa13 2ebe 7fe7 b83c
00000370: 7c11 7a82 d871 58be a90b 5dbd 78e0 51be
00000380: e050 a682 bfea 9b82 27eb a482 8da6 a982
00000390: 2cfc a482 3861 ae82 d69e 3881 d523 ab82
000003a0: 9c31 2183 d1fb a482 7d7f 9482 64d5 6e82
000003b0: a6d4 9082 4ab2 ea81 3234 9782 f443 9b82
000003c0: a72a b602 94d0 ae82 0ca1 a482 ecc2 a382
000003d0: f9f4 ab82 5299 9382 0922 af82 68eb 9682
000003e0: 66eb b382 b83e af82 9c4a 8282 56b5 9e82
000003f0: 83ef 8502 871e 9382 b350 b282 6736 9182
-2.5748474e-37 -1.9240927e-37 -2.2493594e-37 -2.0326395e-37 2.4388624e-37 2.9722022e-38 -4.7080494e-37 2.9780325e-37
-2.2323886e-37 -1.7852074e-37 -2.2573968e-37 -2.2309205e-37 -2.268517e-37 -2.0118868e-37 2.983626e-37 2.5505423e-37
1.52297e-37 -1.9687315e-37 -2.5655894e-37 -2.5674514e-37 -2.0556486e-37 -2.1743933e-37 -4.532215e-37 -1.7179758e-37
-2.2068655e-37 -2.2126133e-37 5.6008658e-37 -1.452628e-37 2.1915676e-37 -1.9855076e-37 -2.2737177e-37 2.6170278e-37
0.0798731 -0.1420451 0.058473356 0.017379759 0.08540624 -0.053994093 -0.038783994 -0.056681983
-0.31712243 -0.14204831 0.076413974 0.03370679 0.0016525672 0.052016683 -0.066536866 0.13763516
-0.069518626 0.03585284 0.04220121 0.16663258 0.0069238446 -0.15170702 -0.078019716 0.09462953
0.060404256 -0.046278507 -0.050182402 0.21707164 2.6191853e-37 0.13455519 -0.07120382 -0.047716588
-0.17140114 0.046170726 -0.41815177 0.0993566 0.1587438 0.0055272006 -0.0018252053 -0.17679273
0.18552409 0.023702374 -0.18489885 0.12688193 0.025862291 0.10815015 0.013887785 0.1674868
-0.20969127 -0.23086716 -0.17861861 -0.0035710796 -0.10347442 0.0692255 -0.060484767 0.16487238
-0.2103754 0.011614987 -0.007730294 0.10264943 -1.9899467e-37 -0.36819977 0.0890664 -0.13254617
-0.08579876 0.1913114 0.41834822 0.07699557 -0.23322953 0.23295328 -0.034917235 -0.32037845
-2.6179186e-37 -0.21208228 -0.26608676 -0.3290542 -0.013499696 0.3992271 -0.0035666747 -0.14394216
-0.110571995 -0.080637135 -0.39333296 0.11567798 -0.11986052 0.1442464 -0.1403876 -0.08839105
0.20782165 -0.03620888 -0.14656833 0.10887899 2.0434662e-37 0.22278945 0.035390865 -0.3574657
-0.008447415 0.37171045 -0.058611732 -0.017125634 -0.103691526 0.22681463 0.05610799 0.06598095
0.45523646 0.23355497 -0.01795396 -0.0024051168 0.075380325 -0.05995221 0.10971094 -0.07164413
0.11550874 -0.06544974 -0.0083484035 -0.16418411 0.005677494 0.2865761 0.10108453 -0.093272805
-0.033358194 0.09448427 0.065877266 -0.12149652 3.037916e-37 -0.17583007 0.19321674 0.111547016
0.27115995 0.24656287 0.006931198 0.26280275 -0.30880097 -0.013715032 -0.07971801 0.053386603
-0.56028986 0.38174087 -0.17417893 -0.12280873 0.08464729 -0.06960997 0.13444127 -0.26362377
-0.023121176 -0.30748498 -0.032420855 0.3735577 -0.023872638 0.07221404 0.1301751 -0.13070726
-0.030789532 0.26598167 -0.100005895 0.33985355 -2.1553477e-37 0.23158365 0.306127 -0.23668721
-0.080799855 -0.01921079 -0.08091265 0.042734314 -0.014634604 0.06802263 -0.04181196 0.031640418
0.025611918 -0.040227275 -0.24874365 0.3294445 0.03430409 0.109907985 -0.18448 0.17056799
-0.057461888 -0.23873729 -0.029481884 0.03319977 -0.014699665 0.05981055 0.02195601 0.09017528
0.059756614 0.08049832 -0.16999689 0.022571323 -1.8372117e-37 -0.21137178 -0.053966198 -0.20495784
-2.4437928e-37 -2.290994e-37 -2.4232605e-37 -2.4927914e-37 -2.4242374e-37 -2.5622803e-37 -3.3909422e-38 -2.5146758e-37
-4.7370596e-37 -2.424217e-37 -2.181982e-37 -1.7546719e-37 -2.1280953e-37 -8.6213857e-38 -2.2217415e-37 -2.2814206e-37
2.6766978e-37 -2.568672e-37 -2.419007e-37 -2.4062577e-37 -2.52668e-37 -2.168771e-37 -2.5733474e-37 -2.2175636e-37
-2.6436798e-37 -2.5749938e-37 -1.9144607e-37 -2.3320095e-37 1.9680067e-37 -2.161723e-37 -2.6201068e-37 -2.133706e-37

fc3.bias f4 [32]
00000000: 3a6c b082 e015 803d bed9 eebc 8f77 ffbc
00000010: 7b0d 253e 2b85 053e 5878 26bd 711d a282
00000020: 16f1 56bc 99c7 62bc f2f2 6b83 1254 643d
00000030: 2bfc d7bd d06a c73d 4789 d63d c8ed 043e
00000040: 345b b182 4ca2 c43c 73b0 1cbe b656 343d
00000050: 405c 3fbe fb8a b83d c3c5 5b3e 292d 8d82
00000060: 55c0 933d ecc5 a882 4de5 b182 f54f 5e3e
00000070: 57ea 4d3e 0c80 533e c020 203d 9468 143e
-2.5922995e-37 0.06254172 -0.029156562 -0.03118494 0.16118424 0.13039081 -0.040642112 -2.382066e-37
-0.013119003 -0.013841533 -6.933918e-37 0.05574424 -0.10546144 0.0973717 0.10475402 0.12981331
-2.606016e-37 0.02400317 -0.15301685 0.044028006 -0.18687534 0.090108834 0.21462159 -2.0744009e-37
0.07214419 -2.4798983e-37 -2.6139425e-37 0.21710189 0.20108925 0.20654315 0.039093733 0.14493018

fc4.weight f4 [2, 32]
00000000: 40c4 bc02 cf72 22be e012 433f 8eb1 80bf
00000010: f92b 2f3e 7398 a5bb fc72 203f 7404 ae82
00000020: 210a e5bf fe21 733e 9b4f 6f03 f4be 6c3d
00000030: 92fd 58bd 1523 6e3d 0a09 2abd 830b b43c
00000040: fd52 b402 9538 2f3c afc2 0040 a896 ff3d
00000050: f7f9 d83b 978b 833e 7fa1 3cbf c18b bb02
00000060: adfa 3c3f d454 ad82 60be af82 f443 e8be
00000070: 8101 a03a 948f 72bd a5a3 19bf e57f 93be
00000080: f5b2 9582 0388 dd3e 9fcd 50be 7769 4ebd
00000090: 59dc 1fbf 3aa0 7f3f 080d ac3b 9aa3 bf02
000000a0: 5598 c83e 624d c43e e2a2 6b83 5d4a adbf
000000b0: 6cbc 99bf 22ed c93e 392e 10bf a10b 37bf
000000c0: 4bb3 bb02 f814 4f3f a3ba a5be 20c9 903e
000000d0: 7ad4 cf3f 3c72 19bf be72 c4bc a907 ae02
000000e0: 8cb9 d13e a919 ae82 a016 b702 4b2c ecbe
000000f0: 980c 633f 2f4f 13bf a4fb 4cbd d156 1cbe
2.773676e-37 -0.15864109 0.76200676 -1.0054185 0.17106618 -0.0050535738 0.6267545 -2.5569558e-37
-1.7893716 0.23743436 7.032717e-37 0.057799295 -0.0529762 0.058138926 -0.041512527 0.021978145
2.6496256e-37 0.010694643 2.0118825 0.12479907 0.006621595 0.25692436 -0.73683923 2.7557395e-37
0.7382 -2.5468754e-37 -2.5823209e-37 -0.45364344 0.001220748 -0.059218958 -0.60015327 -0.28808513
-2.1996299e-37 0.4326783 -0.20390938 -0.050393548 -0.624456 0.9985386 0.005250577 2.815883e-37
0.3917872 0.38340288 -6.9247273e-37 -1.3538319 -1.2010627 0.3943873 -0.5632053 -0.7150212
2.758009e-37 0.8089137 -0.32368955 0.28278446 1.6236718 -0.5993993 -0.023980495 2.5571399e-37
0.40961874 -2.558173e-37 2.690242e-37 -0.46127543 0.8869109 -0.575427 -0.05004467 -0.15267493

fc4.bias f4 [2]
00000000: 1213 84be 3c8c 7fbd
-0.257958 -0.062389597
