droplet_approximation/models/network_400m.pth (torch, 13331 bytes, 8 tensors)

fc1.weight f4 [32, 7]
0	0x3f3916be	0.72300327
1	0xba82e95b	-0.0009987758
2	0x3a4575b3	0.0007532492
3	0xbce84a93	-0.028355872
4	0x3e5604fb	0.20900337
5	0x3a91af5f	0.0011114887
6	0x3f2c9f9a	0.6743103
7	0xbe554a9b	-0.20829241
8	0x3cce75e6	0.025202703
9	0x3a8d8bb5	0.0010799082
10	0xbc04e12d	-0.008110327
11	0xba81e3bd	-0.000990979
12	0x38af2f62	8.353476e-05
13	0x3f34b102	0.7058259
14	0x3f277ff4	0.65429616
15	0xba21a94e	-0.0006166891
16	0xbadab187	-0.0016684987
17	0xbcd3252c	-0.02577456
18	0xbed60af3	-0.4180523
19	0xb9a4dab4	-0.00031443464
20	0xbe215d2e	-0.15758201
21	0x3f21e787	0.6324391
22	0xbe545d45	-0.20738705
23	0x3a1ff9ef	0.00061026117
24	0x3dd1d9eb	0.10246643
25	0x3c867317	0.016412301
26	0xba93a7ba	-0.0011265196
27	0xbe39849d	-0.18116994
28	0x3dbce4c4	0.09223321
29	0x3cd05363	0.025430387
30	0xba89c49c	-0.0010510865
31	0x3e6c5176	0.2307795
32	0x3ae928dd	0.0017788667
33	0x3b372bad	0.0027949617
34	0x3e200f66	0.15630874
35	0x3cdd99ee	0.027050938
36	0xbad40c8e	-0.0016178058
37	0xba116799	-0.0005546748
38	0xb8b23447	-8.497439e-05
39	0x3e409f9b	0.18810885
40	0xba8e57bb	-0.0010859886
41	0xbe84a3fe	-0.25906366
42	0xbd5fab4f	-0.054606732
43	0x3a4ad473	0.0007737346
44	0x3b63cc5b	0.0034759257
45	0x3c1821de	0.009285418
46	0x3d62ab24	0.055338994
47	0x39ba59be	0.00035543548
48	0x3f1a2fe4	0.60229325
49	0xbea3e098	-0.3200729
50	0xbccbd213	-0.024880445
51	0xb95cb0e2	-0.00021046729
52	0x3d4433d8	0.047901005
53	0x3ba95f9d	0.0051688687
54	0xb9102d92	-0.00013749886
55	0x3f0b9dbe	0.5453757
56	0xbe124ee1	-0.14287902
57	0x3b27a5dc	0.0025581038
58	0xbacb40c9	-0.0015506978
59	0x3bdbc7a5	0.006707149
60	0x3aa54969	0.0012610379
61	0xb9ce5e05	-0.00039361432
62	0xbff57a69	-1.9177982
63	0xbb874032	-0.0041275257
64	0x36a07c90	4.7828726e-06
65	0x3a299e11	0.0006470392
66	0x398d0f10	0.00026904838
67	0x3f84591f	1.0339698
68	0x3aa96976	0.0012925107
69	0x3c0af55d	0.008481351
70	0xbeb090ea	-0.3448556
71	0x3d258834	0.040413097
72	0x38ec6544	0.00011272219
73	0xbc51b2f0	-0.01279901
74	0xbaba983c	-0.0014236043
75	0xb9229ae2	-0.00015507222
76	0x3e89487f	0.26813123
77	0x3f8babb8	1.0911779
78	0xbaaec690	-0.0013334323
79	0xba19ff17	-0.0005874498
80	0xbd2fc0cd	-0.04290848
81	0x3e60d9f2	0.2195814
82	0xba238685	-0.00062380015
83	0xbe96902a	-0.29406863
84	0xbbb74e5d	-0.0055940584
85	0x3b28f224	0.0025779093
86	0xb9d96908	-0.0004146772
87	0x3b11edd8	0.002226701
88	0xbf3b9f90	-0.7329035
89	0xba898f3c	-0.0010494958
90	0x3e082a48	0.13297379
91	0xbd528042	-0.051391847
92	0xba63b85b	-0.0008686834
93	0x3b31477b	0.0027050662
94	0x3b4f7a88	0.0031658728
95	0xbdb7abc6	-0.0896831
96	0x3a2c0a24	0.00065627904
97	0xbf918ba6	-1.1370742
98	0x3f59a0a3	0.8501074
99	0xbb58e050	-0.0033092685
100	0xba267c43	-0.0006350914
101	0xbd0f37a6	-0.03496518
102	0xbe5b68d5	-0.21426709
103	0xbaa3dcd3	-0.0012501724
104	0xbe2a7547	-0.166463
105	0xbf075e84	-0.52878594
106	0x3a1e2b39	0.00060336624
107	0xb91378d5	-0.00014064026
108	0x3c91b9bb	0.017788759
109	0x3e7ad08b	0.24493615
110	0xbabc25de	-0.0014354547
111	0xbc525401	-0.012837411
112	0x3bd9782c	0.00663664
113	0xbb95e98d	-0.0045749606
114	0x3a2ccb2f	0.0006591556
115	0x3e4df02b	0.20111148
116	0x3e3b1d70	0.18272948
117	0x3a7f9802	0.0009750129
118	0xbbe1908b	-0.006883686
119	0x3c1734f3	0.009228933
120	0xb90b8674	-0.0001330616
121	0xba366554	-0.0006957848
122	0x3da2764c	0.079327196
123	0x3dc6f68a	0.09714992
124	0xbab0e277	-0.0013495226
125	0xbc0c64d7	-0.008568964
126	0xbb265105	-0.0025377881
127	0xbe1a1f0e	-0.15050909
128	0xbabb75f7	-0.0014302124
129	0xbdbadbfd	-0.09123991
130	0xbc7589ba	-0.01498645
131	0x3b34115a	0.0027476163
132	0xbc35918b	-0.011082063
133	0x3dd856b7	0.105634145
134	0x3c50bfe7	0.012741066
135	0x37be337c	2.267374e-05
136	0xbc84fa85	-0.016232738
137	0x3f291ea9	0.6606241
138	0xba91664d	-0.001109311
139	0xbc93f176	-0.018059473
140	0x3f248fc2	0.64281857
141	0xbaffa28f	-0.0019503402
142	0x3a199ba5	0.00058596797
143	0xbcf61ddc	-0.030043535
144	0x3dee648b	0.11640271
145	0x3a9e104b	0.0012059299
146	0xbf271517	-0.65266556
147	0x3e9a939e	0.30190748
148	0xbb16e3a7	-0.0023023875
149	0xbb2e2cf4	-0.0026577087
150	0xbe53b489	-0.20674337
151	0xbd0d7a3d	-0.034540404
152	0xbb81aa93	-0.0039571016
153	0xbdd59cf5	-0.10430328
154	0x3bc35296	0.0059607727
155	0xbb8552df	-0.004068717
156	0xbb225e6a	-0.0024775513
157	0x3e043dfb	0.12914269
158	0xbde9406f	-0.11389243
159	0xbb43cb38	-0.0029875766
160	0xbca092b4	-0.019601204
161	0xbebf8f5f	-0.3741407
162	0xbce043eb	-0.027376136
163	0x3a9aee11	0.0011820217
164	0x3d7f87af	0.062385257
165	0x3bc7773b	0.0060872114
166	0xb8a56a7a	-7.887646e-05
167	0x3eb50725	0.35357013
168	0x3eaefd08	0.34177423
169	0xbb9d78b8	-0.0048056506
170	0xb96a2eb4	-0.00022333377
171	0xbcf682d7	-0.030091686
172	0xb9cf17d4	-0.0003949987
173	0x3a856328	0.0010176646
174	0xbfe8762b	-1.8161062
175	0x3f3d303f	0.7390174
176	0x3a9f7773	0.0012166336
177	0xb9fb5508	-0.00047937804
178	0xbce4f0c7	-0.027946843
179	0x3e611cc0	0.21983624
180	0x39957bb7	0.0002851167
181	0xbe0f5847	-0.13998519
182	0x3e8c7eaf	0.27440402
183	0xbae34647	-0.001733967
184	0xb9ad1bcd	-0.00033017845
185	0xbc0b7bf0	-0.008513436
186	0xbe0b0bc9	-0.13578714
187	0xbafbe21e	-0.0019217168
188	0xbf9f3cf1	-1.2440473
189	0x3e8bef0c	0.27330816
190	0x3d0fedab	0.035138767
191	0xb9a80804	-0.0003204943
192	0x3dffb45d	0.124855734
193	0xbda22e9d	-0.07919047
194	0x3ab7a332	0.0014010428
195	0xbe147eae	-0.1450145
196	0xbba57867	-0.0050497535
197	0x3b59fa62	0.0033260812
198	0xb91f7d58	-0.00015210116
199	0xbe9aa7c2	-0.30206114
200	0xbace4970	-0.0015738439
201	0x3a869706	0.0010268397
202	0x3a633ea2	0.0008668696
203	0x3f1aad4c	0.6042068
204	0x3e733097	0.23749004
205	0x38e64987	0.0001098095
206	0xbdd11d43	-0.10210659
207	0xbc6865f1	-0.014184461
208	0xb9adfef3	-0.00033187083
209	0xbea1a04d	-0.31567612
210	0xbf64b781	-0.89342505
211	0x3a797114	0.0009515446
212	0x3aeddf33	0.0018148184
213	0x3d247ffa	0.04016111
214	0xbe841dda	-0.25804025
215	0x3ab10359	0.0013505026
216	0x3efc4e7c	0.4927863
217	0xbdb2438c	-0.0870429
218	0x3ace0752	0.0015718734
219	0x3a4a2614	0.00077113626
220	0x3b99df9d	0.0046958462
221	0xbabf3198	-0.0014586924
222	0x39d61231	0.00040830814
223	0xbf94834d	-1.160257

fc1.bias f4 [32]
0	0x3caef3c2	0.021356467
1	0x3e1727b0	0.14761233
2	0x3df31270	0.11868751
3	0xbe8228bc	-0.25421703
4	0x3ea88f24	0.32921708
5	0xbc847438	-0.016168699
6	0xbebab203	-0.36463937
7	0x3e79c8bb	0.24392979
8	0x3e344cdf	0.17607449
9	0xbde23d95	-0.11046902
10	0x3ea15564	0.3151046
11	0x3ec86a85	0.39143768
12	0x3d97d881	0.07414342
13	0x3ea6aace	0.3255219
14	0xbe0bc470	-0.13649154
15	0x3d9de1f9	0.077091165
16	0x3d52c237	0.05145475
17	0xbd893a2f	-0.06700551
18	0x3e80ed37	0.2518098
19	0x3e73150c	0.23738497
20	0x3ea9976d	0.3312334
21	0xbd8c7be8	-0.06859571
22	0x3db25c74	0.0870904
23	0x3eb8f349	0.36123112
24	0xbe25948b	-0.16169946
25	0x3ebfee6e	0.37486595
26	0x3da04459	0.07825536
27	0xbd2b2ee7	-0.041792776
28	0x3e9dd088	0.3082316
29	0xbe596097	-0.21228252
30	0xbe8103db	-0.25198254
31	0x3c74c188	0.01493872

fc2.weight f4 [32, 32]
0	0x3de0f7e8	0.10984784
1	0x3d887cd9	0.06664438
2	0x3da35d2e	0.07976757
3	0xbdca8532	-0.09888686
4	0xba868aad	-0.0010264717
5	0xbccd1368	-0.025033668
6	0x3c9ac23c	0.018891446
7	0x3d9b3006	0.07577519
8	0xbe41b1f2	-0.18915537
9	0xbda7f564	-0.082011014
10	0x3d8faa44	0.070148975
11	0xbc4d2e4f	-0.012523248
12	0x3df53c1b	0.11974355
13	0xbe4c54a5	-0.19954164
14	0xbe1c250d	-0.15248509
15	0x3b17ae6e	0.002314474
16	0x3bf33870	0.0074224994
17	0x3bfbc62b	0.0076835356
18	0x3d119a89	0.035547767
19	0xbb3f1a56	-0.0029159985
20	0xbd4201ea	-0.047365107
21	0x3c0b1103	0.008487943
22	0x3cb030bb	0.021507611
23	0xbddb821e	-0.10718177
24	0xbf5b69f6	-0.8570856
25	0x3d2c1a78	0.04201743
26	0xbed186b2	-0.40923077
27	0x3d5c9f26	0.053862713
28	0x3de0e9d5	0.109821
29	0x3dcf42d1	0.10120166
30	0xbd17938f	-0.037005957
31	0xbd19981c	-0.03749858
32	0xbe34cca9	-0.17656197
33	0x3db6d7e0	0.08927894
34	0xbd2243cf	-0.03961545
35	0xbb963fd7	-0.004585247
36	0xbd0a9817	-0.03383645
37	0x3ddd3444	0.108009845
38	0x3d403820	0.046928525
39	0x3dc69de9	0.09698088
40	0xbe7d2c88	-0.24724019
41	0xbd5e8298	-0.054323763
42	0x3dc5e024	0.09661892
43	0xbd5da3ab	-0.054111164
44	0x3d4a9bd4	0.049465016
45	0xbe36525b	-0.17804854
46	0xba97cea8	-0.0011581974
47	0xbd304d36	-0.043042384
48	0xbcd05aa1	-0.02543384
49	0x3d4f4c87	0.05061009
50	0xbc12215f	-0.008919089
51	0xbd7bb8fb	-0.061455708
52	0x3c629992	0.013830559
53	0xbbac03c8	-0.005249474
54	0x3d00caf8	0.031443566
55	0x3dc94df9	0.09829325
56	0x829ccedc	-2.3040871e-37
57	0x3ddc85f7	0.10767739
58	0xbd4ceaea	-0.05002872
59	0xbcbf4ce1	-0.023352088
60	0xbc03ee03	-0.008052352
61	0xbcffc178	-0.031220183
62	0xbd87dee3	-0.06634309
63	0xbdde9b93	-0.10869517
64	0xbd856a20	-0.06514382
65	0x3cb93b2d	0.022611225
66	0xbd975bf8	-0.073905885
67	0x3e2463d9	0.16053714
68	0x3cf4308a	0.029808301
69	0xbd62b78b	-0.05535082
70	0xbdee3dbc	-0.11632869
71	0x3e86b896	0.26312703
72	0x3c795b02	0.015219452
73	0x3dae50c9	0.08511502
74	0xbdb92cc5	-0.09041742
75	0xbe300dd1	-0.1719277
76	0xbdc9a5f5	-0.09846107
77	0xbe68f3ed	-0.227493
78	0x3e9e0528	0.3086331
79	0x3d096507	0.033543613
80	0xbd1685ac	-0.036748573
81	0xbd795a57	-0.06087717
82	0xbd95cf01	-0.073148735
83	0x3c4aa47c	0.012368318
84	0x3df97fa0	0.12182546
85	0x3e1417f0	0.14462256
86	0xbd31d206	-0.043413185
87	0x3da01289	0.07816035
88	0x3e9b959e	0.30387586
89	0xbd96af64	-0.07357672
90	0x3e026a57	0.12735878
91	0xbd42db27	-0.04757228
92	0x3d1f3908	0.03887275
93	0x3e6d3a72	0.23166826
94	0xbe0904c4	-0.13380724
95	0xbe57e212	-0.21082333
96	0x3dd92d92	0.10604395
97	0xbe112eb0	-0.14177966
98	0xbdf62a88	-0.12019831
99	0x3cea7843	0.028621798
100	0xbe0fb210	-0.14032769
101	0x3d1c9af9	0.03823373
102	0x3daa983e	0.08329819
103	0xbda5ce9c	-0.08096048
104	0x3cfccc35	0.030859092
105	0xbdea6207	-0.114444785
106	0x3e3e8dfc	0.1860885
107	0x3d202756	0.039100014
108	0xbd27c635	-0.04096051
109	0x3e0ad831	0.13559033
110	0x3d877d70	0.06615722
111	0x3e4f3e8d	0.20238705
112	0x3c43a0a7	0.011940158
113	0xbc00f8c2	-0.0078718085
114	0x3da975c8	0.08274418
115	0x3e065a66	0.13120422
116	0xbd0fc836	-0.035103045
117	0x3d94e074	0.072693735
118	0x3cd0b9fa	0.025479306
119	0xbd10405d	-0.03521763
120	0xbe060b96	-0.13090357
121	0xba3af332	-0.0007131576
122	0xbd3187ce	-0.043342404
123	0x3cdb0559	0.026735948
124	0x3e87398b	0.2641109
125	0xbdbb5590	-0.09147179
126	0x3bee343f	0.007269412
127	0x3ddccddb	0.10781451
128	0x3e129e9f	0.14318322
129	0xbc01a84d	-0.007913661
130	0x3c90833f	0.017640708
131	0x3d6f0673	0.05835576
132	0x3ccf6678	0.025317416
133	0xbe226c50	-0.1586163
134	0x3e89f48a	0.2694438
135	0xbd3901bc	-0.04516767
136	0x3dc8da50	0.09807265
137	0xbe3aff4d	-0.18261452
138	0xbd45574d	-0.04817896
139	0x3d7d84df	0.061894294
140	0xbecbc760	-0.3980055
141	0x3e449773	0.19198398
142	0x3d89dd38	0.06731647
143	0x3d2bc754	0.04193814
144	0x3db5f89a	0.088853076
145	0xbbb86e82	-0.005628408
146	0x3cfadace	0.030621912
147	0x3e991ff7	0.299072
148	0x3e1e1099	0.15436019
149	0x370a824a	8.255776e-06
150	0xbd25446a	-0.040348448
151	0xbd247346	-0.040148996
152	0x3c6ec42d	0.014573139
153	0x3e19e381	0.15028192
154	0x3c829d85	0.015944252
155	0x3c4c652a	0.012475291
156	0x3c28b420	0.010296851
157	0xbd106ef8	-0.035262078
158	0xbeb108cc	-0.34577024
159	0xbd6563d8	-0.05600342
160	0xbcbdc1f9	-0.023163782
161	0x3c885871	0.016643735
162	0x3dd48e18	0.10378665
163	0x3b9b8b84	0.004746856
164	0x3e8133ff	0.25234982
165	0x3c0d541a	0.008626008
166	0xbd37a1ec	-0.044832155
167	0x3e89522f	0.26820514
168	0x3e1f81bb	0.15576832
169	0xbc5de4aa	-0.013543287
170	0xbd1f6593	-0.038915228
171	0x3da48b6f	0.08034407
172	0x3d7a4856	0.06110414
173	0x3d8c55b2	0.068522826
174	0x3d398a80	0.0452981
175	0x3c777d91	0.015105621
176	0x3d90f081	0.070771225
177	0x3ceef7fb	0.02917098
178	0xbdc940c8	-0.09826809
179	0x3bce3b09	0.0062936586
180	0x3d2d3476	0.04228636
181	0xbd9a5a03	-0.075366996
182	0x3da1fb1c	0.079092234
183	0x3e2c1234	0.16803819
184	0x3e289d12	0.16466168
185	0x3d870a6e	0.06593786
186	0x3c56c45a	0.013108337
187	0x3db9cbbf	0.090720646
188	0xbe9be7dc	-0.30450332
189	0x3e23ef1a	0.16009179
190	0x3ca964d6	0.020677965
191	0xbc7f648c	-0.015587937
192	0x3cd86bce	0.026418593
193	0x3d348d36	0.04407998
194	0x3dbb3774	0.09141436
195	0xbd1cd4ff	-0.038289066
196	0xbd7751fe	-0.06038093
197	0xbc7c3ee2	-0.015395852
198	0xbd0e0607	-0.034673717
199	0x39738b70	0.0002322623
200	0x3e10f9ac	0.14157742
201	0xbc69cce1	-0.014270038
202	0x3cc857b8	0.02445589
203	0x3d44acd7	0.048016395
204	0xbe0ac5ab	-0.13551967
205	0x3d2b510a	0.04182533
206	0x3981f6e0	0.00024788734
207	0x3da61bd6	0.08110778
208	0xbde8a721	-0.11360002
209	0xbcf7fd92	-0.030272279
210	0xbb149e83	-0.0022677488
211	0x3daf770a	0.08567627
212	0x3d16512d	0.03669851
213	0x3cb4f1fb	0.022088042
214	0xbd381c68	-0.044948965
215	0xbb62ea09	-0.003462436
216	0x3cc52219	0.02406411
217	0x3cab9470	0.020944804
218	0xba2d1aef	-0.00066034397
219	0xbd500ea9	-0.05079523
220	0x3d6ff05b	0.05857883
221	0xbd706cb2	-0.05869741
222	0xbd70301c	-0.05863963
223	0xbd5ed7cd	-0.054405022
224	0x3dd68c22	0.10475947
225	0x3da1decb	0.079038225
226	0xbc8e226e	-0.017350402
227	0x3e83829a	0.2568558
228	0xbd133b90	-0.035945475
229	0xbd10cd36	-0.035351954
230	0x3d453a5a	0.04815135
231	0xbe5b0fa5	-0.21392687
232	0xbe0a08e4	-0.13479954
233	0xbd72bf30	-0.05926436
234	0x3e5147e1	0.20437576
235	0xbcd61f5d	-0.026138002
236	0xbd297680	-0.041372776
237	0xbd3367bc	-0.0438001
238	0x3e1dbd27	0.15404187
239	0x3da14e68	0.07876283
240	0x3d44fce9	0.048092756
241	0x3aa36a4c	0.0012467592
242	0x3ccbac32	0.024862383
243	0xbcbd1be3	-0.023084586
244	0x3c7ec78f	0.015550508
245	0xbcf08d3f	-0.029364226
246	0x3c3a9aa0	0.011389405
247	0xbe03b18b	-0.12860696
248	0xbe47fee1	-0.19530822
249	0xbca1f645	-0.01977075
250	0xbde785d5	-0.11304823
251	0x3af870fa	0.0018954568
252	0x3db72399	0.089423366
253	0xbe7fa0fe	-0.24963757
254	0xbbd82eac	-0.0065973606
255	0x3d990496	0.07471578

fc2.bias f4 [32]
0	0x3e2abdb7	0.16673933
1	0xbc1440e7	-0.009048677
2	0xbd17bff3	-0.03704829
3	0x3e376464	0.1790939
4	0x3bc6af65	0.006063389
5	0xbc259594	-0.010106463
6	0xbd0e2aef	-0.034708913
7	0x3e10c373	0.14137058
8	0x3d6590bb	0.05604623
9	0x82acc100	-2.5383905e-37
10	0x3e0dc4a5	0.13844545
11	0x3df5030f	0.11963474
12	0xbd62c7d8	-0.055366367
13	0xb9fde93f	-0.00048429702
14	0x3d969f89	0.07354648
15	0x3e796fbc	0.2435903
16	0x3da06ef4	0.07833663
17	0x3cd421ad	0.025894964
18	0xbe4ccdcf	-0.20000385
19	0x3d0a322a	0.033739246
20	0x3db7ce96	0.0897495
21	0x3e314e5b	0.17315046
22	0x3e2ccc17	0.16874729
23	0x3e03362a	0.1281363
24	0x3d0afcdf	0.033932563
25	0xbc91cc18	-0.017797515
26	0x3d22200e	0.03958135
27	0xbd65071e	-0.05591499
28	0x3dd707bc	0.10499522
29	0x3d9c9e0e	0.07647334
30	0x3e09aa57	0.13443886
31	0xbe45785e	-0.19284198

fc3.weight f4 [32, 32]
0	0x3d24cb54	0.04023297
1	0x3de83627	0.11338454
2	0xbd34392d	-0.04399984
3	0xbd6bbb1a	-0.05755148
4	0xbee6faa5	-0.45113102
5	0x3d3afa59	0.045648906
6	0xbdc7ae8a	-0.097500876
7	0xbd4e54ea	-0.05037395
8	0x3e07a98e	0.13248274
9	0x82a2bcfe	-2.3912237e-37
10	0xbcb6b1d1	-0.022301586
11	0x3d13b29d	0.03605901
12	0x3e63ff30	0.22265315
13	0x3ea37db5	0.31931844
14	0x3c99a928	0.018757418
15	0xbdaf98f2	-0.08574094
16	0x3d9cf54a	0.07663973
17	0x04b89d00	4.3402374e-36
18	0x3e9201ca	0.2851699
19	0xbefb86f5	-0.49126402
20	0xbdc1c251	-0.09460891
21	0xbd1e1d61	-0.038602237
22	0xbe62baae	-0.22141525
23	0xbda544d5	-0.08069769
24	0x3dfc4801	0.12318421
25	0xbe03dd3f	-0.12877367
26	0x3cda8b9c	0.026677899
27	0xbdbace41	-0.09121371
28	0xbea7ea2e	-0.32795852
29	0x3caabb5a	0.02084129
30	0x3ed0b423	0.40762433
31	0xbe3e2eee	-0.1857259
32	0x82b0d122	-2.5980912e-37
33	0x825df999	-1.6308147e-37
34	0x8235cc74	-1.3356455e-37
35	0x0097af38	1.3930017e-38
36	0x836a074c	-6.8774796e-37
37	0x835be976	-6.4626316e-37
38	0x82a9677b	-2.4891713e-37
39	0x82abd76d	-2.524984e-37
40	0x83476312	-5.859457e-37
41	0x827b8fbc	-1.8481817e-37
42	0x829f4293	-2.3401162e-37
43	0x028af3bf	2.041718e-37
44	0x828d4172	-2.0755652e-37
45	0x82c2e540	-2.863732e-37
46	0x8272ed8a	-1.7847522e-37
47	0x828daa1a	-2.0815721e-37
48	0x812d1370	-3.1789027e-38
49	0x028b19ab	2.0438947e-37
50	0x8357037d	-6.3186826e-37
51	0x80623d68	-9.021907e-39
52	0x02aec08a	2.5677514e-37
53	0x02ada8b4	2.5516896e-37
54	0x829db2dc	-2.3171737e-37
55	0x834ea1ee	-6.0723845e-37
56	0x8359ad54	-6.396954e-37
57	0x8334d7d2	-5.3144995e-37
58	0x81304e1f	-3.2382144e-38
59	0x831fd683	-4.697215e-37
60	0x80ededd8	-2.1850335e-38
61	0x0291eda9	2.1442245e-37
62	0x82925198	-2.1499604e-37
63	0x8358ca31	-6.37088e-37
64	0x3ed428b9	0.4143732
65	0xbcf68631	-0.030093284
66	0xbc876ed0	-0.016532332
67	0x3d6a9d59	0.057278965
68	0xbd4f3a94	-0.050592974
69	0xbdb38a64	-0.0876663
70	0xbd71bcc6	-0.05901792
71	0x3d00d886	0.031456493
72	0xbcd072fc	-0.025445454
73	0x82a60326	-2.4393315e-37
74	0x3e3b420b	0.18286912
75	0x3d9750f9	0.07388491
76	0x3e1dde3b	0.15416805
77	0xbd8de34d	-0.0692812
78	0x3e378cd9	0.17924823
79	0x3cba4d5b	0.022741964
80	0x3cd44ba9	0.025914984
81	0x3db29d91	0.0872146
82	0xbe94cad9	-0.2906101
83	0xbe1d613b	-0.15369122
84	0xbbd9e50b	-0.0066496185
85	0x3ee3d8cb	0.44501337
86	0x3e39ee38	0.1815728
87	0xbc0a9313	-0.008457917
88	0xbc99a0a9	-0.018753367
89	0xbe09d13a	-0.1345872
90	0x3dcbe32e	0.099554405
91	0x3e0f3038	0.13983238
92	0xbe1dcdba	-0.1541051
93	0x3d2290d2	0.039688893
94	0x3e75a0e2	0.23987153
95	0x3d875869	0.0660866
96	0x3e9d3d6b	0.3071092
97	0xbd20d574	-0.039266065
98	0xbd0ca92f	-0.034341034
99	0x3cb7ecdd	0.022451812
100	0xbd6a5150	-0.057206452
101	0xbe07f114	-0.13275558
102	0xbd222e8f	-0.039595183
103	0x3d8393d8	0.06424683
104	0xbd08152a	-0.03322331
105	0x829b93c9	-2.2860028e-37
106	0x3b2ae889	0.0026078543
107	0x3d843be5	0.064567365
108	0x3e499b39	0.19688119
109	0xbd01ee7c	-0.031721577
110	0xbc86c213	-0.016449964
111	0xbdb66a2f	-0.08906972
112	0x3ded2894	0.11580005
113	0x3db46f6f	0.08810317
114	0xbe4d75ae	-0.20064422
115	0xbe6d8925	-0.23196848
116	0xbc6d8ac3	-0.014498415
117	0x3e87d624	0.26530564
118	0x3ea38cdf	0.31943414
119	0xbdc51ee5	-0.09625033
120	0xbcf7ea67	-0.030263139
121	0xbe260394	-0.16212302
122	0x3e7d6465	0.24745329
123	0x3e31ada9	0.17351402
124	0xbddb3e86	-0.10705285
125	0x3d36b926	0.044610165
126	0x3e8da6d7	0.2766635
127	0x3dd3ea2b	0.10347398
128	0xbd03dc75	-0.032192666
129	0x3d64388f	0.055718
130	0x3c583e2c	0.013198417
131	0x3e740307	0.2382928
132	0x3c4e3ec4	0.012588207
133	0xbd4c5c63	-0.049892794
134	0xbb8c8c47	-0.0042891833
135	0x3c836692	0.01604012
136	0x3d4337e5	0.047660727
137	0x82a65bc4	-2.4444179e-37
138	0x3d67b93f	0.05657315
139	0xbcbb8461	-0.022890272
140	0x3dc89ac5	0.09795145
141	0x3c375cdd	0.011191574
142	0xb98602dd	-0.00025560605
143	0x3d8cf074	0.068818
144	0xbdb39bcc	-0.0876995
145	0xbc523152	-0.012829142
146	0xbc81c058	-0.015838787
147	0xbce9a066	-0.028518867
148	0x3d6090b0	0.054825485
149	0xbde3f700	-0.11131096
150	0xbd09358b	-0.03349833
151	0x3e65d0ca	0.22442928
152	0x3da903cf	0.082526796
153	0x3d1bd98b	0.038049262
154	0xbd9d1c62	-0.07671429
155	0xbe048de9	-0.1294476
156	0x3c538791	0.0129107395
157	0xbd588350	-0.052859604
158	0x3d0cd0ef	0.034378942
159	0xbc4e3147	-0.012584991
160	0x820f1284	-1.0511294e-37
161	0x02db216a	3.2198337e-37
162	0x82580df3	-1.5873177e-37
163	0x81c85036	-7.3583494e-38
164	0x82653397	-1.6839068e-37
165	0x827d78ed	-1.8622208e-37
166	0x826a0ac8	-1.7194699e-37
167	0x8251f85e	-1.5426173e-37
168	0x827f35e0	-1.8749903e-37
169	0x80b9b274	-1.7053584e-38
170	0x823eb6fe	-1.4011512e-37
171	0x82658188	-1.6861437e-37
172	0x828f005c	-2.1012168e-37
173	0x828a5411	-2.032553e-37
174	0x823bde6a	-1.380242e-37
175	0x825480b3	-1.5612235e-37
176	0x81ba3388	-6.8399553e-38
177	0x83536f0d	-6.2134807e-37
178	0x828f31a9	-2.1040465e-37
179	0x827c4710	-1.853443e-37
180	0x025366d4	1.5531342e-37
181	0x8254ac22	-1.56247e-37
182	0x826c571e	-1.7363543e-37
183	0x829a2a08	-2.265239e-37
184	0x82891c43	-2.0146562e-37
185	0x8280692d	-1.8868278e-37
186	0x0137eeb8	3.3783064e-38
187	0x8270bb0a	-1.7686093e-37
188	0x8284c685	-1.9509601e-37
189	0x0331370f	5.207883e-37
190	0x824c63b8	-1.5016171e-37
191	0x82910c89	-2.131303e-37
192	0xbe09c6b9	-0.13454713
193	0x3d64e226	0.055879734
194	0xbe82d98e	-0.25556606
195	0x3e6add05	0.22935875
196	0xbd791797	-0.060813513
197	0x3e03d731	0.12875058
198	0x3db44bf4	0.088035494
199	0x3e01862e	0.12648842
200	0x3dc2daf2	0.09514417
201	0x82b587ae	-2.6673436e-37
202	0xbce7c977	-0.028294308
203	0x3df12961	0.117754705
204	0x3eabe92c	0.33576334
205	0x3d7eb0b4	0.062180236
206	0xbde36d37	-0.111048155
207	0xbb001e84	-0.0019549439
208	0x3c7bbcdd	0.015364853
209	0xbb0dea0f	-0.0021654402
210	0x3ed1e07b	0.40991578
211	0xbe5e15e0	-0.21688032
212	0x3e248124	0.16064888
213	0xbdd9225c	-0.10602257
214	0xbdbccf57	-0.092192344
215	0x3e4cfc28	0.20018065
216	0x3e504f8b	0.20342843
217	0xbd7eea70	-0.062235296
218	0xbc8b7450	-0.017023236
219	0xbe187720	-0.14889193
220	0xbe38f3c1	-0.18061735
221	0xbe260df1	-0.16216256
222	0x3c5e59f2	0.013571249
223	0x3d2eb397	0.04265174
224	0xbe714319	-0.23560752
225	0xbeb405e1	-0.35160735
226	0x3e3ef6a0	0.18648767
227	0xbd162a11	-0.03666121
228	0xbd73adae	-0.059491806
229	0x3d1737b5	0.03691836
230	0xbd9ec801	-0.077529915
231	0x3daaa45a	0.08332129
232	0xbe922b22	-0.28548533
233	0x02a93636	2.4863434e-37
234	0x3b8b3fb5	0.004249538
235	0x3d2a4609	0.041570697
236	0xbdf82a9b	-0.12117501
237	0x3e879eef	0.26488444
238	0x3d612ca1	0.054974202
239	0xbd99e71e	-0.07514785
240	0x3d9f7381	0.077857025
241	0xbd3a1107	-0.045426395
242	0xbd8ffaf4	-0.070302874
243	0x3ea3a218	0.31959605
244	0xbda2a6c2	-0.07941963
245	0xbddb615e	-0.10711931
246	0x3eb49995	0.35273424
247	0x3e6467e3	0.22305255
248	0xbe654629	-0.22390045
249	0x3e558b4d	0.2085392
250	0x3e02a360	0.12757635
251	0x3eb77c1a	0.3583687
252	0x3e43f641	0.19136907
253	0xbe5fa5df	-0.21840619
254	0xbca87b01	-0.020566465
255	0x3db8de04	0.09026721

fc3.bias f4 [32]
0	0x3dcbbb3d	0.09947822
1	0x8331aa2c	-5.2210973e-37
2	0x3e176ec7	0.14788352
3	0x3df84db7	0.12124198
4	0x3e538b00	0.20658493
5	0x82a50080	-2.4244858e-37
6	0x3e2c6dca	0.16838756
7	0x3d29b37a	0.041430928
8	0x3e21caf0	0.15800071
9	0x3de1777c	0.11009118
10	0x3d4b61a8	0.04965368
11	0x82aba8c5	-2.522306e-37
12	0x3e720ce3	0.23637728
13	0x3dbec0e7	0.09314137
14	0x82a32cb6	-2.397636e-37
15	0x3c265e21	0.010154278
16	0x829fb9d3	-2.3469608e-37
17	0x3d8da157	0.06915539
18	0xbb9549a9	-0.0045559
19	0x3dea86cd	0.114514925
20	0x3dfbd555	0.12296549
21	0x3db1bacc	0.08678207
22	0x3d950e5b	0.07278129
23	0x3dae4050	0.085083604
24	0x82b30e7f	-2.6310006e-37
25	0x82aca8ce	-2.5370018e-37
26	0x82b1e942	-2.6141696e-37
27	0x3dc2e813	0.09516921
28	0xbe26646b	-0.16249244
29	0xbcaa082a	-0.020755846
30	0x3de0bb97	0.1097328
31	0x3e2af75f	0.16695927

fc4.weight f4 [2, 32]
0	0xbf72cb87	-0.9484181
1	0x829a618d	-2.2684258e-37
2	0x3b7fd43d	0.0039036416
3	0x3d358280	0.044313908
4	0xbe973ed1	-0.29540113
5	0x02a805ca	2.4688704e-37
6	0xbf39d2fb	-0.72587556
7	0x3f0c4f6e	0.548087
8	0xbd162a4d	-0.036661435
9	0xbe72ef2d	-0.23724051
10	0xbfb4aed5	-1.4115855
11	0x02afd376	2.5835312e-37
12	0x3adeab95	0.0016988391
13	0xbe3b5810	-0.18295312
14	0x02a2d0fd	2.3923714e-37
15	0x3ee65021	0.44983009
16	0x02ac212e	2.5292173e-37
17	0xbdc47b93	-0.095938824
18	0x3ceb101d	0.028694207
19	0x3cb51e8a	0.022109289
20	0x3eb78e02	0.3585053
21	0x3d2a6d91	0.041608397
22	0xc005b4dc	-2.0891638
23	0x3e27ab9a	0.16374055
24	0x02bb97a3	2.7564216e-37
25	0x02a106e4	2.3660779e-37
26	0x82cf1458	-3.0427593e-37
27	0x3c9395ed	0.018015826
28	0x3d88923e	0.066685185
29	0x3c1f7f25	0.009734903
30	0x3f6313d2	0.8870212
31	0xbc92035a	-0.017823864
32	0x3cfa0776	0.030521136
33	0x0292b4b9	2.1556502e-37
34	0xbf3681a6	-0.7129158
35	0xbf374072	-0.7158271
36	0x3d990543	0.07471707
37	0x82af3e2c	-2.5749624e-37
38	0x3e05b528	0.13057387
39	0x3ed61984	0.41816342
40	0x3f20eda9	0.6286264
41	0x3ec6805f	0.38769814
42	0xbda3bbf9	-0.07994837
43	0x02af7e63	2.5786481e-37
44	0x3f39bef7	0.72557014
45	0xbf065855	-0.52478534
46	0x82b52225	-2.6615158e-37
47	0x3b99751d	0.0046831504
48	0x02c6a1c9	2.9186345e-37
49	0xbf38b4c8	-0.7215085
50	0xbec436c3	-0.3832303
51	0xbed93f8d	-0.42431298
52	0x3f0d7fe3	0.55273265
53	0xbf2b2bb3	-0.66863555
54	0x3f21449e	0.62995327
55	0xbf0e06fe	-0.5547942
56	0x82c059c4	-2.8263387e-37
57	0x02a0f467	2.3650167e-37
58	0x82ad0e78	-2.542837e-37
59	0xbf326d31	-0.6969786
60	0xbfdc47fa	-1.7209466
61	0xbe92a25b	-0.28639492
62	0xbe3e8541	-0.1860552
63	0x3f256daa	0.6462046

fc4.bias f4 [2]
0	0xbe3c6809	-0.18399061
1	0x3dcfc65f	0.10145258
